models/neural_networks/regression/kfold/2023-11-23_14:54:46/NN_model.pt (torch, 53511 bytes, 13 tensors)

model.0.weight f4 [100, 11]
000000 b6 b3 92 bf 45 14 01 bf 87 8e 2d be d8 4f d8 3e
       -1.1461093 -0.50421554 -0.16948901 0.42248416
000010 87 69 d6 3f 6f d4 9e 3f c9 3c 43 be b5 7e f1 3f
       1.6750954 1.240858 -0.19066156 1.8866793
000020 46 6b d4 be bc 9e 6f bc d1 08 89 bf 6f 8d a4 3e
       -0.41488093 -0.014625248 -1.0705816 0.32139155
000030 81 5a 16 3f eb ef 81 bf 13 d9 73 3d c1 5b e0 be
       0.5873185 -1.0151342 0.05953319 -0.43820003
000040 88 89 03 3e 2a 14 a0 be ca f0 a1 bb d2 9c 8d 3f
       0.12845433 -0.31265384 -0.0049420344 1.1063483
000050 43 2b 2b 3f 2f 0f 13 3f c1 5a 8d bf f0 91 21 bf
       0.6686289 0.57445043 -1.1043321 -0.6311331
000060 3e 1d 4c bf 97 a8 b1 3f b5 50 41 be a5 c7 89 be
       -0.7973212 1.3879575 -0.18878444 -0.2691013
000070 c7 34 c7 be 5b fd af be 36 71 b9 bd 24 57 95 be
       -0.38907453 -0.34372982 -0.090547964 -0.29168046
000080 e7 c0 5a bf d2 fa c1 3f a8 f4 05 40 2d 2b da 3f
       -0.85450596 1.5154669 2.0930576 1.7044426
000090 8b 65 a6 40 5f 2d 96 40 27 48 6f 40 0f 66 9e 3f
       5.1998954 4.6930385 3.7387788 1.2374896
0000a0 a5 ac 98 40 fa ea 0f 40 76 06 00 3f bd 2e 53 c0
       4.771075 2.2487168 0.5000986 -3.2997277
0000b0 af 58 77 bf b9 98 16 3e 42 fb 1a bf 19 ae 25 bf
       -0.96619695 0.14706697 -0.6053964 -0.64718777
0000c0 5b b1 94 3e ae 68 ce 3c c3 a9 1d 3e c8 02 39 bf
       0.2904156 0.0251964 0.1539679 -0.7226987
0000d0 87 82 fa be e6 2b b6 be bc 51 8e bd 98 67 b6 3e
       -0.4892771 -0.35580367 -0.06949183 0.3562591
0000e0 f7 9a 82 bf 34 24 3d 3e 5c aa 99 3c 8f e9 9d bd
       -1.0203542 0.18470842 0.018757991 -0.077105634
0000f0 b5 3a d7 be 9b 69 ad 3c d6 1a 85 bd ea 9c cd bd
       -0.42036977 0.02116852 -0.06499259 -0.100396946
000100 a7 14 78 3f 10 55 fa 3d 8c ee f6 bf 37 a4 ed be
       0.9690651 0.12223256 -1.9291549 -0.46414348
000110 0d d5 9f 3f e0 89 34 bf 98 f7 39 be a8 f2 38 bd
       1.2486893 -0.7052288 -0.18160856 -0.04515329
000120 68 e6 2b 3f 71 7c 3c 3f af 10 39 3f b4 40 15 3e
       0.6714845 0.7362738 0.7229108 0.14575464
000130 8e e3 93 3f 5a e7 f1 bd 82 f5 17 be ec ec 41 3f
       1.1553819 -0.11811705 -0.14839748 0.7575214
000140 d2 ce 17 3f e4 d4 aa bf 72 26 0a bf 64 2e 19 3f
       0.5929996 -1.3346219 -0.5396491 0.5983641
000150 1e 76 48 bf 11 3b 0e bf 8d 87 44 bf 3c 1f 6b bf
       -0.7830523 -0.5555888 -0.76769334 -0.91844535
000160 c5 01 ba 3f 9f db 9a bf 18 07 1f 3f ad 6b 25 be
       1.453179 -1.2098273 0.621202 -0.16154356
000170 bb 26 60 bf 7d 0b 35 bf f7 c4 a1 3e 1a ed d0 bb
       -0.875591 -0.70720655 0.31595585 -0.006375921
000180 19 d1 43 be 7c 8d c6 bc bb 18 10 3f d5 50 0b 3e
       -0.19122733 -0.024237387 0.56287736 0.13605054
000190 a0 07 d5 3d 11 6d 12 bd 24 6e 97 bb 34 ae b6 be
       0.10401845 -0.035748545 -0.004621284 -0.3567978
0001a0 0d f9 fe be f7 b7 d5 bd f5 40 26 be a2 e2 41 be
       -0.49799386 -0.10435479 -0.16235717 -0.1893411
0001b0 43 fc ef bd c0 04 ad 3e be a7 68 3f 05 d7 79 3f
       -0.11718037 0.33792686 0.90880954 0.9759372
0001c0 f8 31 6c be fd 52 13 3f a4 61 0c 40 79 17 08 c0
       -0.23065937 0.57548505 2.1934595 -2.1264327
0001d0 87 67 2f 40 03 83 cc bf 4c 34 71 be c5 d8 d9 be
       2.7406938 -1.5977482 -0.23555106 -0.42548195
0001e0 6b a4 e5 3f 15 e0 d5 40 05 aa 0e 41 eb 40 ed 40
       1.7940801 6.683604 8.916509 7.4141746
0001f0 3b f6 a8 c0 ad 66 2c be 1a bf 02 40 56 2f 45 40
       -5.2800574 -0.16836043 2.042914 3.0810142
000200 52 20 fe bf 48 31 d8 bf a8 b2 10 c0 c7 f8 07 41
       -1.9853613 -1.689004 -2.2609043 8.498237
000210 7d 22 b3 3e f0 27 10 3e df a4 2d bf b0 07 c0 3f
       0.3498725 0.14077735 -0.678297 1.5002346
000220 7d 52 66 bf e6 f6 66 3f c3 99 5c bf 84 2b c3 bd
       -0.8996962 0.9022049 -0.8617212 -0.09529784
000230 06 06 f5 be 6f 31 ed be 83 77 43 bb 58 6f 47 3f
       -0.47856158 -0.46326777 -0.0029825873 0.7790427
000240 0c 21 97 be b4 a5 58 3b c5 65 ee 3e e1 03 7d 3e
       -0.295174 0.003305775 0.4656202 0.24708511
000250 2c 31 c5 3e 57 a7 98 3f 1e 5e 86 3f d5 31 25 bf
       0.38514078 1.1926068 1.0497472 -0.6452916
000260 3f 79 96 bd f0 67 b8 3e cb 5f d9 3f 7a 1d 03 3e
       -0.073473446 0.36016798 1.6982359 0.12804213
000270 74 68 06 c0 f2 77 6e bf dd e0 1d 3f 75 6b 77 be
       -2.1001253 -0.9315177 0.6167124 -0.24162085
000280 9e 8e 7f bd 30 e9 43 3f e3 00 28 3e 2b 8d 94 3f
       -0.06239187 0.7652769 0.16406588 1.1605581
000290 99 83 48 bf 50 ab 9a 3f b7 45 3e 3e 78 62 23 3f
       -0.783258 1.208353 0.18581282 0.63822126
0002a0 02 7b a2 3e d7 00 9e bf 5c 3a 31 be 0e 82 51 3f
       0.31734473 -1.2344006 -0.17307419 0.8183907
0002b0 5e e3 ca be 3c 43 1a bf 1e e4 a4 be d1 ee fc 3e
       -0.39626592 -0.6025884 -0.3220529 0.49400952
0002c0 5b da 8c 3e bc 18 61 3e 2c 43 e4 3f 82 af bf 3e
       0.27510342 0.21982092 1.7832999 0.3743859
0002d0 e1 3c 00 3f 90 6d 96 3d 61 d6 75 3f 41 96 d3 be
       0.50092894 0.07345116 0.9603024 -0.41325572
0002e0 ca 97 cd be 1a 13 ab bf 19 3e d6 3f ab 38 ee c1
       -0.40154868 -1.3365204 1.6737701 -29.77767
0002f0 6d 15 ff c1 a3 09 7b 41 e0 07 d2 c1 cc a6 c5 c1
       -31.885462 15.689853 -26.253845 -24.706444
000300 01 51 93 c1 5c 28 da c1 6f 00 8d c1 05 c1 cb c1
       -18.414553 -27.269707 -17.625212 -25.469248
000310 8a f7 6d c2 b7 bd 2b c1 d9 24 be bd f3 2e 34 bf
       -59.491737 -10.733817 -0.09284372 -0.7038414
000320 88 8a 57 bf 2e 71 23 3e 6c b4 7d bf 56 1f 78 bf
       -0.84195757 0.15961143 -0.99103427 -0.96922815
000330 8a 75 b6 bf de 8a 09 3f da 33 ac 3f e1 73 70 bf
       -1.425462 0.5372752 1.3453324 -0.9392682
000340 4e ce 63 be 32 a6 56 3f cb c6 24 3f d1 8b 0a 3f
       -0.22246668 0.83847344 0.64365834 0.5411959
000350 c6 ef be be bb a6 1b be 76 62 78 3e 4e b3 44 3e
       -0.37292308 -0.15200321 0.2425631 0.19209024
000360 9e 96 69 3e 50 76 87 3e 8c a9 f9 3e d5 ee 80 3f
       0.22811362 0.26457453 0.48762167 1.0072886
000370 34 4e 8a 3e 0a 02 c8 bd d8 63 42 bf a8 f8 11 bf
       0.2701279 -0.09766014 -0.759336 -0.57020044
000380 80 6f 8f bb bf f1 53 be 17 72 f4 bd ee 42 1c bf
       -0.0043773055 -0.20697688 -0.119358234 -0.61039627
000390 77 7e cf 3e 74 96 13 3d 34 28 08 bf a2 13 2b bf
       0.40526173 0.036032155 -0.53186345 -0.6682683
0003a0 08 5c a8 bf 74 b5 25 bf 6a 11 e5 bc ba 8d 90 3e
       -1.3153086 -0.6473 -0.027962405 0.2823313
0003b0 6b d6 9d be 58 08 87 be f3 bf a3 3f 7b 35 22 3f
       -0.3082765 -0.26373553 1.2792953 0.63362855
0003c0 cd a0 d3 bd 67 ae 91 be 70 b8 9a be 59 8a 06 bf
       -0.10333405 -0.2845337 -0.3021884 -0.5255485
0003d0 88 72 89 3e 1b d9 e8 bc 9c 31 e0 be fc a7 87 bd
       0.26845193 -0.028423836 -0.4378785 -0.06623837
0003e0 ed 70 1c 3f a5 d4 06 3f f8 e7 05 be 09 74 ba 3d
       0.6110981 0.5266822 -0.1307677 0.09104163
0003f0 ae 53 01 bf 32 ec 85 be 02 9c b8 be 06 21 f7 3c
       -0.5051831 -0.26156765 -0.36056525 0.030167114

model.0.bias f4 [100]
000000 f7 eb e5 bf 07 46 a1 3d 81 42 30 be 00 36 83 3f
       -1.7962636 0.07874685 -0.17212869 1.0250854
000010 80 62 98 bf 5c 6e f0 bd 4c 22 85 bf 55 ce 8b bf
       -1.190506 -0.117397994 -1.0401092 -1.0922343
000020 a6 aa fa bf bf 2f 01 bf a3 db 45 c0 88 18 5c 40
       -1.9583328 -0.5046348 -3.0915306 3.4389973
000030 8d 5e dc 3d a8 c5 19 3f a9 12 5b 3f df fa 62 c0
       0.10760222 0.60067225 0.8557535 -3.546562
000040 57 da 6e bf 5d 34 13 c2 cc 17 db 3e 46 f0 85 3c
       -0.9330191 -36.801136 0.42791593 0.016349923
000050 8b 99 d5 3e 20 31 9f bd c3 e8 da 3e f7 14 d0 3d
       0.41718706 -0.07773042 0.42755708 0.10160249
000060 29 a0 7b bf 59 1b 5b bf 66 00 37 c0 e8 80 a0 bd
       -0.9829126 -0.85588604 -2.8593993 -0.07837087
000070 48 d3 4f bf 18 12 cf 3f eb 1d 1c 3f e0 f5 3c c0
       -0.81181765 1.6177397 0.6098315 -2.952507
000080 e1 8a 7e be 8a ce 87 3e 88 b0 44 bf a0 0d 78 3f
       -0.24857666 0.26524764 -0.76831865 0.9689579
000090 82 fa ca bd c7 8c 20 c0 fe b6 91 bf da bc a7 3d
       -0.09911062 -2.5085924 -1.138397 0.081903175
0000a0 ed 96 cd bf c6 e1 fc 3d a1 ba 8c bf ef 4a c0 be
       -1.6061684 0.1234775 -1.0994455 -0.3755717
0000b0 cb 08 3b be 51 12 76 bf 87 98 fc be b1 18 10 bf
       -0.18265073 -0.961217 -0.4933512 -0.56287676
0000c0 d6 c5 1d 3e c7 75 05 bf bd f0 a3 3e 69 eb 5a 3f
       0.154075 -0.5213284 0.32019606 0.8551546
0000d0 a5 90 d7 bf 00 79 9c bf 51 bf c6 bf 41 f3 ce bf
       -1.6841017 -1.2224426 -1.5527135 -1.6167985
0000e0 bb 2b 7b be e0 d4 e5 bf 96 5a e3 be c6 9b 25 bf
       -0.245284 -1.7955589 -0.4440505 -0.64690816
0000f0 86 7b 27 3e b4 66 69 bf 66 4a 30 3e 1e 69 ac 3f
       0.16355714 -0.9117234 0.17215881 1.3469579
000100 90 81 96 3d 0b 2d 2d c0 32 27 8b bf b9 7b c0 3e
       0.07348931 -2.7058742 -1.0871336 0.37594393
000110 33 06 6c 40 4c f9 b8 bf dd 5f 7b c0 1d 45 cd 3d
       3.6878784 -1.4451079 -3.927726 0.10022948
000120 90 b5 d5 bf cf e9 2a bf a3 95 c6 be b4 41 33 bf
       -1.6696033 -0.66763014 -0.3878604 -0.7002213
000130 64 1e 0d bf 6f 29 b7 3f 3a f8 83 bf ed 80 a2 be
       -0.551245 1.430952 -1.0310128 -0.31738988
000140 91 7d 63 bf ee a6 c2 be 37 7d 36 be af f9 b0 be
       -0.88863474 -0.38017982 -0.17821203 -0.34565493
000150 86 b1 98 3e 9e 4b a0 bf 88 28 bb be 09 e9 71 be
       0.2982294 -1.2523077 -0.3655436 -0.23624052
000160 89 5f d9 bf ff e9 be 3b a9 d9 89 bf f3 1c a0 3e
       -1.698228 0.0058262344 -1.076955 0.31272087
000170 42 53 31 bf cd fe 4f 3e ef 3a 17 c0 28 aa ca bf
       -0.69267666 0.20312043 -2.362972 -1.5833178
000180 7a 4b 5d 3e 57 ce f2 be 5e d0 e5 c0 8a 0e 01 be
       0.21610823 -0.4742305 -7.1816854 -0.12603202

model.2.weight f4 [100]
000000 2c 81 0a 40 d0 ad ac bf ee 37 f3 3f bd 5b 1c c0
       2.164134 -1.3490543 1.9001443 -2.4430993
000010 8e 2b 97 3f a4 8f 95 3f 3c 57 22 40 65 1a 46 40
       1.1810167 1.1684461 2.5365744 3.095361
000020 fa 0e 16 40 c6 a1 46 3e 46 e8 26 3f 96 42 97 3e
       2.344664 0.19397649 0.6519817 0.2954299
000030 59 c8 10 40 09 1a 92 3f fd 81 42 40 c0 b8 84 40
       2.2622283 1.1414195 3.0391839 4.1475525
000040 3c f1 13 40 f2 72 88 3f 54 7a 0b 40 56 dc 08 c0
       2.3115988 1.0660079 2.1793413 -2.1384482
000050 48 7e 92 3f 23 fc 94 3e e2 65 d7 3f b6 85 35 be
       1.1444788 0.29098615 1.6827967 -0.17726788
000060 4f 33 f5 3f 3d 77 04 40 5f 22 a7 3f 93 e1 63 3f
       1.9156283 2.0697777 1.3057364 0.89016074
000070 a3 ba aa 3f aa a2 7e bf 97 ec f4 3f a5 cc 8e be
       1.3338207 -0.99466956 1.9134701 -0.27890506
000080 65 4d 03 40 95 72 96 3f 79 04 6a 3f 86 5e 62 3f
       2.0515988 1.1753718 0.91413075 0.8842548
000090 e3 b2 76 3f d8 6d da 3f 51 81 00 3e 4a 82 89 3f
       0.9636671 1.7064772 0.1254933 1.0742886
0000a0 58 9a dd 3f 12 94 fb 3c c3 20 5a 3f 01 a4 5a 3f
       1.7312727 0.030710254 0.8520624 0.854065
0000b0 16 4f b5 3f b2 42 2a 3f 8d 86 d8 3f da ac 0f 40
       1.416476 0.6650802 1.6916062 2.244925
0000c0 96 b9 fa 3d 74 87 d1 3f d4 df 49 bf ac 34 91 3f
       0.12242429 1.6369462 -0.7885716 1.1344199
0000d0 b7 e7 73 3e 74 e1 49 3f 5e 50 34 40 3b b6 da 3f
       0.23818861 0.7885964 2.8174052 1.7086862
0000e0 f2 60 0c 40 84 0a 49 40 15 bc 7b 3f 64 4e 7e 40
       2.193417 3.1412668 0.98333865 3.9735346
0000f0 58 b7 09 40 2d b6 21 40 40 cc 21 40 3e be 79 40
       2.1518154 2.5267441 2.5280914 3.9022365
000100 0a d8 07 40 56 fe 18 40 c4 82 91 3f f9 b1 37 3f
       2.122561 2.3905234 1.1368032 0.7175594
000110 32 0d 3a 3f 3f ea 2d 40 d5 86 24 3f 77 ab ad 3f
       0.72676384 2.7174222 0.6426824 1.3567952
000120 07 f2 a5 40 34 9a 30 40 4b a6 86 3f 52 d2 06 3f
       5.1857944 2.7594118 1.0519499 0.52664673
000130 76 4a 99 3f 82 ac 72 40 e2 f5 4d 3f 63 65 31 3e
       1.1975849 3.791779 0.8045331 0.17323832
000140 4a de 41 3f f7 63 0b 40 b4 4c 81 3f a5 73 c9 3f
       0.7572981 2.1779764 1.0101533 1.5738417
000150 3c 27 c9 3f eb 4f 7c 40 99 8b 02 3c 9e 31 35 bf
       1.5715098 3.9423778 0.007967853 -0.70778835
000160 a4 65 7b 40 05 7e a0 3f fc 6c 18 40 34 1b eb 3f
       3.9280787 1.2538458 2.3816519 1.8367677
000170 8f 23 15 3f 9e 9d c2 bd dc cd 05 40 51 23 b4 3f
       0.58257383 -0.09502719 2.0906897 1.4073278
000180 33 48 70 40 d1 05 43 40 fe 2d 28 40 c8 7f fa 3f
       3.7544067 3.04723 2.6278071 1.9570246

model.2.bias f4 [100]
000000 57 68 60 3e e7 5d 08 be 35 49 e9 bf 36 53 57 3f
       0.21914802 -0.13317071 -1.8225466 0.84111345
000010 73 14 70 bf da 7d 3d 3f c9 c1 e9 be 3e d8 0f c0
       -0.93781203 0.7402016 -0.4565566 -2.2475734
000020 a4 5d 0f 3f d2 c2 53 be 4e 53 9f 3f fe a7 f1 3d
       0.5600226 -0.20679787 1.2447298 0.1179962
000030 9d 89 53 bf 04 39 dc bd 20 0e f5 bd 4f 50 bd 3f
       -0.82631856 -0.10753062 -0.11965585 1.4790133
000040 37 11 9b 3f 49 87 a4 3e 8d fe 9f bf 01 1b cf be
       1.2114629 0.32134464 -1.2499558 -0.4045029
000050 9e 91 83 3e a7 5b a5 3f 58 12 84 be 01 ea 88 3f
       0.25697035 1.2918595 -0.25795245 1.0696412
000060 8e c4 2a bf 07 4e 2a bf 0c 0f 1b bf cc fa ef 3d
       -0.6670617 -0.6652531 -0.60569835 0.117177576
000070 90 04 07 3f 59 d6 19 bf f7 ef f8 3f f7 70 a2 bd
       0.52741337 -0.60092694 1.9448231 -0.079317026
000080 e9 3f 1f bf e2 19 2a be 30 c5 a0 3f 7e 3c 4f be
       -0.62206894 -0.16611436 1.2560177 -0.2023792
000090 e8 0e 04 40 48 e8 b0 bc 1e d2 ef bd 79 e9 20 3e
       2.0634098 -0.021595135 -0.117099985 0.15714063
0000a0 3a 38 03 3f 38 1e 57 3f 68 7a d2 3e b9 c3 57 be
       0.5125767 0.84030485 0.41109014 -0.21070756
0000b0 7c 0f c9 be 0c 39 6e bf 9c 51 20 bd 14 f3 b0 3f
       -0.39269626 -0.93055797 -0.03914033 1.3824182
0000c0 e2 a0 8a 3f 0a 5a 37 3f 4a 6c 8a bf 0d 05 a6 3f
       1.0830348 0.71621764 -1.0814297 1.2970291
0000d0 4f 77 9b 3f 7f 03 b9 3e 46 6c 0f bf 04 20 25 c0
       1.2145785 0.3613548 -0.5602459 -2.580079
0000e0 23 be 93 bf 5b 79 a2 3b a6 ae 9c be f0 52 91 3f
       -1.15424 0.0049583144 -0.30601996 1.1353436
0000f0 0b 31 bb 3e 39 6a de 3d c0 a3 6c bf c2 a7 a1 bf
       0.36560854 0.10860104 -0.9243736 -1.2629321
000100 39 6a 9a be f6 ab 6f bf df 40 dd 3d b7 93 34 3e
       -0.30159166 -0.93621767 0.10803389 0.17634474
000110 44 bb 82 3e 79 4f c2 3f 95 dc 88 bf 99 99 01 3f
       0.25533497 1.5180503 -1.0692316 0.50624996
000120 51 6c 8d bf 7b 65 ac 3e 73 a9 41 3e ce 95 30 bd
       -1.104868 0.33671173 0.18912296 -0.043111615
000130 4e 87 e6 be ad 22 93 3f 4a ef 09 bf 45 07 56 3f
       -0.45025104 1.1494957 -0.5388075 0.8360484
000140 8b cb 05 be a1 b4 4d bf 73 b9 db 3f ba 31 08 bf
       -0.13065927 -0.8035374 1.716597 -0.53200877
000150 7f 01 79 bf 74 e6 c6 3f 64 e8 33 3f d8 ae ad bf
       -0.9726791 1.5539079 0.70276475 -1.3568983
000160 29 ca 86 3f 04 1e 72 bf c2 35 a6 3f 80 5b 91 3e
       1.0530444 -0.9457705 1.2985156 0.2839012
000170 8e 2f 4b 3f 34 7c 47 3e e8 d1 85 3f 0b 51 d9 3f
       0.7936944 0.19480973 1.0454683 1.6977857
000180 6f a6 de bf bb 62 95 bf 43 aa 08 40 f9 e1 42 3e
       -1.7394542 -1.1670755 2.135392 0.19031514

model.2.running_mean f4 [100]
000000 a6 1e 7b 3f ec 2a 1d 3f fe df 96 3f 9d 1f da 40
       0.9809364 0.6139362 1.1787107 6.816359
000010 97 32 ab 3e 1e ee ce 3e 60 9b 98 3e 53 f3 29 3f
       0.33437034 0.40416044 0.29806042 0.6638691
000020 6a e0 ca 3e b8 db c9 3e 58 50 1a 3f b7 1e 2f 41
       0.3962434 0.39425445 0.60278845 10.944999
000030 33 9d 1c 3f f8 8d 97 3f 54 91 a6 3f b9 e1 b2 3e
       0.61177367 1.18402 1.3013101 0.34937838
000040 23 dd 54 3f 77 eb 47 42 41 bf ba 3f 5f 60 82 3f
       0.8314993 49.979946 1.4589616 1.018566
000050 8d 1d 4a 3f 9e aa 9d 3f 61 86 45 3f 79 f0 3c 3f
       0.7895134 1.2317693 0.7715817 0.7380443
000060 a0 45 88 3e bb 18 4e 3f ef 02 9f 3f c7 eb ce 3f
       0.2661562 0.80506486 1.242277 1.6165704
000070 45 80 d5 3e be 4a 72 40 5b a6 14 40 41 08 e7 3f
       0.41699424 3.785812 2.3226535 1.8049394
000080 e7 f3 36 3f 9b 91 bb 3f f4 af bd 3e 4f bf c8 40
       0.71465915 1.465381 0.37048304 6.273353
000090 38 4c 32 3f ea 75 27 3f af cf f6 3e d6 86 e2 3e
       0.6964755 0.654143 0.48205325 0.44243497
0000a0 4f 82 57 3f a2 9e 5d 3f be e7 dc 3e 98 4e f0 3e
       0.8418321 0.8657018 0.43145555 0.46934962
0000b0 b1 ef 60 3f e0 a6 6c 3f 7c 5b 4e 3f 3f 6f 03 40
       0.8786574 0.9244213 0.80608344 2.053665
0000c0 e8 b3 ac 3f 7f eb 85 3f d8 e9 76 3f 19 67 0b 40
       1.3492403 1.0462493 0.9645057 2.1781676
0000d0 7b 70 2a 3f b5 97 1f 3f 4c 21 11 3f 3b c0 e8 3d
       0.6657788 0.6234086 0.5669143 0.1136479
0000e0 0a 5e ca 3f 1d 46 07 3e 04 a2 f8 3e 2f f9 b7 3f
       1.5809948 0.1321034 0.48561108 1.437292
0000f0 82 f0 8e 3f fc bc 30 3f d2 3c cf 3f aa 0f 29 40
       1.1167147 0.6903837 1.6190436 2.641581
000100 7f fd 10 40 12 af 33 3e 5b d5 a8 3e e7 5c 6e 3f
       2.2654722 0.17547253 0.32975277 0.9311051
000110 31 48 ce 40 86 03 b5 3e 77 25 3b 40 34 26 06 40
       6.4463124 0.3535425 2.9241617 2.0960817
000120 90 93 3f 3f b9 93 7b 3f 29 47 ea 3e c7 17 70 40
       0.7483454 0.9827228 0.45757416 3.7514513
000130 a7 34 5e 3f 4b dd 25 40 21 79 78 40 a6 00 5b 3f
       0.8679909 2.5916317 3.8823931 0.85547864
000140 24 a6 c2 3e 10 ad 30 40 87 3e 6c 3f 2b c1 ed 40
       0.3801738 2.760563 0.9228291 7.42983
000150 5b 02 70 3f 49 e3 57 3e 70 17 c0 3e 70 ff 2d 3f
       0.93753594 0.21082796 0.3751788 0.6796789
000160 aa 53 de 3e 14 f8 1d 3f 81 a6 cf 3e 55 14 2a 3f
       0.43423206 0.6170666 0.4055672 0.66437274
000170 66 85 ab 3e 78 d9 43 3f ef fb 87 3e cd 5c 15 3f
       0.33500212 0.76503706 0.26559398 0.5834473
000180 4f 18 b6 3f 3e 82 0f 3f c4 bd be 40 70 1f 2d 3f
       1.4226168 0.5605811 5.9606647 0.67626095

model.2.running_var f4 [100]
000000 af 73 cd 3f ba ff 66 3f fd 4a de 3f a7 1c 28 42
       1.6050929 0.9023396 1.7366635 42.02798
000010 c1 1b 88 3f 2b e4 10 3f 79 d3 9f 3e 3f 2b 80 40
       1.063347 0.56598157 0.31216028 4.005279
000020 30 23 03 40 b6 0a a9 3f 0f 94 77 40 06 00 17 44
       2.0490227 1.3206394 3.8684118 604.00037
000030 71 7c 6e 3f f6 67 9e 3f da bf ea 3f bf 2d 06 40
       0.9315863 1.2375476 1.8339798 2.0965421
000040 c7 ee bd 40 5a 83 55 46 20 1d 9d 40 e0 f8 ab 40
       5.9353976 13664.838 4.9098053 5.3741302
000050 54 bd bd 3f 27 00 b4 3f 6d 57 ed 3e 45 4d 09 3f
       1.4823403 1.4062546 0.46355763 0.5363353
000060 78 f9 bd 3e 75 ce 63 40 55 a1 14 41 8a 0e 84 41
       0.37104392 3.5594761 9.289388 16.5071
000070 47 a3 d0 3f b3 61 3a 41 4e 97 64 41 45 4a c5 41
       1.6299828 11.648852 14.28694 24.661264
000080 6e 25 52 3f 19 18 9f 40 53 97 32 3f 72 d9 45 43
       0.82088363 4.9716916 0.6976215 197.8494
000090 da 3e 0c 40 3f f0 4d 40 24 8d e3 3f 58 0d ab 3e
       2.1913362 3.2177885 1.7777448 0.33408618
0000a0 71 02 d1 40 df 0b 64 3f 48 e5 eb 3e ae 81 b7 3f
       6.531548 0.89080614 0.46073365 1.433645
0000b0 69 67 87 3f 5c b4 ab 40 48 7d 86 3f c7 d6 c8 41
       1.0578433 5.3657665 1.0506983 25.104872
0000c0 41 3d fe 3f 41 e7 f1 40 d6 69 c9 3f 10 8a 99 41
       1.9862443 7.559479 1.5735424 19.192413
0000d0 ce 92 76 3f a4 4b 6b 40 fc d7 5b 3f a1 d5 d0 3d
       0.96317756 3.6764917 0.8587644 0.101969965
0000e0 e8 e4 1f 40 86 f0 b5 3e e4 01 71 3f c4 d9 47 40
       2.4983463 0.35535067 0.9414351 3.1226664
0000f0 8a de bc 3f d9 af 8a 40 5a 5c 2d 40 ab 77 90 40
       1.4755414 4.333966 2.7087617 4.514608
000100 6c ea cf 40 73 e2 64 3f 48 d0 ab 3e 80 10 7b 40
       6.497366 0.89408034 0.33557343 3.922882
000110 99 55 ce 41 94 b5 d1 3f 4a 1b 6b 42 86 ea c7 41
       25.791796 1.6383538 58.77665 24.989513
000120 21 98 84 40 c7 4b ca 40 61 0b 14 40 64 75 e3 41
       4.1435704 6.32175 2.3131945 28.43232
000130 0c f3 68 3f b6 dd 3d 41 da 13 98 41 f3 5b 66 3f
       0.9099586 11.866629 19.009693 0.89984053
000140 08 44 b7 3f 87 04 f0 40 1d b3 87 3f 78 40 69 42
       1.4317636 7.5005527 1.0601536 58.312958
000150 f6 a6 44 40 49 5b e4 3e 3e 6a 5c 3e c2 7c a4 3f
       3.0726905 0.44600895 0.21524903 1.2850573
000160 99 11 19 40 d1 29 ed 3e 15 8c 0e 3f af 67 03 3f
       2.391699 0.46320966 0.556825 0.51330084
000170 bb 71 a6 3e 11 09 58 3f 3e f5 cc 3e 9b c2 53 40
       0.32508644 0.84388834 0.40030855 3.3087528
000180 fe 3e 32 41 e7 f4 2a 3f da 04 7e 43 7c 79 31 3f
       11.140379 0.6677994 254.01895 0.69325995

model.3.weight f4 [100, 100]
000000 ca 4e f7 bd f6 5f 6e 3c ae b3 30 be d5 da 54 3e
       -0.12075575 0.014549246 -0.17256042 0.20786603
000010 68 8c fd bc a4 f6 7d be 2d 56 d3 bd e6 5c 89 3c
       -0.03095074 -0.24801117 -0.10319171 0.01676793
000020 f9 2d be bd 06 d0 86 3d 02 45 ac bc cf 45 58 bc
       -0.09286112 0.06582646 -0.021029 -0.013200237
000030 2c 8d 1c 3e f6 5f 33 be 90 8f fa bd bc ac 45 be
       0.15288228 -0.17517075 -0.122344136 -0.19304174
000040 20 2e 89 bd cd 76 2a be 80 24 81 3c 65 fd dc bd
       -0.06698251 -0.16646881 0.015764475 -0.10790519
000050 20 e1 14 3e ff b4 c5 bc 8b f6 7b bd 45 99 c5 37
       0.14539003 -0.024134157 -0.06151442 2.3555602e-05
000060 ca 3d 79 3c b5 2a c7 3d 77 2d 24 3e 81 c5 53 bc
       0.015212486 0.097249426 0.16032968 -0.012925507
000070 61 40 ce 3d 3b b2 f7 3d d7 6d 72 bd 61 b4 c3 bc
       0.10070873 0.12094542 -0.059186783 -0.023889722
000080 3b ac 0e bc b9 35 f2 bb 3b ce f2 bd 98 b1 05 3b
       -0.008708055 -0.007391658 -0.118557416 0.0020400044
000090 c0 4b 6d bc c5 d0 0b bd d0 67 73 3d be 4d a1 3b
       -0.014483392 -0.034134645 0.059425175 0.0049225977
0000a0 37 6b 5a bd e0 71 1e 3e bb 0b 1b 3e 66 78 08 3e
       -0.053324904 0.15473127 0.15141194 0.13327178
0000b0 ff c3 58 be f1 cf 34 3e 85 c1 50 bd a6 f1 13 be
       -0.21168517 0.17657448 -0.050965805 -0.1444765
0000c0 e4 01 6c 3c 58 60 9a 3c 13 d0 df bd aa 87 2b bd
       0.014404748 0.018844768 -0.10928359 -0.041877426
0000d0 7d e9 8f 3d dc 97 a7 bd 23 30 73 3d 86 9a 01 3e
       0.07026956 -0.08183262 0.05937208 0.12656602
0000e0 9d 22 f3 bd e6 fc 09 3e 17 06 aa 3d b2 60 41 3e
       -0.11871836 0.1347538 0.08301943 0.18884543
0000f0 89 22 89 be 5d 39 11 3e d4 fc 3f be bc 70 be be
       -0.2678416 0.14182039 -0.1874879 -0.37195385
000100 a3 54 8b be 4e fa df bd c9 ef 48 bb 2c 0d 8f bd
       -0.2721301 -0.10936414 -0.0030660501 -0.06984934
000110 52 95 15 3d 24 de 2e be e6 3a 07 bd e8 48 d6 3b
       0.036519356 -0.17076927 -0.033015154 0.006539453
000120 84 b3 22 3e 71 5b 08 bc 0c 2b 2f 3e 1d 2c d2 3c
       0.15888792 -0.008322583 0.17106265 0.0256558
000130 78 3d 89 be 43 a5 c9 be c3 a3 a8 bc 0c e4 bf 3d
       -0.2680471 -0.39383897 -0.0205859 0.09369668
000140 39 58 1d bc 7e a6 ee bc 3f 55 be 3d 0e 98 2c 3e
       -0.009603553 -0.029132124 0.09293603 0.1685488
000150 4b 75 d3 3e 39 1b f4 bd fe 44 95 3c fd ca d5 3d
       0.41300425 -0.11919255 0.018221375 0.104391076
000160 6f 27 d9 bd 3d 55 cf bd 7d c4 b6 3d a8 7f 08 be
       -0.106032245 -0.1012368 0.08924196 -0.13329947
000170 8b 41 ab 3d f0 e4 ba bd 2c 9c 88 3e 3d 0c 86 3d
       0.08362111 -0.091256976 0.2668165 0.06545303
000180 01 77 b4 3d 19 b1 64 3d 22 5e 07 bd 07 f3 c3 bb
       0.08811761 0.055832956 -0.033048756 -0.005979899
000190 e4 9b 91 be 60 88 5b be 3b fe ec 3e 69 4a 60 3e
       -0.28439248 -0.21438742 0.46287712 0.21903385
0001a0 c4 28 36 3d 81 bf 13 3c f9 c3 f8 be cf 27 af bd
       0.04447247 0.009017826 -0.48587015 -0.08552515
0001b0 ea 40 19 3c 00 44 c5 bc 4c 2a 90 be 81 d9 0e 3d
       0.009353856 -0.024080276 -0.2815727 0.034875397
0001c0 48 d6 d0 3c 0a dd 8b be cd c0 94 be 32 be fa bd
       0.025492802 -0.27317077 -0.29053345 -0.12243308
0001d0 55 e9 aa 3d 31 52 cd be d4 e5 9a 3d 19 13 50 be
       0.08345286 -0.4010177 0.075633675 -0.20319785
0001e0 ea 99 ed ba a8 12 0c 3e 62 c5 88 be 49 c0 99 be
       -0.0018127535 0.13678992 -0.2671309 -0.30029514
0001f0 2f ea 74 3e d6 57 2a be 02 57 62 3a 0e 52 62 bd
       0.23917459 -0.16635069 0.0008634181 -0.055254035
000200 49 61 64 3e 37 25 c4 3c 3e 1b 3a be ef a8 95 3d
       0.22302736 0.023943527 -0.18174455 0.07307612
000210 81 15 b7 be 5a da 82 be d2 45 8e be e5 e6 5f 3e
       -0.35758594 -0.25557214 -0.27787644 0.21865423
000220 f8 78 a2 3d a2 45 a3 bd 2c d7 1f bd af 06 99 be
       0.07933229 -0.07972266 -0.039023563 -0.29887912
000230 08 0a ba be 37 99 57 3e 15 dc 04 bd a2 8a f7 bc
       -0.36335778 0.2105454 -0.03243645 -0.030217472
000240 71 ad 37 3e b1 18 01 3f 94 b5 2a bd 53 88 b0 bc
       0.17937256 0.504283 -0.041677073 -0.02154938
000250 ec f6 0c be 47 d3 5b be 26 dd 19 be d0 27 4e bd
       -0.13766068 -0.21467315 -0.15025768 -0.050330937
000260 a0 d8 fe 3d 32 02 80 bd c3 d6 fe be 84 42 88 be
       0.12443662 -0.06250419 -0.49773225 -0.26613247
000270 37 8f a1 be de 1d 13 3f 3b b6 3f bd 8e 69 ef 3c
       -0.31554577 0.5746745 -0.046804648 0.029225137
000280 b0 0a 0b be ae 13 4d 3e a7 b4 e2 be 23 31 94 be
       -0.13578296 0.20027038 -0.44278452 -0.28943738
000290 cc 02 ed be 8a b0 48 be 10 3c 4a bb c9 ff 07 3e
       -0.46291196 -0.19598594 -0.0030858554 0.13281168
0002a0 c9 55 04 be 05 0d ac bd 64 93 82 3e b5 85 2e 3c
       -0.1292335 -0.08400921 0.25503075 0.010651995
0002b0 f5 00 41 bc e5 37 fe 3d 87 7a f4 3c 29 be 2b 3d
       -0.011780013 0.12413005 0.029843582 0.041929398
0002c0 64 ec 8c be c6 39 72 3d 20 d2 0c be 33 42 6e 3c
       -0.27524102 0.05913713 -0.13752031 0.01454215
0002d0 6a 68 c3 3e 74 f7 95 be 13 b6 0d bf e7 32 17 bd
       0.381656 -0.29290354 -0.5535595 -0.03691378
0002e0 52 e9 a6 3e 61 0d 3c bc 14 dd 3e 3d 73 d1 a8 be
       0.32599884 -0.011477799 0.046597555 -0.32972297
0002f0 1d 8d e3 3d b7 61 01 3e 9b cd bd 3d 9f d8 37 3e
       0.111108996 0.12634932 0.09267732 0.17953728
000300 ee a4 84 be 89 5f 68 bd a8 26 67 be 9a 10 06 be
       -0.2590708 -0.056731734 -0.2257334 -0.1309227
000310 76 aa b1 3e 25 e8 c6 be f1 de 57 3d 72 56 7b be
       0.34700364 -0.38848987 0.052702848 -0.24544695
000320 cc 6d c9 bc c5 eb 29 3d e6 6d 95 bd ba d7 e8 bd
       -0.024588488 0.041484613 -0.07296352 -0.113692716
000330 e0 5c 18 3d 0f 57 2c be 3b ba ac 3d 68 89 9d 3d
       0.037197948 -0.16830085 0.08433958 0.07692224
000340 e2 b1 51 3d 56 b7 56 3d 27 7c 0c 3e 27 3c 0a be
       0.051195033 0.052420937 0.13719235 -0.13499509
000350 76 4f 56 3e 26 49 32 be 47 16 13 be 6e 28 80 be
       0.2092875 -0.17410716 -0.14363967 -0.25030845
000360 04 e4 d8 3d 34 ec 55 be c8 d8 98 bd d4 7d 0d 3e
       0.105903655 -0.20890886 -0.07463223 0.13817531
000370 08 b6 b0 bd 9d 9e ba bd 39 2a 0b be 26 7a f2 3d
       -0.0862847 -0.09112284 -0.13590325 0.11839704
000380 ef 58 87 bd d9 8c 3a bd 6e e7 72 3b 44 8a 90 bc
       -0.066087596 -0.04554448 0.0037064212 -0.017644055
000390 13 ed 07 be bb 0b e7 3c b7 b6 55 be 0c d0 04 be
       -0.1327403 0.028203836 -0.20870481 -0.12969989
0003a0 f8 4e c0 3d 85 bf 19 be 8d b4 54 bd 8e 8c 88 3d
       0.09390062 -0.15014465 -0.05193 0.06667434
0003b0 c1 23 76 3e 4a f9 48 3e 1a 1d 7c bd 41 0a 27 bd
       0.24037077 0.19626346 -0.06155119 -0.040781263
0003c0 c9 b6 10 bd 84 c1 be 3d 84 42 a6 bc 29 64 c9 3d
       -0.035330568 0.09314254 -0.020295389 0.09833557
0003d0 a0 bc 4a be 29 5f 06 bd 8b c4 43 be 52 52 18 3e
       -0.19798517 -0.032805596 -0.19117944 0.14875153
0003e0 ee 38 dd bc 38 f0 1d be 64 84 81 bb cd 18 98 bc
       -0.027004685 -0.15423667 -0.00395255 -0.018566513
0003f0 48 21 56 3e 37 bb d1 bd 05 07 1d bb ff f9 fa 3d
       0.20911133 -0.102407865 -0.0023960483 0.12254714

model.3.bias f4 [100]
000000 08 8c 45 3d a7 7b c3 be 65 a6 61 3d 8a 75 a5 bc
       0.048229247 -0.38180277 0.055090327 -0.020197649
000010 94 07 27 be e2 a8 52 3e 0d 5e 32 be a3 31 ab bd
       -0.16311485 0.20572236 -0.1741869 -0.08359077
000020 bd e6 b1 be d7 32 95 3d 29 ce b8 bf e6 02 8e 3c
       -0.34746352 0.072850876 -1.4437915 0.017335366
000030 60 3f bc be e4 a6 79 bd 83 30 0a 3e 5d 2d 8e be
       -0.367671 -0.060950175 0.13495068 -0.27768984
000040 20 e5 ec 3e 83 c9 15 3e 37 ee 59 bd b0 0a 43 3e
       0.46268559 0.14627652 -0.053205695 0.19047046
000050 2f 87 52 bd 10 35 0c be 53 5b 3c bf 22 2d bd be
       -0.051398452 -0.13692117 -0.7357685 -0.36948496
000060 0e 17 00 40 a7 bf 14 3e 9c 34 6d bc 36 53 72 bd
       2.0014071 0.14526235 -0.014477875 -0.059161387
000070 18 ff c2 3d 16 06 e2 bd b4 ad d2 bd 40 74 e0 3d
       0.095213115 -0.11036317 -0.102870375 0.10959673
000080 df ce d3 3e 2e 37 28 3e c0 f6 53 3e 22 e0 64 3c
       0.41368768 0.164273 0.20699596 0.013969453
000090 7d 6e c5 3d ce ad a9 be ce ac 55 be 2a dd 15 3e
       0.096402146 -0.33140415 -0.20866701 0.14635149
0000a0 c4 9e 97 bd 16 9b 77 bd b7 1c 68 3e 14 30 59 be
       -0.07403329 -0.060450636 0.22667204 -0.21209747
0000b0 7f 53 76 bf 98 61 26 bf f6 bb b7 3c b1 be 8c 3d
       -0.96221155 -0.64992666 0.022428494 0.06872309
0000c0 b8 65 1d be 7c bc c3 be a4 c3 56 40 4a 38 27 be
       -0.15370834 -0.3822974 3.355691 -0.16330066
0000d0 84 06 a1 bd 48 72 7a 3e 19 f3 8c 3e 55 87 b3 3e
       -0.07862571 0.24457657 0.2752922 0.35064188
0000e0 e9 e1 b3 3e 90 e0 ea 3c 9c 7d 81 3d 78 50 05 be
       0.35133293 0.028671533 0.06322786 -0.13018978
0000f0 a7 ce eb be b9 4f 25 3e 6e 49 dd 3d 7b f7 02 be
       -0.460561 0.16143693 0.10805021 -0.12789719
000100 fa 1e 6b 3e 78 a3 11 3d 99 08 10 3c 0c 92 97 bc
       0.22961035 0.035556287 0.008791112 -0.018502258
000110 c3 e5 07 3d f8 d7 8f bd d3 9c 25 bf 75 be cb 3e
       0.033178102 -0.07023615 -0.6469242 0.39793745
000120 79 6b e3 39 ee 47 b6 bd 93 31 2f 3e 75 fd 49 3e
       0.00043376887 -0.08900438 0.17108755 0.19725592
000130 d6 6d e0 3d 26 cd 0f be 4a 37 ce 3c 61 6c 22 bd
       0.109584495 -0.14043102 0.025172848 -0.03965414
000140 0a bd 34 3c 11 ee 04 be 9f 84 2d 3d c5 48 09 bf
       0.011031399 -0.1298144 0.042362805 -0.5362666
000150 3e b5 5f be 98 a0 bb be 7e 93 44 3e 33 a0 9f bd
       -0.21846482 -0.3664596 0.19196889 -0.077942275
000160 85 7c 19 3d f2 fa a1 bd db 34 d5 be a5 2a 78 be
       0.037472267 -0.07909192 -0.41641888 -0.24235018
000170 05 ed 1b bf 83 72 f4 bc 9e 3f 44 bd d6 c6 0b 3f
       -0.6090854 -0.02983976 -0.047912233 0.54600275
000180 b9 e0 02 3e f8 f6 2a 3d 92 f1 01 be fa 51 2a 3e
       0.12781037 0.041739434 -0.12689808 0.16632834

model.5.weight f4 [100]
000000 3f 30 c7 3f 63 7a a3 3f 14 b7 ab 3f 8c ff 96 3f
       1.5561599 1.2771724 1.3415246 1.1796737
000010 3d 50 12 40 34 23 e5 3f 9f ae 00 40 5b 64 0f 40
       2.2861474 1.7901368 2.010658 2.2405002
000020 e6 39 0e 40 33 32 9b 3f cf 4f f2 3f d1 9f 8c 3f
       2.2222838 1.2124695 1.8930606 1.0986272
000030 c3 c0 db 3f 10 34 a0 3f a4 26 9c 3f 76 63 0c 40
       1.7168201 1.2515888 1.2199292 2.1935706
000040 8c 10 ae 3f 5b e1 b9 3f 09 a1 b0 3f 4c 0b ca 3f
       1.35988 1.4521898 1.3799144 1.5784698
000050 d7 de 0c 40 c9 3b 44 40 a3 18 e5 3f 3d 7f 91 3f
       2.201101 3.066149 1.7898144 1.1366955
000060 01 40 c5 3f d4 44 c9 3f 6f c7 b3 3f 2f 13 06 40
       1.5410157 1.572413 1.4045237 2.0949209
000070 33 78 8c 3f bc ff 8c 3f eb 99 03 40 d8 56 e2 3f
       1.0974182 1.1015544 2.0562694 1.7682753
000080 0a 02 05 40 71 ea ca 3f f3 38 e5 3f 11 15 8a 3f
       2.0782495 1.5852796 1.7908005 1.0787679
000090 5e b5 ce 3f c5 0d e3 3f 17 b1 27 40 7b af cc 3f
       1.6149099 1.7738577 2.6201837 1.5991052
0000a0 8c 54 18 40 63 df 46 40 06 02 a2 3f c2 28 ec 3f
       2.3801603 3.1073844 1.2656868 1.8449938
0000b0 5f 26 17 40 de 09 d8 3f 85 99 ca 3f 0a fe 8e 3f
       2.361717 1.6878011 1.58281 1.1171277
0000c0 b7 98 c9 3f 40 0c 49 40 c5 c9 0f 40 bd c9 d0 3f
       1.574973 3.1413727 2.24669 1.6311566
0000d0 c7 62 e2 3f bb e0 89 3f 56 58 c5 3f df f8 96 3f
       1.7686394 1.0771707 1.5417583 1.17947
0000e0 78 d9 a3 3f d8 02 a6 3f cb 96 e9 3f f0 94 fe 3f
       1.2800741 1.2969618 1.8249143 1.9889202
0000f0 79 dc 07 40 57 8b d1 3f 9c 62 11 40 dc ef 3b 40
       2.1228316 1.6370648 2.2716436 2.9365149
000100 70 92 c3 3f 2a 44 96 3f 1b 27 8b 3f af c0 89 3f
       1.5279064 1.1739552 1.0871309 1.0761927
000110 df 75 e7 3f d2 4f 0c 40 4a eb 27 40 9d ea 0b 40
       1.8082846 2.1923718 2.623736 2.1861947
000120 36 f5 d4 3f 18 d3 ac 3f 63 00 00 40 a9 d5 a6 3f
       1.6637332 1.3501921 2.0000236 1.3033954
000130 d8 39 c2 3f f3 eb b5 3f ad 08 b8 3f 68 6d ba 3f
       1.5173903 1.4212631 1.4377648 1.4564638
000140 a0 4c d7 3f 48 ef 22 40 c6 2c d2 3f 2f 13 c9 3f
       1.6820259 2.5458546 1.6419914 1.5708979
000150 fe dd 5b 3f f1 21 46 40 54 b1 e2 3f 5d 17 96 3f
       0.8588561 3.0958216 1.7710366 1.172588
000160 14 69 9e 3f ee 26 b4 3f 3b c6 a4 3f 5f d6 f3 3f
       1.2375817 1.407438 1.2872995 1.9049796
000170 96 02 33 40 e0 b8 fd 3f 4e 02 0b 40 51 45 ce 3f
       2.7970328 1.9822044 2.1720157 1.6114904
000180 0b 9d c4 3f 5a bb 91 3f f3 fc e8 3f 4d f7 c8 3f
       1.5360426 1.13853 1.8202194 1.570047

model.5.bias f4 [100]
000000 4b 4b 2a bf e3 cd 8d 3f 46 54 01 bf 16 59 c1 bc
       -0.6652114 1.1078457 -0.50519216 -0.02360205
000010 8a e7 9d 3f 25 fd 2b bf 10 ff 5a 3f e1 13 28 3f
       1.2336285 -0.6718314 0.85545444 0.6565533
000020 8b f3 66 3f 3e 50 96 bd 18 a2 5d 3f 60 63 3d be
       0.9021537 -0.07339524 0.8657546 -0.1849494
000030 4d 66 87 3f 7c 4e 91 3f b8 95 1d bf 9e 30 9a 3e
       1.0578095 1.1352077 -0.6155658 0.30115217
000040 8f aa 97 3f 36 41 9a 3f d9 ab bb be bb ca 84 bf
       1.1848925 1.2051151 -0.36654547 -1.0374368
000050 37 a3 73 bf 50 7e 91 3f 33 f8 d5 3f b7 e2 52 3f
       -0.9517092 1.1366673 1.6716369 0.8237719
000060 ec ac 7a 3f 1a a4 2d bf 14 6d 79 3f f7 6e 93 bf
       0.9792011 -0.67828524 0.97432065 -1.1518239
000070 48 b4 60 bd c4 c5 cf ba 40 e9 85 3f a9 76 29 bf
       -0.05485943 -0.0015851785 1.0461807 -0.66196686
000080 c4 9c a7 3f 00 2f 25 bf 87 34 69 3f 43 7c e6 be
       1.3094716 -0.6452484 0.91095775 -0.4501668
000090 05 21 42 bf 21 26 e7 3f d9 64 35 3f 96 31 0b bf
       -0.75831634 1.8058511 0.70857006 -0.5437254
0000a0 5b fd 1e 3f 52 68 a3 3f 72 20 2c bf 59 56 6b 3f
       0.6210534 1.2766211 -0.6723701 0.9192863
0000b0 9d 8d 9a 3f d1 a8 61 3f 5c e3 55 bf 20 4d 19 bf
       1.2074467 0.8814822 -0.8355005 -0.5988331
0000c0 c1 22 e6 be 77 e6 1c 3f 85 0c 80 3f a1 eb 38 3f
       -0.4494839 0.6128916 1.0003821 0.7223454
0000d0 20 af 14 bf f1 f8 55 bd a9 42 60 bf fb 6a 85 3e
       -0.5807972 -0.052239362 -0.87601715 0.26058182
0000e0 08 bd b8 3f 11 8b 74 be 63 0e 7b bf 09 15 53 3f
       1.4432688 -0.23881175 -0.9806883 0.8245397
0000f0 c0 f5 5e 3f e7 4e 40 bf 7f 10 97 bf cb 9c bc 3f
       0.87093735 -0.75120395 -1.1801909 1.473535
000100 dd 0a 59 3f fb 05 99 bd 28 9b d8 3e e3 4c b4 bc
       0.847822 -0.07471844 0.42305875 -0.022009319
000110 52 15 18 bf f2 0d a0 3f f9 f5 8d 3f 4b 8a 85 3f
       -0.5940753 1.2504256 1.109069 1.0432829
000120 0e a1 a6 be 79 5c 43 be 20 c5 5e bf 84 8e de be
       -0.3254475 -0.19078244 -0.8701954 -0.43468106
000130 4d 10 3a 3f 85 82 f9 be 7e 43 44 bf bc fc 6a be
       0.72681123 -0.4873239 -0.76665485 -0.22947973
000140 a0 b8 3c 3f a7 e9 c3 3f 94 d9 90 3f 95 dd db 3f
       0.73719215 1.530568 1.13164 1.7176996
000150 a1 28 a9 3f 90 bd b7 3f c8 72 8b bf 07 28 56 be
       1.3215524 1.4354725 -1.0894403 -0.20913707
000160 b9 e5 b6 be 60 fe a0 3f 24 f6 06 3f a5 44 b5 3f
       -0.3572214 1.2577629 0.5271933 1.4161574
000170 34 ff c1 3f 33 55 17 bf f4 a6 9b 3f 05 96 89 3f
       1.5156007 -0.5911438 1.2160325 1.0748907
000180 41 2a 61 bf 45 81 be be 0c 28 b1 3f 9c 61 39 bf
       -0.879551 -0.37208 1.3840346 -0.72414565

model.5.running_mean f4 [100]
000000 e7 e2 b0 3f 8b d2 5a 40 16 cb dd 3f 1b 8d 94 3f
       1.3819245 3.4191005 1.7327602 1.1605562
000010 1b 28 e5 40 2a e0 80 40 cf 2d 24 41 9b cd d3 40
       7.1611457 4.027364 10.261184 6.6188483
000020 4a e5 63 40 5c ed cc 3f f2 31 4f 41 16 9a ed 3d
       3.5608697 1.6009936 12.949694 0.11601655
000030 ee ed b3 3f f4 71 0a 41 47 ea 3c 3f 4b 88 ab 3e
       1.4056985 8.652821 0.7379498 0.3350242
000040 a6 42 7b 41 cc 91 f1 40 0f 25 ca 3f d6 2b f6 40
       15.703772 7.5490475 1.5792559 7.692851
000050 5a 14 bd 3f da b5 b9 40 41 08 3f 3f 48 e1 47 40
       1.4771836 5.8034487 0.7462197 3.123125
000060 15 d9 59 42 e7 83 06 40 ce bc 03 41 d9 f2 f4 3f
       54.461994 2.1018007 8.233595 1.9136611
000070 a6 25 4f 3f b0 a2 c8 3f 20 16 da 40 77 0b 9c 40
       0.8091682 1.5674648 6.815201 4.8763995
000080 d2 e3 80 41 b4 28 70 40 7e 3a ac 40 8f 03 bc 40
       16.11124 3.7524843 5.38214 5.8754344
000090 40 e5 f1 3f 47 6d af 40 52 e8 d6 3e e9 9c 18 3f
       1.8898087 5.4820895 0.4197412 0.59614426
0000a0 6f 21 b7 40 63 28 91 40 b9 8e 3f 40 c1 de c3 40
       5.7228312 4.53618 2.993086 6.1209416
0000b0 05 d6 43 40 7f c6 13 40 f9 01 ca 3f 61 74 92 3e
       3.0599377 2.3089902 1.5781852 0.28604415
0000c0 72 18 78 40 b4 8c 21 41 b4 bd 05 43 e4 1a 01 40
       3.876492 10.096851 133.74103 2.0172663
0000d0 44 17 a1 3f 24 a4 69 40 91 8c 0e 3f bd c7 61 41
       1.2585225 3.6506433 0.5568324 14.111264
0000e0 d9 f6 58 41 3d b1 4d 3f 72 98 bd 3f 28 2a 32 41
       13.560266 0.8034857 1.4812148 11.135292
0000f0 b2 9b 47 40 0b d0 6b 3f c6 c1 6c 40 a1 cc 0a 3f
       3.118878 0.92114323 3.699327 0.5421849
000100 ab 54 de 41 7a 1e d2 3f ce 60 aa 40 4f 33 fc 3e
       27.791342 1.6415551 5.324317 0.49257895
000110 1d 5f 52 3f ab 0d 05 40 b4 cd 1a 3d 13 60 93 41
       0.8217638 2.0789592 0.03779383 18.421911
000120 e1 d5 fd 3f 40 3e c9 3f 68 2f ff 3e 34 ea 48 40
       1.9830896 1.5722122 0.49840856 3.1392946
000130 a4 21 ab 41 83 f8 7e 3f 43 b5 01 3f 7a 2e 68 40
       21.391426 0.9959795 0.5066721 3.6278367
000140 b3 e8 d5 40 53 74 d9 40 12 43 71 41 48 37 14 41
       6.6846557 6.7954497 15.078875 9.263496
000150 84 18 8d 3f 2a b7 98 3f e3 bb 17 40 be bc 19 40
       1.1023107 1.1930897 2.3708427 2.402145
000160 55 8a 26 40 02 fc e1 3f a6 af 58 3f 42 68 18 40
       2.602193 1.7655032 0.8464302 2.3813634
000170 1d a4 60 3e f6 a5 0b 40 3f 8a 0f 40 ce 34 0d 42
       0.21937604 2.1820045 2.2428129 35.301567
000180 e4 2c 7f 40 bd 29 09 40 fa 9d 82 41 f3 c1 62 40
       3.987115 2.1431725 16.327137 3.5430877

model.5.running_var f4 [100]
000000 19 e9 82 40 88 bc d3 41 e5 97 5f 40 41 08 a5 40
       4.0909543 26.467056 3.493646 5.1572576
000010 9a a8 5e 43 eb 62 0f 41 b7 f9 96 42 d1 48 10 43
       222.6586 8.96165 75.487724 144.28444
000020 7d 19 d1 41 f1 f5 4d 40 4a b6 93 43 fd 29 96 3e
       26.137445 3.218136 295.42413 0.2932891
000030 89 e1 9f 40 b5 f2 38 42 b7 6c 90 40 52 46 b8 3f
       4.996281 46.23702 4.513271 1.439646
000040 cd 56 c5 43 01 64 7c 42 15 e6 b3 40 de 81 8d 42
       394.67813 63.09766 5.621836 70.75365
000050 5c 92 c6 40 ea 06 fe 41 01 08 54 40 da 34 07 42
       6.205366 31.753376 3.3129885 33.801613
000060 80 7e 14 46 f2 32 39 41 62 0b a1 42 4b 47 e0 41
       9503.625 11.574938 80.52223 28.034811
000070 1a 9e 35 3f e5 4f 03 41 fb 22 08 42 55 d0 82 41
       0.7094437 8.2070055 34.03416 16.351725
000080 41 50 1d 44 3b 33 7e 42 fb 55 f4 41 9b 55 86 42
       629.25397 63.55003 30.541983 67.1672
000090 8b 9a 1f 41 e7 df 29 42 2f 96 39 40 4d c6 bf 3f
       9.97523 42.468655 2.8997915 1.4982392
0000a0 6f 64 aa 41 31 e4 08 42 4d 5a eb 40 ce 58 4d 42
       21.29904 34.222843 7.354773 51.336723
0000b0 a4 7d 52 42 f8 04 3a 41 5e b1 63 40 09 fe 2a 3f
       52.622696 11.626213 3.5577006 0.66793877
0000c0 6a 61 dd 40 82 44 f0 42 2b 10 68 47 e9 8f 2c 41
       6.9181414 120.133804 59408.168 10.785134
0000d0 20 6a 67 41 bf 68 6b 42 7d c3 9c 3f 47 7a 12 44
       14.463409 58.85229 1.2247158 585.9106
0000e0 17 41 fb 43 f6 e8 6c 40 9e 2c 55 40 9f 37 72 42
       502.5085 3.7017188 3.3308482 60.554317
0000f0 0f 1b 31 41 25 d3 29 40 98 d3 89 41 94 14 52 40
       11.069106 2.6535122 17.228317 3.282506
000100 ed 29 0c 45 dc 6f 1d 40 fb 4f cc 41 42 b9 c6 3f
       2242.6204 2.4599524 25.539053 1.5525286
000110 d6 58 18 40 67 3b 44 41 46 ab 27 3e f2 37 6e 43
       2.380422 12.264503 0.1637393 238.21854
000120 8a b1 3b 40 0e 7a 7d 40 1f a4 c3 3f ce 2b 95 40
       2.9327111 3.9605746 1.5284461 4.6615973
000130 2e b4 97 44 ed ee 77 40 7c 09 a4 3f f9 7b 21 42
       1213.6306 3.8739579 1.2815394 40.371067
000140 db db 6f 42 f2 5d 71 42 14 90 08 44 7f 6f 86 42
       59.964703 60.341743 546.2512 67.217766
000150 39 c1 d2 40 1f d5 20 41 4a b6 19 41 a4 c3 13 41
       6.5860868 10.0520315 9.607004 9.235264
000160 d3 11 71 40 3b e5 a5 40 8c 6a 4d 40 eb 8b 3b 41
       3.766713 5.184232 3.209628 11.72166
000170 e9 0d 01 40 98 df a8 40 10 30 62 41 61 41 4c 45
       2.016474 5.277294 14.136734 3268.0862
000180 20 62 3e 41 27 1a aa 40 2a e1 0a 44 cf 76 9b 40
       11.898956 5.3156924 555.5182 4.858253

model.6.weight f4 [1, 100]
000000 9e 7f af bf 0a a1 ad 3f a7 10 85 bf 2f b7 24 bf
       -1.3710821 1.356477 -1.0395707 -0.64342016
000010 ec 5a 18 40 1d 8c d0 bf 2e c4 f6 3f d7 a2 06 40
       2.3805494 -1.6292759 1.9278619 2.103689
000020 2a dd 0a 40 a2 4d 34 bf 66 5e e8 3f 49 0e 02 bf
       2.1697488 -0.7043096 1.8153808 -0.5080305
000030 88 4d de 3f 22 47 ad 3f 6d 1e 6f bf b7 bd fd 3f
       1.7367411 1.3537333 -0.934058 1.9823521
000040 c6 23 be 3f 2a 79 cd 3f 8e 22 83 bf 59 9b cd bf
       1.4854667 1.6052601 -1.024492 -1.6063033
000050 1c 1d 0b c0 cd 72 46 40 4c 2b 0e 40 ca 74 80 3f
       -2.1736517 3.100757 2.2213926 1.0035641
000060 fa b4 c4 3f 50 78 b2 bf 89 eb b2 3f e3 b0 0a c0
       1.536773 -1.3942966 1.397813 -2.1670463
000070 1e 72 f6 be b5 a8 fb be 81 b2 04 40 e6 66 cc bf
       -0.4813394 -0.4915215 2.073395 -1.5968902
000080 85 73 0f 40 86 c8 b1 bf e7 61 df 3f df 86 1e bf
       2.2414258 -1.388932 1.7451752 -0.61924547
000090 42 51 bd bf b9 08 13 40 13 42 21 40 ef a6 ae bf
       -1.4790423 2.2974074 2.5196579 -1.3644694
0000a0 a4 d2 0f 40 26 a0 4c 40 da 90 84 bf da 9a e7 3f
       2.2472315 3.1972747 -1.0356705 1.8094132
0000b0 64 65 1c 40 8f 8d ce 3f 4e d3 be bf 51 67 4a bf
       2.4436884 1.613695 -1.4908235 -0.790639
0000c0 38 b7 a6 bf 40 22 42 40 97 ab 0f 40 d4 d3 bc 3f
       -1.3024664 3.0333405 2.244848 1.4752145
0000d0 57 f5 c8 bf 09 e3 dc be f4 24 bc bf e5 2d 37 3f
       -1.5699872 -0.43141964 -1.4698777 0.71554404
0000e0 af 19 d2 3f 5d 31 5e bf f9 fe e8 bf fd 39 f4 3f
       1.6414088 -0.8679407 -1.8202811 1.9080197
0000f0 1d 00 04 40 19 0a c0 bf 57 89 16 c0 f8 eb 46 40
       2.062507 -1.5003082 -2.3521326 3.1081524
000100 ec 7d b8 3f 99 5a 23 bf 61 d5 24 3f 66 8d d5 be
       1.4413428 -0.63810116 0.6438809 -0.4170944
000110 5e 8c cf bf e1 95 13 40 c7 87 29 40 e4 fc 0c 40
       -1.6214712 2.306023 2.6489122 2.2029352
000120 2d 7d af bf b3 22 6f bf e6 03 f8 bf 2f 63 74 bf
       -1.3710076 -0.9341232 -1.937619 -0.9546384
000130 17 35 ae 3f e0 a2 8f bf 67 fd a4 bf 3f 28 8b bf
       1.3609952 -1.122158 -1.2889832 -1.0871657
000140 0a e6 c6 3f 4e 9c 32 40 33 c9 dd 3f 6c 2e 05 40
       1.5538952 2.79079 1.7327026 2.0809584
000150 c9 90 9a 3f 5d ed 4f 40 11 f7 e8 bf e7 bb 29 bf
       1.2075435 3.2488625 -1.8200399 -0.6630234
000160 d8 26 54 bf be a1 cb 3f ba e1 77 3f fe b3 08 40
       -0.8287177 1.5908735 0.96828806 2.1359859
000170 9c ab 40 40 3e b3 e7 bf b0 d9 10 40 af 43 d5 3f
       3.0104742 -1.8101575 2.2632866 1.666128
000180 0e 21 bb bf db 4a 2d bf 50 8e 03 40 1c 77 b5 bf
       -1.4619462 -0.67692345 2.055561 -1.4176974
