models/neural_networks/regression/2023-11-21_11:58:15/NN_model.pt (torch, 53511 bytes, 13 tensors)

model.0.weight f4 [100, 11]
0.37415352 -0.21815994 -0.0762723 0.1223404 0.08679373 0.46087492 0.5412608 -0.13641676
0.41773838 -0.20338129 -0.4075284 -0.012436354 0.1049121 0.16644835 0.39114916 0.385514
0.35560682 -0.3070673 0.29040626 0.05388457 0.09284161 0.29904956 -0.06829096 0.14287886
0.23646243 0.021243999 0.1298354 -0.04970486 0.0018760893 -0.2641653 -0.2589246 0.28253773
0.23717384 -0.33006647 -0.20002075 -0.16981226 -0.03806662 0.34410977 0.2637598 0.22936958
0.052650616 0.5422314 -0.0773447 0.63164127 -0.3872053 0.13896859 0.4749013 -0.17610155
0.41511837 -0.089430034 0.041811947 0.17968577 0.72305363 0.84481525 -0.18426313 -0.103004426
0.17687269 -0.5548963 0.12486288 -0.41759843 -0.12374569 -0.04813695 -0.36128926 0.26908204
-0.015787883 -0.026484506 0.25725543 0.056841332 0.33171403 -0.21970458 0.07764259 -0.16026102
-0.092485756 -0.021177085 -0.1206484 -0.035266254 -0.13188559 0.1648976 -0.44733188 -0.063178614
0.06938601 -0.11693311 0.1406453 0.3331105 -0.18030237 0.18242796 0.12708968 -0.032137226
-0.024177833 0.070438795 -0.07462669 -0.4725725 0.27184248 -0.03518132 0.1095728 -0.2606183
-0.4203173 -0.5409288 0.04894885 -0.12773935 -0.26601622 0.1265804 -0.040439174 0.118753724
0.28243905 -0.06633097 0.18826711 0.04742578 0.19537878 -0.114813924 0.14729509 -0.29478222
-0.10108093 -0.17464805 -0.23730351 -0.06736536 -0.32901606 -0.17749523 -0.17503715 -0.19350778
-0.03694437 0.21290685 0.0006869546 0.06299915 -0.12653066 -0.3104177 0.086409695 -0.22784297
0.02952224 -0.18877019 0.3413279 -0.042053197 0.005573807 0.47728413 0.6385201 0.35774603
-0.095630705 0.010501094 -0.0077569736 0.22487047 -0.13602404 -0.21090628 0.6794315 -0.30904993
-0.31101277 -0.13807663 0.23709907 -0.22594339 0.21993892 0.11500123 -0.08624673 -0.18436496
0.27483693 0.38197172 -0.3787456 0.23364282 0.0044378215 0.32762134 0.18579125 -0.23660626
0.3146094 0.16423683 0.29237238 -0.14163408 0.053867362 0.559322 0.17681335 0.11741782
0.10801209 0.27604127 0.5080284 0.07614289 -0.31477213 0.20624323 -0.13024147 0.10069356
0.531337 0.2957182 0.3904673 -0.5692487 -0.12257798 -0.13764031 -0.10860519 -0.3977942
-0.20584044 0.8226368 0.43916407 -0.24271403 -0.2313226 0.10608064 -0.22591482 -0.33264914
0.043353222 0.0031774635 -0.22144397 -0.08231268 -0.1891739 0.053006478 -0.1275287 0.25621352
0.30276358 -0.2627777 0.119089566 -0.0066569084 -0.38015005 -0.086770646 -0.026794719 0.14734778
-0.20657924 0.45329347 0.71897966 0.027181678 0.21577811 0.04089972 -0.15569535 0.09350884
-0.20081162 -0.29104105 -0.039543085 0.44634226 -0.11404808 -0.58666164 0.2082526 0.24190427
0.27916464 -0.5294614 0.33760014 -0.076961026 -0.10311593 0.25398496 0.13043948 -0.3518756
0.05542841 -0.28901947 0.36163318 -0.024990179 0.13997225 0.065358944 -0.2534238 -0.26111087
-0.14884636 0.12742698 -0.006254058 0.28142935 0.3701714 -0.31333482 -0.18188646 0.13226494
0.1944635 0.264834 -0.008815181 0.120051645 0.24281877 -0.039386358 0.34904116 -0.0235917
00000000: 0d91 bf3e 5265 5fbe a734 9cbd 9b8d fa3d
00000010: e9c0 b13d ccf7 eb3e 1190 0a3f d6b0 0bbe
00000020: cee1 d53e 2f43 50be 90a7 d0be d9c1 4bbc
00000030: 28dc d63d 7071 2a3e b444 c83e 1762 c53e
00000040: 1912 b63e ed37 9dbe 21b0 943e 11b6 5c3d
00000050: be23 be3d 061d 993e 21dc 8bbd d64e 123e
00000060: 3523 723e e507 ae3c 92f3 043e 5397 4bbd
00000070: 1ce7 f53a ad40 87be c491 84be c9a8 903e
00000080: b3dd 723e 79fe a8be 3dd2 4cbe 44e3 2dbe
00000090: beeb 1bbd 282f b03e 860b 873e dcdf 6a3e
000000a0: 2ca8 573d adcf 0a3f e666 9ebd 3eb3 213f
000000b0: c63f c6be c84d 0e3e 4326 f33e f753 34be
000000c0: 658a d43e 1827 b7bd 0143 2b3d 8cff 373e
000000d0: 0b1a 393f d045 583f 79af 3cbe fcf3 d2bd
000000e0: 1d1e 353e af0d 0ebf 1cb8 ff3d 76cf d5be
000000f0: 616e fdbd 402b 45bd e8fa b8be 1fc5 893e
00000100: 9755 81bc 09f6 d8bc fcb6 833e 75d2 683d
00000110: 6cd6 a93e 3dfa 60be 1403 9f3d 771b 24be
00000120: 2c69 bdbd 917b adbc 8216 f7bd 5973 10bd
00000130: 040d 07be ebda 283e af08 e5be ca63 81bd
00000140: 411a 8e3d a07a efbd 5205 103e 768d aa3e
00000150: 2fa1 38be 65ce 3a3e cc23 023e 53a2 03bd
00000160: 9710 c6bc 3742 903d e1d5 98bd 06f5 f1be
00000170: f02e 8b3e 4a1a 10bd b467 e03d c36f 85be
00000180: d433 d7be 4f7a 0abf 977e 483d 1bce 02be
00000190: 4733 88be 4b9e 013e 8ca3 25bd 2735 f33d
000001a0: da9b 903e 88d8 87bd 18c9 403e 8941 423d
000001b0: 6011 483e 9023 ebbd 86d4 163e b2ed 96be
000001c0: 8503 cfbd f0d6 32be b1ff 72be daf6 89bd
000001d0: cb74 a8be 4fc1 35be f03c 33be e726 46be
000001e0: fb52 17bd 4104 5a3e be14 343a b305 813d
000001f0: 4191 01be 12ef 9ebe 91f7 b03d ab4f 69be
00000200: a0d8 f13c f94c 41be 88c2 ae3e f93f 2cbd
00000210: 7ba4 b63b 965e f43e 0e76 233f 7d2a b73e
00000220: 08da c3bd c80c 2c3c 362e febb 7244 663e
00000230: e349 0bbe d1f7 57be 39ef 2d3f cb3b 9ebe
00000240: 113d 9fbe f663 0dbe 19ca 723e b45d 67be
00000250: ab37 613e c485 eb3d 20a2 b0bd 2bca 3cbe
00000260: 6db7 8c3e cc91 c33e f1ea c1be 1040 6f3e
00000270: 256b 913b fcbd a73e 1040 3e3e e948 72be
00000280: 7c14 a13e b32d 283e d5b1 953e 8608 11be
00000290: 06a4 5c3d ba2f 0f3f 8f0e 353e c178 f03d
000002a0: 7135 dd3d 4855 8d3e 260e 023f cef0 9b3d
000002b0: d029 a1be 6d31 533e 055e 05be 6d38 ce3d
000002c0: b405 083f 6068 973e 54eb c73e 48ba 11bf
000002d0: 2a0a fbbd 95f1 0cbe 666c debd aeab cbbe
000002e0: d6c7 52be 5398 523f 1dda e03e 078a 78be
000002f0: d5df 6cbe ce40 d93d 3756 67be fd50 aabe
00000300: 2693 313d fe3c 503b 35c2 62be 8d93 a8bd
00000310: ceb6 41be 521d 593d e296 02be 6b2e 833e
00000320: d403 9b3e cc8a 86be 3be5 f33d 3222 dabb
00000330: 07a3 c2be cfb4 b1bd 9980 dbbc 56e2 163e
00000340: 8289 53be 1516 e83e 0d0f 383f 1cac de3c
00000350: f0f4 5c3e 7786 273d 9a6e 1fbe 9081 bf3d
00000360: 90a1 4dbe 5503 95be eef7 21bd f986 e43e
00000370: 0a92 e9bd 752f 16bf 2b40 553e c1b5 773e
00000380: abee 8e3e c88a 07bf edd9 ac3e be9d 9dbd
00000390: 722e d3bd 510a 823e ed91 053e 0a29 b4be
000003a0: e708 633d 5cfa 93be fc27 b93e 34b8 ccbc
000003b0: e354 0f3e e9da 853d c4c0 81be 53b0 85be
000003c0: 2e6b 18be 387c 023e d7ee ccbb 8217 903e
000003d0: 1b87 bd3e 6c6d a0be 7240 3abe 7670 073e
000003e0: 7121 473e 5298 873e 8d6d 10bc a3dd f53d
000003f0: 7ca5 783e 9753 21bd 86b5 b23e 6143 c1bc

model.0.bias f4 [100]
0.23540299 0.23789962 0.055823836 -0.0768259 -0.5819306 0.05340649 -0.17686318 -0.06393382
-0.22539483 0.048632603 0.33608145 0.29669857 0.21831702 -0.29127938 0.26859793 -0.028163387
-0.34670985 -0.05678685 -0.0022493862 -0.22034512 -0.21839058 0.061726514 0.011963685 -0.2086522
-0.15317135 -0.44544145 -0.22003768 -0.033056878 -0.2999508 0.07277923 -0.09603836 0.013176902
0.3088216 0.13941942 -0.15673278 0.29394674 0.09507391 -0.34579572 -0.036558893 0.38621414
-0.06862346 -0.29050663 0.71031886 0.12549229 -2.4469 0.3920872 0.052440554 0.4693035
-0.33047593 0.1834486 -0.18336196 0.27051193 0.21589245 0.1402713 0.0077024624 0.19203563
0.1488651 -0.43870473 -0.50360024 -0.66461325 -0.17443033 -0.09087455 0.36213884 -0.44030124
-0.068127625 0.26533198 0.10082601 0.34266886 -0.20185274 0.16937031 -0.18960874 -0.16817826
-0.62445223 -0.09046049 -0.6202799 -0.2947623 -0.45278928 -0.14690587 -0.19939752 -0.07924847
0.17916307 -0.249232 -0.37121174 -0.41095328 -0.15785865 -0.62346065 0.18870242 -0.50095725
0.053604137 -0.17329709 -0.31518102 0.24977276 0.0071425587 0.15676464 -0.20250161 -0.61052835
-0.05261667 0.0034933565 0.2810178 -1.1207416
00000000: 7b0d 713e f59b 733e 89a7 643d e656 9dbd
00000010: 67f9 14bf c3c0 5a3d 9f1b 35be bcef 82bd
00000020: e7cd 66be fb32 473d de12 ac3e e0e8 973e
00000030: 7f8e 5f3e 9222 95be ab85 893e e7b6 e6bc
00000040: f483 b1be 5499 68bd 706a 13bb 27a2 61be
00000050: c8a1 5fbe f1d4 7c3d 5503 443c eca8 55be
00000060: f3d8 1cbe e710 e4be 8f51 61be a666 07bd
00000070: 2793 99be 470d 953d c2af c4bd efe3 573c
00000080: dd1d 9e3e f7c3 0e3e 8f7e 20be 3080 963e
00000090: 1cb6 c23d 230c b1be c7be 15bd dcbd c53e
000000a0: 758a 8cbd 49bd 94be 75d7 353f 0d81 003e
000000b0: 029a 1cc0 a7bf c83e e8cb 563d 8c48 f03e
000000c0: 2434 a9be f3d9 3b3e 3dc3 3bbe 8a80 8a3e
000000d0: e912 5d3e 48a3 0f3e f064 fc3b fda4 443e
000000e0: 1870 183e e89d e0be f2eb 00bf 1824 2abf
000000f0: dd9d 32be 701c babd 436a b93e 2a6f e1be
00000100: 7f86 8bbd 98d9 873e de7d ce3d 4b72 af3e
00000110: 7cb2 4ebe 696f 2d3e cb28 42be ec36 2cbe
00000120: 1adc 1fbf 5943 b9bd aaca 1ebf 16eb 96be
00000130: ffd3 e7be 7e6e 16be dd2e 4cbe 064d a2bd
00000140: 8676 373e ac36 7fbe 770f bebe 7868 d2be
00000150: b3a5 21be 1e9b 1fbf 353b 413e bc3e 00bf
00000160: 0390 5b3d cb74 31be 685f a1be 6ec4 7f3e
00000170: 200c ea3b e986 203e 955c 4fbe 964b 1cbf
00000180: 9484 57bd ccf0 643b 91e1 8f3e 7674 8fbf

model.2.weight f4 [100]
1.1033319 0.92143285 0.9047963 1.1718123 0.88999826 0.8428984 0.9428062 1.0058776
0.9851545 0.8777474 0.9788199 0.9532308 0.9356268 1.0573083 0.9524774 0.8619698
0.93549037 0.9039407 0.919037 0.90960485 0.9761798 0.87124866 0.94246966 1.00976
0.9152187 1.0349485 1.0960331 0.94608414 0.97247845 0.86899334 0.9983079 0.91573155
0.9223384 0.8839757 0.84169954 0.8736915 1.0215063 0.89713293 1.0630323 0.9540037
1.0080322 1.0221238 1.188109 0.9894222 0.93942285 0.8794623 0.96006185 0.88318616
1.0287248 0.8639972 1.2748361 1.113069 0.99738944 0.8695039 0.99451476 1.0100641
0.9282231 1.1117972 0.97657824 0.9399414 1.1217052 0.9280705 0.9435316 1.0361738
0.89654607 0.9978187 1.0224155 0.9877137 0.9033736 1.0062417 1.193603 0.9421666
1.0057638 0.8778993 1.2938018 0.9105648 1.033913 1.1255974 1.00761 0.949445
0.9011928 0.94900894 0.923525 1.0509475 0.83451444 1.2590373 0.93716925 0.907561
0.8548511 1.0227093 1.075274 0.87622464 0.9909124 0.88578284 0.98554564 0.9620282
0.97905624 0.94518226 1.054426 0.87008464
00000000: fb39 8d3f 06e3 6b3f bba0 673f f2fd 953f
00000010: edd6 633f 31c8 573f bf5b 713f 99c0 803f
00000020: 1633 7c3f 0eb4 603f f193 7a3f ef06 743f
00000030: 3d85 6f3f e155 873f 8fd5 733f 0eaa 5c3f
00000040: 4c7c 6f3f a868 673f 0246 6b3f dddb 683f
00000050: ebe6 793f 270a 5f3f b145 713f d13f 813f
00000060: c64b 6a3f 3179 843f d04a 8c3f 9232 723f
00000070: 59f4 783f 5976 5e3f 1b91 7f3f 626d 6a3f
00000080: 5f1e 6c3f 3b4c 623f 9f79 573f 3faa 5f3f
00000090: b8c0 823f 81aa 653f 7111 883f 9639 743f
000000a0: 3307 813f f4d4 823f f513 983f c64a 7d3f
000000b0: 047e 703f 7124 613f 9dc6 753f 7d18 623f
000000c0: 41ad 833f ec2e 5d3f d42d a33f 0c79 8e3f
000000d0: ea54 7f3f cf97 5e3f 8598 7e3f c849 813f
000000e0: 07a0 6d3f 5f4f 8e3f 0801 7a3f 00a0 703f
000000f0: 0994 8f3f 0796 6d3f 498b 713f 58a1 843f
00000100: 0b84 653f 0c71 7f3f 83de 823f ceda 7c3f
00000110: 7e43 673f 87cc 803f fcc7 983f d531 713f
00000120: debc 803f 02be 603f 4c9b a53f c61a 693f
00000130: 4357 843f 9313 903f 5df9 803f d40e 733f
00000140: 92b4 663f 40f2 723f 226c 6c3f 7385 863f
00000150: bda2 553f 2228 a13f 53ea 6f3f eb55 683f
00000160: 86d7 5a3f 23e8 823f 94a2 893f 4250 603f
00000170: 6fac 7d3f aac2 623f b84c 7c3f 7b47 763f
00000180: 6ea3 7a3f 77f7 713f 6ef7 863f debd 5e3f

model.2.bias f4 [100]
0.38721216 -0.12162287 -0.23716384 0.37185094 0.20969382 0.23295204 -0.016184308 -0.23631765
-0.30339825 -0.027182726 -0.037051987 0.045814786 0.31409094 -0.20876361 0.20161898 -0.3657926
-0.17140757 0.080146395 -0.0056701778 -0.05815224 -0.30839202 -0.1051373 0.006643326 -0.10726135
0.017979462 -0.20617571 0.15337914 -0.17151792 -0.16543113 -0.119855404 0.24809013 0.071257375
-0.036283575 -0.12996301 -0.19912021 0.07250223 0.3188546 0.13434874 0.14103374 -0.16385463
-0.46142447 -0.2313036 -0.5176123 0.09625531 -0.036335047 -0.08115087 -0.006843308 -0.027886221
0.3141116 -0.0217441 0.42849123 0.23390646 0.10935277 0.11336648 -0.1790414 0.044125892
-0.08490289 0.34262037 -0.09813524 -0.31007767 -0.233782 -0.16098273 -0.18864445 0.13581988
-0.22565863 -0.238988 0.21650474 0.34975973 -0.11995219 -0.23029433 0.45709875 0.012106307
0.33456343 0.012703489 0.16010289 -0.19846119 0.22699681 0.326849 -0.07180201 0.06809134
-0.050423242 0.25975007 -0.21943016 -0.2259114 -0.1343987 0.28157416 -0.009914014 0.08557997
0.032785837 0.17972527 0.31066445 0.0119684115 -0.0130901905 -0.09427048 0.07515999 -0.34733236
0.033651583 0.04318483 0.11972363 -0.22645049
00000000: ac40 c63e 6915 f9bd 14db 72be 3f63 be3e
00000010: fab9 563e fb8a 6e3e f494 84bc 41fd 71be
00000020: 0457 9bbe 4fae debc d3c3 17bd 49a8 3b3d
00000030: 87d0 a03e 21c6 55be 3575 4e3e 2b49 bbbe
00000040: 7785 2fbe cb23 a43d e6cc b9bb 0b31 6ebd
00000050: 8fe5 9dbe 3a52 d7bd 42b0 d93b d7ab dbbd
00000060: aa49 933c ba1f 53be 6c0f 1d3e 65a2 2fbe
00000070: c766 29be c076 f5bd 570b 7e3e 63ef 913d
00000080: 169e 14bd 0615 05be 2be6 4bbe 0d7c 943d
00000090: e940 a33e b792 093e 266b 103e 82c9 27be
000000a0: d43f ecbe dada 6cbe 3d82 04bf 8121 c53d
000000b0: 0fd4 14bd 6d32 a6bd d43d e0bb a571 e4bc
000000c0: 3cd3 a03e af20 b2bc 3463 db3e 2d85 6f3e
000000d0: 58f4 df3d af2c e83d a156 37be 5abd 343d
000000e0: 91e1 adbd f06b af3e 21fb c8bd 80c2 9ebe
000000f0: 8c64 6fbe a8d8 24be 032c 41be 5e14 0b3e
00000100: 0e13 67be 45b9 74be 6bb3 5d3e b513 b33e
00000110: 7ea9 f5bd 47d2 6bbe d908 ea3e 8859 463c
00000120: e64b ab3e 4b22 503c 03f2 233e 6939 4bbe
00000130: da71 683e c158 a73e ef0c 93bd 7973 8b3d
00000140: 9a88 4ebd f6fd 843e 4db2 60be 5155 67be
00000150: d09f 09be 7d2a 903e 636e 22bc 8d44 af3d
00000160: 714a 063d e709 383e 690f 9f3e 2817 443c
00000170: 3d78 56bc e210 c1bd 7bed 993d 8cd5 b1be
00000180: 3ed6 093d 94e2 303d aa31 f53d a3e2 67be

model.2.running_mean f4 [100]
0.50344247 0.5832523 0.39694563 0.24824491 0.30810934 0.2528678 0.23640661 0.18380404
0.39815378 0.29792768 0.60871416 0.45275253 0.66370934 0.11291301 0.48706838 0.35504737
0.83357966 0.35951057 0.23158449 0.6087697 0.2285593 0.33513728 0.34238064 0.29306284
0.08594644 0.018864064 0.21525541 0.23231888 0.19838253 0.5593002 0.1908557 0.4479157
0.5904077 0.33703202 0.2728731 0.4273493 0.34303883 0.27708232 0.19272134 0.46354625
0.3523535 0.24365802 0.99285585 0.3120525 2.5023904 0.47389805 0.22711727 0.4900839
0.25866005 0.43063807 0.22384249 0.80556554 0.40045822 0.31727806 0.4254907 0.3519711
0.36761138 0.17265959 0.08589467 0.18636829 0.19055887 0.34724915 0.6748115 0.16559258
0.22412881 0.6140887 0.27862787 0.84961885 0.16477954 0.32767713 0.14835866 0.28480586
0.50049186 0.16963868 0.07365492 0.0628979 0.076860756 0.20278616 0.24136207 0.35780272
0.36204624 0.20409542 0.1744484 0.1209846 0.1214714 0.24357678 0.29232314 0.20834409
0.39417738 0.20270786 0.13035327 0.37101588 0.2473014 0.5337363 0.20629542 0.42238837
0.24462087 0.35742658 0.3905573 0.50673676
00000000: 9be1 003f 0650 153f 753c cb3e ea33 7e3e
00000010: 82c0 9d3e e377 813e 9314 723e 2037 3c3e
00000020: d0da cb3e fa89 983e b1d4 1b3f 2ecf e73e
00000030: dbe8 293f f03e e73d 0761 f93e c5c8 b53e
00000040: 7a65 553f c511 b83e 7c24 6d3e 55d8 1b3f
00000050: 730b 6a3e 1d97 ab3e 844c af3e 550c 963e
00000060: b004 b03d cf88 9a3c ea6b 5c3e 00e5 6d3e
00000070: ca24 4b3e 4c2e 0f3f ad6f 433e 3555 e53e
00000080: f624 173f 768f ac3e 06b6 8b3e 87cd da3e
00000090: c9a2 af3e bcdd 8d3e be58 453e ef55 ed3e
000000a0: ae67 b43e 7d81 793e cd2b 7e3f 58c5 9f3e
000000b0: 2a27 2040 c4a2 f23e 6e91 683e 47ec fa3e
000000c0: 176f 843e 987c dc3e f736 653e 8b39 4e3f
000000d0: dc08 cd3e 4572 a23e ebd9 d93e 8e35 b43e
000000e0: 8f37 bc3e adcd 303e 8be9 af3d 54d7 3e3e
000000f0: dd21 433e a4ca b13e 72c0 2c3f 1a91 293e
00000100: 0682 653e eb34 1d3f 50a8 8e3e 9f80 593f
00000110: f8bb 283e 4cc5 a73e 55eb 173e 13d2 913e
00000120: 3c20 003f c3b5 2d3e 64d8 963d 9dd0 803d
00000130: 2c69 9d3d 2da7 4f3e 9e27 773e eb31 b73e
00000140: 205e b93e 64fe 503e 9aa2 323e c6c6 f73d
00000150: ffc5 f83d 316c 793e 61ab 953e 2758 553e
00000160: 9ed1 c93e a692 4f3e 547b 053e cbf5 bd3e
00000170: 943c 7d3e f1a2 083f 1b3f 533e 4a43 d83e
00000180: e57d 7a3e 9e00 b73e 20f7 c73e 80b9 013f

model.2.running_var f4 [100]
0.26107734 0.3739458 0.4474466 0.11142182 0.3085899 0.08104281 0.3122166 0.066490754
0.6909852 0.09608464 0.8949864 0.43731722 1.9283786 0.07467055 0.22797835 0.4035063
3.1849957 0.48085564 0.24346861 1.5700861 0.29708844 0.20590307 0.5544082 0.1621153
0.035089422 0.0052809115 0.15623495 0.14880542 0.26930574 0.33689037 0.21656221 0.79781884
0.5401813 0.15099151 0.4289545 0.18398651 0.15138231 0.15252374 0.078264095 0.34725237
0.29912335 0.10994725 0.62770057 0.31816787 33.328106 0.31552777 0.15151706 0.19173156
0.29611197 0.20717146 0.0819615 2.247852 0.20515703 0.2902715 0.2343432 0.3373544
0.2412283 0.07521519 0.14243563 0.3123663 0.14828189 0.19433919 1.2870244 0.19149007
0.18574783 0.37381515 0.09454399 0.5874217 0.11500808 0.23257177 0.08312148 0.36149308
1.3003751 0.16617398 0.09004326 0.053328577 0.043349754 0.11268011 0.2678601 0.4281316
0.15635633 0.10703768 0.2876036 0.04985562 0.079756625 0.35318115 0.1296714 0.32224977
0.60687816 0.19259828 0.12388688 0.12901652 0.098770216 0.27890545 0.18545835 0.9440707
0.079915136 0.19128841 0.17333713 0.7169969
00000000: eeab 853e d375 bf3e b917 e53e 2031 e43d
00000010: 7fff 9d3e c6f9 a53d dbda 9f3e 4e2c 883d
00000020: 68e4 303f 06c8 c43d d41d 653f 0be8 df3e
00000030: 1cd5 f63f e0ec 983d 2873 693e 6198 ce3e
00000040: f8d6 4b40 b632 f63e d64f 793e 95f8 c83f
00000050: fa1b 983e 41d8 523e b2ed 0d3f 8e01 263e
00000060: edb9 0f3d 7f0b ad3b 0efc 1f3e 7360 183e
00000070: 71e2 893e e57c ac3e 7cc2 5d3e db3d 4c3f
00000080: 5249 0a3f 859d 1a3e ed9f db3e f666 3c3e
00000090: f703 1b3e 2f2f 1c3e ed48 a03d 10cb b13e
000000a0: b226 993e 062c e13d fcb0 203f e6e6 a23e
000000b0: fb4f 0542 db8c a13e 4a27 1b3e 4755 443e
000000c0: fd9b 973e c124 543e 6edb a73d cfdc 0f40
000000d0: af14 523e 779e 943e aaf7 6f3e b7b9 ac3e
000000e0: 8d04 773e 6c0a 9a3d a5da 113e 7aee 9f3e
000000f0: 35d7 173e da00 473e 37bd a43f f915 443e
00000100: ae34 3e3e b364 bf3e 48a0 c13d 4561 163f
00000110: 5b89 eb3d 4b27 6e3e 983b aa3d 9f15 b93e
00000120: b172 a63f 8329 2a3e 9a68 b83d 116f 5a3d
00000130: 838f 313d d4c4 e63d f624 893e 1134 db3e
00000140: e01b 203e 9236 db3d c740 933e 6835 4c3d
00000150: 7157 a33d 29d4 b43e 94c8 043e ecfd a43e
00000160: 5e5c 1b3f 7c38 453e 68b8 fd3d e81c 043e
00000170: 0a48 ca3d b2cc 8e3e cbe8 3d3e 9eae 713f
00000180: 8caa a33d 1ce1 433e 4a7f 313e 1c8d 373f

model.3.weight f4 [100, 100]
0.006033409 -0.02805699 -0.12715152 0.12936482 0.015678994 0.07980671 0.015458552 -0.0345457
-0.10601847 0.06495267 0.09884423 -0.08985579 -0.016384846 -0.06839084 -0.05993874 0.0023758952
-0.06823523 0.07229661 0.019571422 0.03598363 -0.12945421 0.021588342 -0.054031275 0.029690934
-0.10835566 -0.07371112 0.05487993 0.0099051 0.015832955 -0.0073510343 -0.056653142 -0.073660545
0.10339304 0.08781831 0.05367977 0.021338657 0.004257061 0.00076481357 0.017806657 -0.11792665
-0.02490753 -0.06891469 -0.07433408 0.044207063 -0.09463109 0.039124336 0.03201537 -0.031217584
0.002245953 0.034922916 0.06406747 -0.00837721 -0.042710736 0.02725641 -0.0025391986 -0.08065606
0.030280419 0.046432395 0.07900969 -0.1341279 0.02480089 -0.04088785 0.009749353 0.07241369
0.040212307 0.012705912 -0.030179186 -0.047081877 -0.10603751 0.017154742 0.0859239 0.041850973
-0.026316106 0.017613929 0.060501523 -0.082848504 0.0010988938 -0.009616878 -0.044114586 0.07293306
-0.024001902 -0.038690705 -0.042620186 0.042410526 -0.079821154 0.023434447 0.02671968 -0.036604065
0.07836226 0.053982653 0.031149903 -0.05592315 0.06705284 0.065965176 0.04702246 0.01118204
-0.051433653 0.09252173 -0.019416314 -0.042863186 0.03489527 0.015432385 0.02779002 -0.11187866
0.0767562 0.015176213 -0.032703433 0.057974678 -0.007794892 -0.04058699 0.09220882 0.055401355
0.004049689 -0.02286167 0.065442935 0.12652566 0.06747291 0.070677154 0.04356996 0.038851324
-0.02817613 0.085986696 -0.051993985 -0.019939704 0.07747329 0.081561364 0.018586786 -0.015199296
-0.024447277 -0.03378448 0.06543852 -0.06840916 -0.019558175 0.022225995 -0.03972218 0.012485911
-0.09679248 -0.008142968 0.052238356 0.085018955 0.052583855 -0.024248252 0.12085639 -0.012923345
0.043143127 0.082134336 0.050422765 -0.058709417 -0.08523009 -0.010158598 -0.086593986 -0.061824594
-0.13907589 -0.03801498 0.099375404 -0.029439101 -0.01941747 -0.053096145 -0.033594094 0.03682904
0.036626324 -0.00941694 -0.06519514 -0.059339277 -0.0014762403 -0.022065826 -0.033718344 -0.09904294
-0.012161386 0.0729636 -0.18577458 -0.050601684 -0.11607723 -0.029724076 -0.089577965 0.076293014
-0.027077064 0.032932542 -0.044421095 -0.10216528 0.0012316583 -0.07423465 0.044830676 0.1218169
0.050372127 -0.12800826 0.06625061 -0.06589276 0.0048011723 -0.024261894 -0.106340684 -0.033750914
0.023425441 0.040724594 -0.05502754 0.09710591 0.016822334 -0.14254129 -0.054780416 0.048944175
-0.100503795 -0.13135368 0.10112923 -0.12814735 0.045691777 0.10893051 0.019708404 0.121385545
0.19793321 0.04492245 0.12834136 0.101445764 -0.20989428 0.044197198 -0.09338583 0.005103144
0.093041606 0.06678992 0.084928975 0.04570742 0.12548497 0.12844843 -0.1144614 -0.045427937
-0.17276958 0.15654768 -0.29367417 0.060347605 -0.09363483 -0.07167528 0.023191301 0.01207615
-0.14312688 0.09319449 -0.13293372 -0.07974322 -0.11423686 -0.062234387 -0.034444015 -0.07689763
0.17599668 -0.030084763 -0.0049921786 -0.060145855 0.09022633 -0.06605889 0.0011861536 0.048823614
0.003863643 -0.03965167 -0.29735482 -0.19038491 0.12976423 0.00793692 -0.11837055 0.0045717084
00000000: e7b3 c53b c6d7 e5bc 0234 02be 3678 043e
00000010: 3c71 803c b371 a33d de45 7d3c cb7f 0dbd
00000020: 3620 d9bd e805 853d d86e ca3d 5006 b8bd
00000030: 8339 86bc 7f10 8cbd 5382 75bd e8b4 1b3b
00000040: eabe 8bbd 3f10 943d 3f54 a03c 9263 133d
00000050: a58f 04be 09da b03c e64f 5dbd 673a f33c
00000060: 93e9 ddbd dbf5 96bd c7c9 603d 0049 223c
00000070: 1db4 813c f2e0 f0bb 200d 68bd 57db 96bd
00000080: bbbf d33d 16da b33d 52df 5b3d 68ce ae3c
00000090: d17e 8b3b c57d 483a 44df 913c 8783 f1bd
000000a0: e00a ccbc 2523 8dbd 773c 98bd 7712 353d
000000b0: f2cd c1bd d740 203d 8c22 033d 05bc ffbc
000000c0: d730 133b 550b 0f3d ce35 833d 9140 09bc
000000d0: 74f1 2ebd d648 df3c af68 26bb 012f a5bd
000000e0: a40e f83c e52f 3e3d d5cf a13d d358 09be
000000f0: 3c2b cb3c 057a 27bd c0bb 1f3c a14d 943d
00000100: a9b5 243d 752c 503c 573a f7bc edd8 40bd
00000110: 322a d9bd 1a88 8c3c dff8 af3d ed6b 2b3d
00000120: e094 d7bc 164b 903c 72d0 773d 7aac a9bd
00000130: c208 903a 1c90 1dbc 7fb1 34bd ee5d 953d
00000140: a39f c4bc 257a 1ebd 8192 2ebd a9b6 2d3d
00000150: 4679 a3bd 99f9 bf3c 3be3 da3c 25ee 15bd
00000160: 647c a03d ea1c 5d3d 152e ff3c ac0f 65bd
00000170: 0053 893d c018 873d 9f9a 403d e034 373c
00000180: 18ac 52bd 087c bd3d f60e 9fbc 4f91 2fbd
00000190: 58ee 0e3d 1dd8 7c3c e5a7 e33c a420 e5bd
000001a0: 5b32 9d3d a7a5 783c 09f4 05bd db76 6d3d
000001b0: 4b6c ffbb 8b3e 26bd fad7 bc3d 88ec 623d
000001c0: 41b3 843b 6648 bbbc f206 863d f18f 013e
000001d0: 3d2f 8a3d 2fbf 903d 6a76 323d 9122 1f3d
000001e0: a1d1 e6bc cb19 b03d a5f7 54bd 9758 a3bc
000001f0: 51aa 9e3d a509 a73d 5143 983c 7806 79bc
00000200: a845 c8bc 9861 0abd a104 863d 1a1a 8cbd
00000210: 7738 a0bc 4a13 b63c bab3 22bd b591 4c3c
00000220: 233b c6bd 156a 05bc e3f7 553d 6b1e ae3d
00000230: 2b62 573d 45a4 c6bc 8e83 f73d 70bc 53bc
00000240: d9b6 303d 0c36 a83d 1a88 4e3d 4979 70bd
00000250: 1d8d aebd 4070 26bc 3058 b1bd c93b 7dbd
00000260: e969 0ebe 98b5 1bbd 5585 cb3d 452a f1bc
00000270: 6311 9fbc 587b 59bd f699 09bd 0cda 163d
00000280: 7c05 163d 8249 1abc 0885 85bd be0d 73bd
00000290: 687e c1ba 64c3 b4bc 3f1c 0abd 06d7 cabd
000002a0: 8d40 47bc f16d 953d b13b 3ebe b643 4fbd
000002b0: e6b9 edbd e87f f3bc a774 b7bd 833f 9c3d
000002c0: b8d0 ddbc 46e4 063d e5f2 35bd 083c d1bd
000002d0: 986f a13a 5608 98bd 5fa0 373d 247b f93d
000002e0: 0153 4e3d 9914 03be 66ae 873d c9f2 86bd
000002f0: 2753 9d3b e1c0 c6bc 25c9 d9bd 663e 0abd
00000300: b6e6 bf3c d5ce 263d 8f64 61bd 77df c63d
00000310: fece 893c 58f6 11be 6e61 60bd b079 483d
00000320: efd4 cdbd 9481 06be d71c cf3d 0f39 03be
00000330: 4d27 3b3d f616 df3d 8573 a13c fc98 f83d
00000340: 01af 4a3e 9a00 383d eb6b 033e ccc2 cf3d
00000350: 87ee 56be 1f08 353d 1241 bfbd 4638 a73b
00000360: 998c be3d 27c9 883d 3eef ad3d b437 3b3d
00000370: 227f 003e fc87 033e bd6a eabd a512 3abd
00000380: 82ea 30be 094e 203e 765c 96be 0d2f 773d
00000390: 9ec3 bfbd 7dca 92bd affb bd3c 0bdb 453c
000003a0: da8f 12be c1dc be3d c71f 08be 6a50 a3bd
000003b0: 04f5 e9bd 7ce9 7ebd 2b15 0dbd 817c 9dbd
000003c0: 7938 343e 5274 f6bc 6e95 a3bb 805b 76bd
000003d0: 95c8 b83d e249 87bd b678 9b3a 45fb 473d
000003e0: 2c35 7d3b ca69 22bd e43e 98be 43f4 42be
000003f0: eae0 043e db09 023c 426c f2bd 45ce 953b

model.3.bias f4 [100]
0.15977761 -0.10730307 0.0348247 -0.012196675 0.16823982 0.0324993 0.14324111 -0.21720232
-0.051602453 0.08540528 0.04571576 -0.07120687 -0.020314738 -0.11856195 -0.43511721 0.1131457
-0.11339963 0.0071582543 0.036606994 0.060764674 0.006365481 0.103314534 0.054223534 0.09900405
-0.32297376 0.13879308 -0.05051969 0.08029046 0.10430757 -0.073958956 0.033133056 -0.09099887
-0.2504699 -0.041320506 0.029164866 0.043000333 -0.24640305 0.07705207 0.02709364 0.0878856
0.04683657 0.019183757 0.0686583 -0.14157045 -0.058030896 0.06514389 -0.061366647 0.0086504
0.23216788 -0.22965966 -0.083115585 0.15449741 0.042331263 0.051090527 -0.05589188 -0.02484948
-0.03376098 -0.069544606 -0.078100644 -0.030127287 0.07543807 0.04153789 -0.020149652 0.1100114
0.048594303 -0.06736654 -0.28636545 -0.17618003 -0.07771445 0.17653036 -0.22168596 -0.12842998
0.17588536 0.18328428 -0.10737681 -0.020592231 0.04900886 0.10977315 -0.029210873 0.042175967
0.19367361 0.18674003 -0.16612513 -0.22076729 -0.012618457 -0.3059136 0.056479745 0.09398026
0.24714625 0.016174031 -0.00020000347 0.16160643 -0.12286977 -0.08265511 0.06918125 0.053995013
0.035581436 0.035580546 0.06798382 0.070115454
00000000: be9c 233e b6c1 dbbd 58a4 0e3d 90d4 47bc
00000010: 0f47 2c3e fc1d 053d ccad 123e 496a 5ebe
00000020: 185d 53bd f7e8 ae3d 7340 3b3d e8d4 91bd
00000030: 186b a6bc 9cd0 f2bd afc7 debe efb8 e73d
00000040: 113e e8bd ca8f ea3b 37f1 153d 61e4 783d
00000050: 8695 d03b 9296 d33d 7f19 5e3d a3c2 ca3d
00000060: d15c a5be c61f 0e3e bced 4ebd 536f a43d
00000070: 359f d53d cb77 97bd 87b6 073d 9e5d babd
00000080: 973d 80be b13f 29bd 28eb ee3c 1e21 303d
00000090: 1551 7cbe 7acd 9d3d 7bf3 dd3c 5efd b33d
000000a0: b4d7 3f3d 4127 9d3c b99c 8c3d d8f7 10be
000000b0: ceb1 6dbd 296a 853d 985b 7bbd 68ba 0d3c
000000c0: 6bbd 6d3e e72b 6bbe 8138 aabd 9234 1e3e
000000d0: 8c63 2d3d 4d44 513d e2ee 64bd 2391 cbbc
000000e0: f448 0abd 676d 8ebd 3bf3 9fbd 80cd f6bc
000000f0: 467f 9a3d a223 2a3d e210 a5bc a84d e13d
00000100: d20a 473d 78f7 89bd 7e9e 92be 8a68 34be
00000110: c128 9fbd 60c4 343e a501 63be 2683 03be
00000120: 4b1b 343e e0ae 3b3e 5fe8 dbbd 0ab1 a8bc
00000130: 84bd 483d bfd0 e03d a44b efbc b5c0 2c3d
00000140: 6052 463e c738 3f3e b51c 2abe d210 62be
00000150: a5bd 4ebc b5a0 9cbe 4e57 673d b978 c03d
00000160: e813 7d3e 677f 843c 06b8 51b9 287c 253e
00000170: 25a3 fbbd 1547 a9bd e6ae 8d3d e029 5d3d
00000180: d7bd 113d e8bc 113d 1a3b 8b3d b198 8f3d

model.5.weight f4 [100]
1.1719989 1.212534 1.4928739 1.261149 1.2895894 1.1463103 1.2573549 1.544837
1.5639532 1.0379704 1.1032412 1.0086454 1.0196531 1.5555558 1.4189115 1.1788528
1.7995834 1.1565561 1.2198204 1.2601122 1.1773664 1.1739193 1.0129205 1.1809647
1.7561572 1.1130645 1.3885665 1.1714746 1.10598 1.728498 1.7865535 1.3349036
1.396402 1.1599699 1.5842462 1.1164272 1.7838168 1.0981069 1.4420938 1.2714543
1.1992313 1.0713073 1.0237362 1.3142037 1.4953642 1.2846733 1.0179429 1.1203403
1.439613 1.6237087 1.7779944 1.4806521 1.1136276 1.0441593 1.2965926 1.3435144
1.1216606 1.0382063 1.5780178 1.1223935 1.161956 1.5043627 1.4960771 1.0606984
1.1564276 1.1884958 1.7079608 1.4285207 1.512739 1.2176409 1.278764 1.4640746
1.3283918 1.2161974 1.7990191 1.8644867 1.0166088 1.4920746 1.1138779 0.9941077
1.295445 1.2963493 1.8064963 1.2740781 1.5090168 1.605379 1.1927047 1.6987784
1.284429 1.3830528 1.0321177 1.1764767 1.408896 1.5559918 1.4906001 1.1927482
1.1881813 1.2523171 1.2049592 1.1462021
00000000: 0f04 963f 5034 9b3f 7e16 bf3f 556d a13f
00000010: 4411 a53f 4cba 923f 01f1 a03f 38bd c53f
00000020: 9e2f c83f 37dc 843f 0237 8d3f 4b1b 813f
00000030: fe83 823f 741c c73f e49e b53f a6e4 963f
00000040: c058 e63f 080a 943f 1323 9c3f 5b4b a13f
00000050: f1b3 963f fd42 963f 61a7 813f da29 973f
00000060: c2c9 e03f e678 8e3f 8cbc b13f e1f2 953f
00000070: c190 8d3f 6c3f dd3f c9ad e43f 1fde aa3f
00000080: 4dbd b23f e579 943f 94c8 ca3f 16e7 8e3f
00000090: 1c54 e43f c48e 8c3f 8896 b83f 04bf a23f
000000a0: 6980 993f 9920 893f ca09 833f d437 a83f
000000b0: 1868 bf3f 2d70 a43f f44b 823f 5067 8f3f
000000c0: 3d45 b83f b0d5 cf3f 5295 e33f 0286 bd3f
000000d0: 598b 8e3f 03a7 853f bff6 a53f 48f8 ab3f
000000e0: 9392 8f3f f2e3 843f 7dfc c93f 97aa 8f3f
000000f0: f9ba 943f f58e c03f 747f bf3f f7c4 873f
00000100: d205 943f a120 983f 769e da3f c4d9 b63f
00000110: 6ea1 c13f a8db 9b3f 8aae a33f cc66 bb3f
00000120: be08 aa3f 5bac 9b3f 4246 e63f 80a7 ee3f
00000130: 3d20 823f 4dfc be3f 8d93 8e3f d87d 7e3f
00000140: 24d1 a53f c6ee a53f 453b e73f fe14 a33f
00000150: 7627 c13f 0f7d cd3f 8caa 983f 9271 d93f
00000160: 2b68 a43f e007 b13f 6f1c 843f ca96 963f
00000170: b456 b43f bd2a c73f fccb be3f f9ab 983f
00000180: 5316 983f ed4b a03f 1a3c 9a3f c0b6 923f

model.5.bias f4 [100]
-0.7378613 0.6888569 1.1653271 1.0211377 -1.0470736 -0.7553916 -1.0611088 1.547133
1.2986903 -0.320224 -0.5218315 -0.08708052 -0.14013693 1.3171155 1.4029787 -0.7648681
1.8774033 -0.7485486 -0.95367265 -1.2416689 0.5604997 -0.8259742 -0.110163815 -0.76621836
1.7612773 -0.56380725 1.0756302 -0.82775587 -0.44238523 1.6394836 1.8934466 0.9527047
1.261235 0.35143858 1.317324 -0.640267 1.8115733 -0.5202346 1.1634067 -1.0186298
-0.94645494 -0.324334 0.069626346 0.95518446 1.8320912 -1.1774856 -0.17527033 -0.63867867
-1.4870232 1.5844376 1.9542017 1.3452113 -0.56419945 0.1782154 1.254504 0.7588554
0.3201526 0.11225596 1.3106179 -0.6049871 -0.722148 1.1557926 1.0357707 -0.32409
-0.71936953 0.50478435 1.7489973 1.1083778 1.386891 -0.8774721 0.78042823 1.1496822
-1.2976338 -0.8471042 1.9519455 1.9118899 -0.09416288 1.7485956 0.3317632 0.04785776
-1.1678946 -1.0948336 1.6664491 0.93531966 1.196331 1.7736592 -0.8735351 1.6446896
-1.1419718 1.0000207 -0.21165569 -0.7825391 1.2740581 1.3879555 1.8013126 -0.89472777
-0.8516165 -1.0618719 -0.84476846 -0.7785397
00000000: 7ae4 3cbf ed58 303f 7029 953f a4b4 823f
00000010: 8206 86bf 5861 41bf 6ad2 87bf 7408 c63f
00000020: 7c3b a63f 66f4 a3be c096 05bf 4657 b2bd
00000030: 0e80 0fbe 3e97 a83f ce94 b33f 65ce 43bf
00000040: c04e f03f e2a0 3fbf e423 74bf 02ef 9ebf
00000050: e97c 0f3f 0c73 53bf 919d e1bd e326 44bf
00000060: 8971 e13f ac55 10bf 40ae 893f cfe7 53bf
00000070: 5180 e2be 99da d13f 755c f23f 75e4 733f
00000080: 2670 a13f c2ef b33e 139e a83f 8ae8 23bf
00000090: a2e1 e73f 182e 05bf 83ea 943f 7662 82bf
000000a0: df4a 72bf 1b0f a6be 4298 8e3d f886 743f
000000b0: f781 ea3f d9b7 96bf 117a 33be 7280 23bf
000000c0: c756 bebf dace ca3f 4823 fa3f e22f ac3f
000000d0: 606f 10bf 197e 363e 9693 a03f 5944 423f
000000e0: 0beb a33e 74e6 e53d 54c2 a73f 6fe0 1abf
000000f0: b1de 38bf 03f1 933f 2294 843f 20ef a5be
00000100: 9a28 38bf 8c39 013f 25df df3f 53df 8d3f
00000110: a585 b13f 03a2 60bf 25ca 473f c928 933f
00000120: dd18 a6bf d2db 58bf 5ad9 f93f cfb8 f43f
00000130: 78d8 c0bd fbd1 df3f dedc a93e 8006 443d
00000140: 927d 95bf 8223 8cbf 344e d53f 1c71 6f3f
00000150: 6021 993f 4407 e33f ff9f 5fbf 3085 d23f
00000160: 222c 92bf ae00 803f 45bc 58be 7c54 48bf
00000170: 5614 a33f 87a8 b13f 6991 e63f e10c 65bf
00000180: 8a03 5abf 6beb 87bf bf42 58bf 614e 47bf

model.5.running_mean f4 [100]
0.5849215 0.030046467 0.08471111 0.032515638 0.9119192 0.5851781 0.6932701 0.31043965
0.031595092 0.3517708 0.5568523 0.23538248 0.29480645 0.067035206 1.5416025 0.7792186
0.5005302 0.5900903 0.57819396 0.7672391 0.2966707 0.6604286 0.31780672 0.700413
0.104325026 0.80367905 0.94438744 0.5561692 0.63185006 0.24129535 1.22604 0.06737984
1.519862 0.019389715 0.02088412 0.5938159 0.029342458 0.5584128 0.66191876 0.84509677
0.48728856 0.3051816 0.20536076 0.4980007 0.24676256 0.7294165 0.20719905 0.43253493
0.84125304 0.011672782 1.5624692 2.0596316 0.53720003 0.17902751 0.32558566 0.018038223
0.093529545 0.20043702 0.026471049 0.6510882 0.45011494 0.23092386 0.016925097 0.5246245
0.71170396 0.21636996 1.8322624 0.3805749 0.12774214 0.81572413 0.335419 0.08671619
0.89710146 0.67674714 0.096364416 0.07595645 0.41702357 2.6739354 0.04524251 0.30361956
0.82320297 0.90238845 0.014087981 1.5791042 0.07313462 0.0388567 0.65109444 2.5627825
0.9034334 0.0231029 0.38528442 0.71534723 0.5064722 0.014911406 0.9895489 0.62284744
0.5540325 0.5862087 0.7342645 0.6165935
00000000: 6abd 153f 0224 f63c 057d ad3d 1e2f 053d
00000010: 8973 693f 3bce 153f 267a 313f f2f1 9e3e
00000020: db69 013d 4d1b b43e df8d 0e3f 1b08 713e
00000030: dff0 963e c149 893d 3b53 c53f df7a 473f
00000040: bf22 003f 2810 173f 8504 143f c869 443f
00000050: 39e5 973e d911 293f 90b7 a23e 444e 333f
00000060: 5ca8 d53d e9bd 4d3f 60c3 713f 1b61 0e3f
00000070: edc0 213f 2116 773e e1ee 9c3f 71fe 893d
00000080: d78a c23f 2ed7 9e3c 2d15 ab3c 5204 183f
00000090: 985f f03c 24f4 0e3f 8273 293f 4358 583f
000000a0: e37d f93e c340 9c3e 174a 523e f3f9 fe3e
000000b0: 53af 7c3e 0abb 3a3f fd2b 543e 3875 dd3e
000000c0: 5c5c 573f 323f 3f3c fefe c73f 01d1 0340
000000d0: f185 093f fd52 373e 2ab3 a63e e5c4 933c
000000e0: 6b8c bf3d 5d3f 4d3e d0d9 d83c b7ad 263f
000000f0: 7775 e63e 4e77 6c3e 80a6 8a3c cb4d 063f
00000100: 3b32 363f 1690 5d3e 9387 ea3f b7da c23e
00000110: d6ce 023e 4cd3 503f 0abc ab3e 4298 b13d
00000120: 71a8 653f 4d3f 2d3f b55a c53d 0e8f 9b3d
00000130: 1d84 d53e c221 2b40 3650 393d 0674 9b3e
00000140: 6ebd 523f ee02 673f 46d1 663c 1620 ca3f
00000150: 9bc7 953d 3428 1f3d 20ae 263f a104 2440
00000160: 6947 673f 4b42 bd3c 0044 c53e ff20 373f
00000170: 29a8 013f f84e 743c 1453 7d3f ee72 1f3f
00000180: 13d5 0d3f c611 163f c2f8 3b3f 12d9 1d3f

model.5.running_var f4 [100]
0.11936606 0.021070728 0.083085865 0.019814258 0.125658 0.22981387 0.14149341 0.4991821
0.028235381 0.13416798 0.22319935 0.1104827 0.12501499 0.09422686 11.019854 0.3201588
2.383638 0.18506213 0.0959394 0.5365202 0.8957535 0.2206181 0.10657472 0.23145014
0.18923208 1.1295662 4.177813 0.27899742 0.109933406 0.30840567 12.977706 0.08211332
3.8623996 0.009695508 0.01677896 0.22406323 0.037782367 0.12902777 1.0121342 0.1081107
0.15751372 0.1293226 0.32679754 0.7412222 0.32335782 0.27454978 0.06806636 0.10620705
0.15870751 0.012502567 16.496101 18.830698 0.14488672 0.2805975 0.8912615 0.015300922
0.10635412 0.21111748 0.028739853 0.24249245 0.15894204 0.29318783 0.012089317 0.19248575
0.40543187 0.24408646 5.3498588 1.3642671 0.22103345 0.15949392 0.7183345 0.11062529
0.15041508 0.17505343 0.15496132 0.10060961 0.20777468 14.275524 0.024112191 0.12656754
0.19150959 0.13801718 0.011366004 3.3626206 0.07960494 0.052152276 0.23909363 36.995045
0.208152 0.007289185 0.15815723 0.26954097 1.3177482 0.0113102 2.3337321 0.28414044
0.20608208 0.19162792 0.1270475 0.25762466
00000000: 3176 f43d 859c ac3c ec28 aa3d 8351 a23c
00000010: 7eac 003e 5454 6b3e a6e3 103e cc94 ff3e
00000020: e34d e73c 5563 093e 5f8e 643e c144 e23d
00000030: ee03 003e 03fa c03d 5251 3041 dbeb a33e
00000040: 868d 1840 ed80 3d3e e07b c43d 6359 093f
00000050: 1a50 653f b6e9 613e d943 da3d 4401 6d3e
00000060: 0ec6 413e a095 903f a5b0 8540 c0d8 8e3e
00000070: c424 e13d 59e7 9d3e afa4 4f41 072b a83d
00000080: 8e31 7740 e8d9 1e3c 0874 893c d570 653e
00000090: afc1 1a3d db1f 043e 9d8d 813f 2569 dd3d
000000a0: 474b 213e 256d 043e 0252 a73e bdc0 3d3f
000000b0: 288f a53e ca91 8c3e 6066 8b3d 1583 d93d
000000c0: 3984 223e 91d7 4c3c 04f8 8341 45a5 9641
000000d0: 2f5d 143e 7aaa 8f3e b729 643f b8b0 7a3c
000000e0: 30d0 d93d 2e2f 583e d76f eb3c f14f 783e
000000f0: b4c1 223e b71c 963e 4512 463c fc1a 453e
00000100: c494 cf3e cdf1 793e 0b32 ab40 4ea0 ae3f
00000110: 9856 623e 6052 233e c5e4 373f 838f e23d
00000120: 6906 1a3e 3541 333e 2eae 1e3e 690c ce3d
00000130: e3c2 543e 8c68 6441 ee86 c53c ec9a 013e
00000140: 171b 443e 6054 0d3e 7a38 3a3c 2d35 5740
00000150: ea07 a33d a09d 553d f6d4 743e edfa 1342
00000160: cc25 553e 1eda ee3b f8f3 213e 4601 8a3e
00000170: f9ab a83f 6b4e 393c de5b 1540 db7a 913e
00000180: 2e07 533e 1c3a 443e bd18 023e 61e7 833e

model.6.weight f4 [1, 100]
-0.9621826 0.9726009 1.6088235 1.2789807 -1.3273737 -0.94381213 -1.3091111 1.9451789
1.7709764 -0.42467976 -0.7001749 -0.16517553 -0.24440952 1.7771207 1.7290978 -0.98758054
2.4012494 -0.95158076 -1.1839781 -1.4623877 0.83984447 -1.0332394 -0.1987679 -0.9911573
2.2795665 -0.7469762 1.4443818 -1.0305437 -0.6479352 2.1624806 2.4056206 1.3007286
1.5956894 0.6894442 1.8031259 -0.8152287 2.3378372 -0.6963262 1.5601696 -1.2871996
-1.1589216 -0.50356454 0.23159908 1.2808353 2.1441941 -1.4299165 -0.2639444 -0.81945753
-1.8144363 2.037729 2.446501 1.7330912 -0.74789757 0.35185224 1.5045911 1.1776834
0.60129315 0.30182618 1.791409 -0.793503 -0.93809956 1.6126816 1.520762 -0.48024303
-0.9251951 0.8179798 2.23287 1.5068296 1.7935377 -1.1195745 1.1160785 1.5731022
-1.5674715 -1.0944858 2.4597955 2.4774878 -0.22824661 2.0705705 0.59839803 -0.014618835
-1.4310625 -1.3732927 2.245567 1.2247214 1.6462889 2.1754255 -1.0911162 2.1440551
-1.401031 1.3836956 -0.33290505 -0.99895996 1.6154355 1.8302971 2.1143756 -1.1091177
-1.0674188 -1.3038208 -1.079884 -0.960882
00000000: 9951 76bf 5ffc 783f eeed cd3f a4b5 a33f
00000010: 62e7 a9bf ac9d 71bf f490 a7bf 9ffb f83f
00000020: 5baf e23f a06f d9be aa3e 33bf c623 29be
00000030: 7d46 7abe b178 e33f 1453 dd3f 14d2 7cbf
00000040: 12ae 1940 cc9a 73bf 988c 97bf 852f bbbf
00000050: 0c00 573f 3041 84bf d089 4bbe 7cbc 7dbf
00000060: 6be4 1140 d539 3fbf 81e1 b83f dbe8 83bf
00000070: 15df 25bf 1566 0a40 b0f5 1940 467e a63f
00000080: 8d3f cc3f 6a7f 303f d4cc e63f d4b2 50bf
00000090: 209f 1540 6f42 32bf a3b3 c73f f5c2 a4bf
000000a0: 8b57 94bf 9be9 00bf 4f28 6d3e 69f2 a33f
000000b0: 7a3a 0940 8107 b7bf b823 87be f8c7 51bf
000000c0: 733f e8bf 276a 0240 7993 1c40 efd5 dd3f
000000d0: 3776 3fbf fa25 b43e 7196 c03f 54be 963f
000000e0: 59ee 193f f688 9a3e e44c e53f 0323 4bbf
000000f0: 4b27 70bf 5a6c ce3f 54a8 c23f 6ae2 f5be
00000100: 96d9 6cbf 2067 513f 58e7 0e40 cbdf c03f
00000110: a592 e53f 384e 8fbf a9db 8e3f 6a5b c93f
00000120: e8a2 c8bf 1c18 8cbf 4a6d 1d40 298f 1e40
00000130: 7bb9 69be 3a84 0440 9d30 193f d783 6fbc
00000140: 0e2d b7bf 0ec8 afbf 5fb7 0f40 acc3 9c3f
00000150: 98b9 d23f 2c3a 0b40 b2a9 8bbf 3338 0940
00000160: fc54 b3bf f01c b13f 8872 aabe d7bb 7fbf
00000170: 97c6 ce3f 2d47 ea3f ee51 0740 92f7 8dbf
00000180: 2ea1 88bf 9ae3 a6bf a439 8abf 5dfc 75bf
