models/neural_networks/regression/2023-11-27_14:54:13/NN_model.pt (torch, 37575 bytes, 13 tensors)

model.0.weight f4 [80, 11]
000000 42 b1 6a bd 71 5b 3a bf 65 61 94 bd 1f 83 13 3e
       -0.057297952 -0.7279578 -0.07245139 0.14405487
000010 9f e9 61 be 4d 9f e8 3c a3 cd 4e be 23 37 10 be
       -0.22061776 0.028396273 -0.20195632 -0.14083533
000020 a8 a9 9d 3e 68 e9 b6 3e 55 e0 c1 bd 02 9f f5 be
       0.307935 0.3572495 -0.09466616 -0.47972876
000030 cc c0 83 3e 31 da a2 3d 10 42 c6 bb 7d 4c c0 bd
       0.2573303 0.07951773 -0.0060503557 -0.09389589
000040 44 8b f3 be 90 6a 5d 3d fe 22 62 be 61 fc 55 bd
       -0.4756719 0.054056704 -0.22083661 -0.05224264
000050 13 98 8d 3e 43 09 65 3e 77 d1 2b 3e e8 73 f6 3d
       0.27655086 0.22366814 0.16779123 0.12033826
000060 f8 25 22 be 24 10 99 3e 31 a4 b1 3e 73 50 b3 be
       -0.15834796 0.29895127 0.3469558 -0.35022315
000070 f0 bc 97 3d 20 b0 20 be b6 d8 f5 be 0f 8c 30 bf
       0.07409084 -0.15692186 -0.480169 -0.6896371
000080 cf 29 8b bd 69 c3 83 be e5 79 1f bf 73 29 cb 3e
       -0.06795084 -0.25735024 -0.6229537 0.3968006
000090 f9 a9 91 be 78 c8 13 be 05 a6 30 3e 59 21 55 bd
       -0.2844999 -0.14431942 0.17250831 -0.052033756
0000a0 dc 2a 86 be bb 56 df 3d 9b 83 fd bc 87 86 38 3d
       -0.26204574 0.109052144 -0.030946543 0.04505017
0000b0 ac 2b f9 be 95 81 90 3d f5 db 40 be 29 1b 30 3e
       -0.48666131 0.07055966 -0.18833907 0.17197861
0000c0 31 25 b7 3d 20 76 8c 3e 8a 0f eb 3d 2c 6a cb bc
       0.089426406 0.27433872 0.11477573 -0.0248309
0000d0 b1 e1 06 3f 83 17 7b 3d 9b bd a8 be d9 20 94 be
       0.5268813 0.06130172 -0.32957157 -0.2893131
0000e0 52 c8 43 3e 0e 1e d4 be e6 d2 33 3f d8 fb 25 bc
       0.19119385 -0.4142918 0.7024368 -0.010130845
0000f0 e1 ee b0 3e a4 88 2e be b9 57 ce be d9 b7 8b 3e
       0.3455725 -0.17044312 -0.40301302 0.27288702
000100 d2 ee d4 3e be 73 23 be fa cd 15 3f 16 af 02 3f
       0.41588455 -0.15962121 0.5851742 0.5104841
000110 c3 e5 af 3e 3c d6 c0 3d 5c 81 a9 3e 5b f2 21 be
       0.34354982 0.09415862 0.33106506 -0.15815108
000120 69 9d c9 3d f2 c0 8a 3d c7 73 b1 be 10 40 19 3f
       0.09844477 0.06775083 -0.34658644 0.59863377
000130 54 4c 24 bf ae 20 f0 3e 4e 28 a6 3e 3f 4c 3d 3e
       -0.6417897 0.46899933 0.32452625 0.18486117
000140 2d 1a 9d 3d 00 e7 26 3e 0c dd 3d bc 28 ae 85 3e
       0.07671008 0.16299057 -0.011588346 0.26109433
000150 db 29 7f be 6a a6 2b be 4c ff 35 bc 47 96 fd bc
       -0.2491831 -0.167627 -0.011108231 -0.030955447
000160 85 3f 29 be 66 6c ae 3d 4b d7 a9 bd ba c8 af be
       -0.16528137 0.08516769 -0.08293017 -0.3433283
000170 66 b6 f9 be d6 33 66 be a6 9d 9e 3d 69 90 83 3e
       -0.4877197 -0.22480711 0.07744913 0.25696114
000180 a3 b2 26 bf 9a 92 20 3f 31 d8 84 3f 30 7c 0c 3e
       -0.6511633 0.62723696 1.0378476 0.13719249
000190 f1 e8 ec bd c6 8f 28 be 32 75 f4 bd be 26 8b 3e
       -0.115678675 -0.16461095 -0.11936416 0.27177995
0001a0 f5 f3 ad be 55 02 08 3e bb e5 17 be a2 7a cb 3d
       -0.33975187 0.1328214 -0.14833729 0.099355
0001b0 71 a0 c7 3e f2 a7 ad be d5 41 14 bf 68 38 c7 bd
       0.38989595 -0.33917195 -0.5791295 -0.097275555
0001c0 93 69 6a bf da 2f 35 3e 7b ff 37 bf 6a d5 aa be
       -0.91567343 0.17694035 -0.7187421 -0.33365947
0001d0 78 a9 0a bf 2e 9c 08 be 45 a8 11 be d2 b1 51 3e
       -0.5416484 -0.13340828 -0.14224346 0.2047799
0001e0 2c e4 3f 3f db 93 db be 2f c8 34 3c 6c e9 84 3e
       0.7495754 -0.42886242 0.011034056 0.25959337
0001f0 45 cb cb 3d 44 f2 04 3e 84 30 ec bd 35 c6 bb 3d
       0.0995088 0.12983042 -0.11532691 0.09168664
000200 06 64 8a be a9 fd 3b be 2b 18 f4 bd 0b 99 08 3b
       -0.27029437 -0.18358482 -0.11918672 0.0020843174
000210 17 f8 d6 3d cc 7f a8 3e 1a 7f 2a 3e 46 5b 2d be
       0.10496538 0.3291 0.16650048 -0.1692935
000220 c3 53 b9 3e ca 34 44 be 77 73 3f be 48 22 99 bd
       0.36196718 -0.19160762 -0.1869639 -0.07477242
000230 e1 df 7a bd 02 64 b8 bd 77 31 44 be b0 b6 dd bd
       -0.061248664 -0.0900345 -0.19159494 -0.108258605
000240 3e 8c c7 be 24 81 9b 3d 75 69 0d 3f b2 80 0a 3f
       -0.38974184 0.07592991 0.5523904 0.54102623
000250 0b 49 fa 3e 06 72 0b 3e f8 a3 12 3f f9 f6 3e 3f
       0.48883852 0.13617715 0.57281446 0.745956
000260 6d c6 b2 be c5 91 37 bf 7a fc 90 3d 38 dc 36 bd
       -0.34917012 -0.717068 0.07079406 -0.04464361
000270 68 cd c9 be c7 8f 56 3d f4 aa 53 bc ff b6 a7 3e
       -0.39414525 0.05238321 -0.012919176 0.32756802
000280 e0 ae ab 3d b0 fc fa bd 4b eb c6 3c 40 fd 88 3e
       0.08382964 -0.122552276 0.024282118 0.26755714
000290 93 a1 eb be ce 52 aa be 3a cc 7f be 0a 8b fc 3d
       -0.4602171 -0.332663 -0.2498025 0.12331207
0002a0 24 e5 2a 3e 85 7a a9 3e ee b8 b4 bd af 3e 5a 3e
       0.16688973 0.33101287 -0.08824335 0.21312974
0002b0 66 0d 66 be 70 45 3b be 03 21 f1 bd d4 f2 af bd
       -0.22466049 -0.18288207 -0.117738746 -0.08591238
0002c0 bb 7a 22 3e 7a ff 81 be bc 04 c7 be 10 e6 a5 3e
       0.1586713 -0.25390226 -0.388708 0.32402086
0002d0 28 d5 a7 3d 8f 2a 9b be 5c 66 61 3d d4 61 f5 3d
       0.08194953 -0.30305907 0.055029258 0.1198155
0002e0 a2 44 6c 3e b0 94 0a be 48 90 f1 bc 59 d2 3b be
       0.23073056 -0.13533282 -0.029487744 -0.1834196
0002f0 db dd bf 3d 00 5d fb 3e 36 9b 82 be 9f a5 f6 bd
       0.093684874 0.4909439 -0.25509042 -0.120433085
000300 ed 1a 9e be 81 b6 bc bd a6 b2 85 bd 02 9f 05 3e
       -0.30879918 -0.09214497 -0.06528215 0.13048938
000310 37 93 0c bd 89 30 14 3e f5 1f b6 3d 5f 58 0e 3e
       -0.034320083 0.1447164 0.08892814 0.13900898
000320 10 42 92 3e b8 e9 f5 3d 13 96 33 be a9 7f 9b 3e
       0.28566027 0.12007469 -0.17537718 0.30370834
000330 52 ae 5d 3e ef cc a7 3d 6b 37 12 be 37 c1 ac 3e
       0.21648529 0.08193385 -0.14278953 0.3374116
000340 3f 15 b5 3e 86 9f 0d bf 94 6a 9b 3d 4f d1 64 3e
       0.35367772 -0.5532154 0.075886875 0.2234547
000350 71 f9 b3 be d8 75 d0 3d 45 28 e3 be b4 24 30 be
       -0.35151246 0.10178727 -0.4436666 -0.17201501
000360 6f 0a 13 be ea c7 ba bb bb 68 8c be 0c de 86 be
       -0.14359449 -0.005700101 -0.27423653 -0.26341283
000370 44 99 c9 bd d3 1d b1 bd 7a e4 5e be ca 2b 1d 3e
       -0.09843686 -0.08648267 -0.21766844 0.15348735
000380 0d 28 d3 bd 93 4a d3 3d 8a c9 11 3e 45 23 95 3d
       -0.103103735 0.10316958 0.14237037 0.07282118
000390 ac 99 9b 3e e3 c6 c0 3e bd 59 a6 bc 92 16 00 be
       0.3039068 0.3765174 -0.020306462 -0.1250861
0003a0 8f 4c 76 3e 4b 0e a6 3d f8 87 64 be e2 bd ab be
       0.24052642 0.08108195 -0.22317493 -0.33543307
0003b0 94 8a 23 3e 71 45 b6 be 59 47 5a 3e 0a ff 17 3f
       0.15970832 -0.35599855 0.2131628 0.59373534
0003c0 36 bd c9 be d7 4d fb 3a 1e b0 6b bd a1 a3 9f be
       -0.3940217 0.0019172978 -0.057541005 -0.31179526
0003d0 ac c9 41 3f 76 f9 a5 3e f6 de a7 3e 7a a8 8c bb
       0.7569835 0.32416886 0.32787293 -0.004292545
0003e0 6a 94 8c 3e b5 12 bf be 17 b0 2e be 6b 9e b4 3d
       0.2745698 -0.3731896 -0.1705936 0.08819278
0003f0 68 6f 91 3e 0b 4c c5 3d aa 51 50 bd 40 77 22 3e
       0.2840531 0.09633645 -0.05085913 0.15865803

model.0.bias f4 [80]
000000 1a 45 03 bd db 30 7d 3d e2 26 76 bd ce bf 88 bd
       -0.032048322 0.06181417 -0.060095675 -0.06677209
000010 32 dc 6b be 73 5e d3 3d 57 b2 44 3e 6d 19 ac 3d
       -0.23033217 0.10320749 0.19208656 0.08403287
000020 9e 97 cf 3d b8 3b 97 bc a2 4f 93 bc f6 2f a3 be
       0.101363406 -0.018461093 -0.017982308 -0.3187253
000030 fb 94 15 3e 4c eb c6 3e 8c 53 26 3e 59 3b 8f bd
       0.14607613 0.38851392 0.16242808 -0.069937415
000040 2b 63 9f 3d 34 db 62 be 83 1d 60 bd 66 68 d3 be
       0.07782587 -0.22153932 -0.054715645 -0.41290587
000050 b9 3c 60 3e 61 7d e1 3a eb 66 28 3d 4a 5c 7f be
       0.21898164 0.0017203504 0.041113775 -0.24937549
000060 94 c4 1d be 15 f4 a4 be 77 12 d4 3d 26 63 d2 be
       -0.1540702 -0.3221747 0.103550844 -0.4109127
000070 a6 de d2 be 1a b6 02 bf 2a d5 87 bd de ad ac 3e
       -0.41185492 -0.51059115 -0.06632455 0.337264
000080 c4 1f 80 3e 71 ef 9e be af 57 b8 3d 7b 58 bb 3d
       0.25024235 -0.31042054 0.09001099 0.09147736
000090 c1 55 8f be 57 ee 0f 3f d9 c6 a2 be 7b 27 1e 3e
       -0.27995113 0.5622305 -0.31792334 0.15444748
0000a0 b5 27 58 3d 25 9f 7a 3e a7 f5 1d 3e a3 03 a5 3d
       0.052772243 0.24474771 0.1542574 0.08057334
0000b0 24 67 79 3e 03 2e ba be f3 ec 2a 3e 73 e4 53 be
       0.24355751 -0.3636323 0.16691951 -0.20692615
0000c0 5c fc 0e bf 9e 01 04 be 42 1b 9b 3e d2 21 7e 3e
       -0.5585382 -0.12891242 0.30294234 0.24817589
0000d0 57 ef d0 3e d2 41 76 3e f8 4f fc be d7 94 b2 be
       0.40807602 0.24048546 -0.4927976 -0.3487918
0000e0 7f 70 46 be 04 f5 3a be 7d 98 76 3d 7f 67 18 3f
       -0.19378851 -0.18257529 0.060204018 0.5953292
0000f0 ed f7 63 3e 59 8b 70 be de c3 dd bd 8a cd 53 3e
       0.22262545 -0.23490657 -0.10828374 0.20683876
000100 15 11 2b 3e 5b 5a 7b 3e ca a4 d5 3d 92 21 17 be
       0.16705735 0.24546187 0.10431822 -0.147589
000110 91 c1 d0 bd 57 67 a4 3e dd 90 b4 be ca b3 a9 bc
       -0.1019317 0.32110092 -0.35266772 -0.020715613
000120 f8 83 f6 be fa ce 11 3e 5b c5 97 bf e5 2c 1a bd
       -0.4814756 0.14239112 -1.1857103 -0.03764047
000130 00 f3 60 3e b4 ac 56 be 8c 35 7b be 83 1d 61 3e
       0.21967697 -0.20964319 -0.24532145 0.21983914

model.2.weight f4 [80]
000000 cd 19 88 3f d1 69 70 3f 2a 61 68 3f 33 12 8f 3f
       1.0632874 0.93911463 0.9077326 1.1177429
000010 b4 86 85 3f 97 91 a4 3f 59 64 83 3f cd 54 5f 3f
       1.0431733 1.285693 1.0264999 0.8723877
000020 63 26 6f 3f d1 79 7d 3f 77 4b 53 3f 7b 6b 86 3f
       0.9341795 0.99014 0.82537025 1.050155
000030 25 93 85 3f d9 b0 82 3f 42 97 8e 3f 1a 9f 81 3f
       1.043553 1.021022 1.113991 1.0126679
000040 4b 38 84 3f 1e 8a 7a 3f 02 94 70 3f 4d a4 5b 3f
       1.0329679 0.97867 0.9397584 0.8579758
000050 9a cf 80 3f d3 64 77 3f 62 7b 72 3f cc 33 46 3f
       1.0063355 0.9663822 0.9471952 0.77422786
000060 a3 6f 89 3f 85 cf 6a 3f a8 13 58 3f bc 50 86 3f
       1.0737194 0.917229 0.84404993 1.0493388
000070 e6 41 56 3f 6f 7c 6c 3f 3f a7 8b 3f 75 25 89 3f
       0.83694303 0.9237737 1.0910414 1.0714556
000080 7b 12 7f 3f 40 20 5e 3f 1e c9 79 3f 8f 89 80 3f
       0.99637574 0.8676796 0.97572505 1.004198
000090 78 28 93 3f 45 b8 5e 3f 19 d3 83 3f 68 1a 75 3f
       1.1496725 0.86999923 1.0298797 0.9574342
0000a0 b9 c7 8f 3f 34 a0 5d 3f 35 f7 66 3f 67 5a 72 3f
       1.1232826 0.86572576 0.9022096 0.94669193
0000b0 1a 41 44 3f 1c 85 9b 3f d7 8e 6c 3f ca a2 91 3f
       0.7666184 1.2149997 0.92405456 1.1377804
0000c0 ee c3 7b 3f 4c 4a 8b 3f 6f d6 4c 3f 5c 4c 5d 3f
       0.9834584 1.0882049 0.800147 0.8644464
0000d0 a0 df 85 3f 12 b0 75 3f eb a4 a5 3f ee 75 7a 3f
       1.045887 0.95971787 1.2940954 0.97836196
0000e0 4f a9 66 3f fc 42 95 3f 5d bf 5d 3f 80 18 58 3f
       0.90102094 1.1661067 0.8662012 0.84412384
0000f0 fa df 8a 3f 25 7a 6e 3f 53 5e 79 3f a5 6b 70 3f
       1.0849602 0.9315513 0.9740955 0.9391425
000100 0f f8 6b 3f a6 ed 77 3f 3b bc 64 3f 94 fb 76 3f
       0.9217538 0.96847 0.89349717 0.9647763
000110 e6 67 6a 3f 87 9b 61 3f 72 69 a2 3f 64 f9 5e 3f
       0.91564786 0.8812794 1.2688429 0.8709929
000120 99 cf 80 3f 15 b5 5a 3f 0e cc 5d 3f f2 10 7d 3f
       1.0063354 0.8543256 0.8663949 0.9885398
000130 ea 4e 84 3f ce 04 55 3f 92 74 69 3f 0a 31 68 3f
       1.0336583 0.83210456 0.911935 0.9069983

model.2.bias f4 [80]
000000 2e 24 a8 be d4 7d 6d 3e 68 c5 12 be 35 bd b1 3e
       -0.32840103 0.23192531 -0.14333117 0.34714666
000010 79 ac b5 3e 1c 81 db 3e 9e 12 96 3e 36 ca e3 bd
       0.3548315 0.4287194 0.2931108 -0.11122553
000020 3b f5 38 3e 12 18 0a 3e 95 6b 80 3e 5d 83 b7 3d
       0.18062298 0.13485745 0.2508208 0.089606024
000030 01 e8 e3 3d 33 61 cc 3d bb 9e b8 3d 97 7e c6 bc
       0.111282356 0.09979477 0.090146504 -0.024230285
000040 0c 99 23 3e 8d d6 c3 3d db df 16 be b5 af 9d 3d
       0.15976351 0.09562407 -0.14733832 0.07699529
000050 15 02 58 3e 21 25 07 3e c7 57 6b be a4 61 4d 3d
       0.21094544 0.13197757 -0.22982703 0.050141945
000060 2a a3 40 3e bc f6 ee bd 35 b9 6d 3e 8f 7a 0a be
       0.18812242 -0.116681546 0.23215182 -0.13523315
000070 61 13 be be dd 16 06 3e b9 55 37 3e df 95 a0 bd
       -0.3712416 0.13094659 0.17903794 -0.07841086
000080 12 4a b0 3d 1f 22 58 3d d9 ca 0a bd 47 7e 3b 3e
       0.08607878 0.052766915 -0.033884857 0.1830989
000090 0c 47 16 3e 13 ef fd bd b4 01 8a 3e 22 09 25 be
       0.1467554 -0.123991154 0.26954424 -0.16116765
0000a0 8e 03 10 3d 85 1b f7 bd ff a5 a6 be aa 08 e8 3d
       0.03515964 -0.12065796 -0.3254852 0.113297775
0000b0 4d 0f 9d bd 53 b0 6f be 78 1f e0 be 91 3d 8a 3e
       -0.07668934 -0.23407106 -0.4377401 0.27000096
0000c0 7d 59 9f 3e ee 00 cf 3d a4 f1 3a 3e 48 a4 03 3e
       0.31122962 0.10107599 0.18256241 0.12855637
0000d0 71 0d 85 be 49 62 90 bd df 1a d0 be 38 3b a9 be
       -0.25986817 -0.070499964 -0.406455 -0.33052993
0000e0 1d ec f2 3d 15 25 80 be 1e f5 be be 81 ab e1 3d
       0.11861441 -0.2502829 -0.37296385 0.1101904
0000f0 91 73 33 be 8d ab de 3b 05 6a f5 bd 6b c7 8b be
       -0.17524554 0.006795353 -0.11983112 -0.2730058
000100 21 51 3f be 11 45 4a 3e 5e 30 3f be 4d 2e f5 3e
       -0.18683292 0.19752909 -0.18670794 0.47886887
000110 26 c8 a0 bd c6 7d 4a 3c cb 21 e0 3e b6 b5 cd bd
       -0.07850675 0.012359088 0.43775782 -0.10044424
000120 90 b3 8f 3e cf 3b 4b 3d fa 56 92 be 96 31 87 bc
       0.28066683 0.049617585 -0.28581983 -0.016503137
000130 f2 dc 7e 3e d3 8f ee bc f8 ee b4 be c7 8f b5 bd
       0.24888971 -0.029121315 -0.3533857 -0.08865314

model.2.running_mean f4 [80]
000000 3c 7b 9e 3e 03 cf 70 3e d5 30 91 3e 4e 31 53 3e
       0.30953395 0.23516469 0.28357568 0.20624277
000010 04 71 a2 3e e1 16 01 3f 7a 26 59 3f c2 cb d1 3e
       0.3172685 0.50425535 0.84824336 0.40975767
000020 14 51 24 3f 93 a2 64 3e 83 87 35 3f 5d d1 60 3d
       0.64186215 0.22327642 0.709099 0.054887164
000030 07 48 a1 3e 65 83 8c 3f e6 4c c0 3e 41 97 3b 3e
       0.31500265 1.0977598 0.3755867 0.18319418
000040 06 52 9e 3e 63 99 38 3e 2e 57 97 3e f5 f4 23 3e
       0.30921954 0.18027262 0.295587 0.16011412
000050 ac 1a ef 3e 98 94 8c 3e ec 8e 90 3e 3f e2 6c 3e
       0.46700037 0.27457118 0.2823404 0.23133181
000060 85 d5 4c 3e 73 98 04 3e b7 30 8b 3e c1 a7 ee 3d
       0.20003326 0.1294878 0.27185604 0.1165309
000070 e6 25 3b 3e 1a d5 4e 3f 8f 26 a1 3e 4c 3a 0e 3f
       0.18276176 0.8079392 0.3147473 0.55557704
000080 f8 36 19 3f b8 77 c8 3d 70 24 c4 3e 7b 33 81 3e
       0.598495 0.097884595 0.3830905 0.2523459
000090 b1 a2 9b 3e 97 84 51 3f fa a2 2e 3e 1d 7c 79 3e
       0.3039756 0.8184294 0.17054358 0.24363752
0000a0 0c e6 74 3e f3 8a cd 3e 4b 95 be 3e 5b b4 ba 3e
       0.23915881 0.40145072 0.37223276 0.36465725
0000b0 0b 12 d2 3e 5f e7 f7 3d 18 8d f1 3e fc 57 1b 3e
       0.4102939 0.121046774 0.47177958 0.15170282
0000c0 70 8a 65 3e b9 80 3c 3e c2 83 bf 3e 68 6b d3 3e
       0.22416091 0.18408479 0.3740521 0.41292882
0000d0 06 69 0d 3f 17 46 e1 3e 7a 3c 6d 3e bb 14 a5 3e
       0.5523838 0.43998787 0.23167601 0.3224238
0000e0 b0 34 84 3e ba 8f 0c 3e 93 c0 ce 3e e6 5d d4 3f
       0.25821447 0.13726702 0.40381297 1.6591156
0000f0 15 f1 c0 3f a8 76 23 3e c2 23 22 3f e4 48 c5 3e
       1.5073572 0.15963233 0.6333581 0.38532174
000100 34 d5 c5 3e ac 02 c2 3e c9 4f a9 3e 51 7e 3a 3e
       0.38639224 0.37892663 0.33068684 0.18212248
000110 f0 f7 c4 3e 54 c6 cd 3e 7b a4 d5 3d c7 70 b8 3e
       0.3847041 0.40190375 0.10431763 0.36023542
000120 8e e2 b7 3d 34 1e c5 3e 7d a6 42 3f 09 1e 02 3f
       0.08978759 0.38499606 0.7603529 0.5082708
000130 5b 02 d9 3e 5b 6a 0c 3f 41 a2 7b 3e 15 31 ce 3e
       0.4238461 0.54849786 0.24573614 0.40271822

model.2.running_var f4 [80]
000000 01 bc 1c 3e e2 6a 8d 3e 34 66 84 3e 83 51 06 3e
       0.15306093 0.27620608 0.25859225 0.13117032
000010 9a 1a 46 3e fc 45 99 3e 09 c8 03 40 6e 9d 31 3f
       0.19346085 0.29936206 2.0590842 0.69380844
000020 e8 d7 87 3f 1b 17 eb 3d 2a 25 ab 3f 02 16 ff 3c
       1.0612764 0.114790164 1.3370717 0.031138424
000030 5c fa b0 3e 8b de 98 3f 68 f2 47 3e 3b c0 87 3d
       0.3456601 1.1942915 0.19526064 0.06628462
000040 f7 21 c1 3d bd 09 a5 3e 96 a1 85 3e a4 f3 7f 3e
       0.094303064 0.32233992 0.26099843 0.24995285
000050 35 d4 50 3e dc a9 20 3e 58 4a 6d 3e 3a 03 38 3e
       0.2039345 0.15689796 0.23172891 0.17969981
000060 b4 2e 62 3e 15 62 63 3d af 8f 84 3e f1 03 20 3e
       0.22088128 0.05551346 0.25890872 0.15626504
000070 1b bb a4 3d 6e ca 90 3f c2 03 25 3e 68 f6 5a 3e
       0.080435 1.1311777 0.16114715 0.21383059
000080 44 2d db 3e a8 80 48 3d a1 cf 2f 3e ed d0 e4 3d
       0.42807972 0.04895082 0.17169048 0.11172662
000090 f1 f8 49 3e 73 ff 08 3f b5 48 0f 3e 7c a5 b9 3d
       0.1972387 0.53514785 0.1399258 0.09064767
0000a0 f4 87 c6 3d fa d5 7b 3e 23 71 9b 3e 0a 95 27 3e
       0.096939 0.24593344 0.30359754 0.16365448
0000b0 b1 4b 1a 3f e0 b5 a1 3d 0f 97 83 3f 14 47 08 3e
       0.60271746 0.07896018 1.0280474 0.13308364
0000c0 17 3b df 3e d0 d0 4f 3d b9 ba a2 3d c9 d3 f2 3e
       0.4359977 0.05073625 0.07945771 0.47427204
0000d0 01 a0 5e 3f 0d 5b c4 3e d5 65 15 3e 3f f0 6d 3e
       0.86962897 0.38350716 0.14589627 0.23236178
0000e0 af 1b ec 3e 6c 54 f7 3d 10 0b 4e 3e 34 16 27 41
       0.4611487 0.12076649 0.20121408 10.442921
0000f0 3f 16 25 41 4c e0 c8 3d ac 8c c6 3f 24 cd ac 3e
       10.317931 0.09808406 1.551168 0.3375026
000100 4c 2f 87 3e a9 29 b5 3e d2 13 d1 3e fe cc 9d 3d
       0.26403272 0.35383347 0.40835434 0.07705115
000110 d6 79 47 3f ea 40 0b 3f 5b e3 d3 3d e9 3d 92 3e
       0.7792028 0.54395926 0.10346099 0.2856286
000120 ca 60 48 3d b7 84 25 3e 83 23 8e 40 83 c9 a8 3e
       0.04892043 0.16163908 4.441835 0.3296624
000130 0f dd 3f 3e 80 ed d4 3e 98 78 c5 3e 8c b5 ab 3e
       0.18736671 0.41587448 0.38568568 0.33536947

model.3.weight f4 [80, 80]
000000 71 9c 26 3d a0 a3 04 be 20 13 2f bd e2 a0 76 3d
       0.040676538 -0.12953043 -0.04274285 0.060212024
000010 1a 03 37 bb ac 63 83 3d f8 51 6f 3d f3 e2 ba 3d
       -0.0027925433 0.06415495 0.05842778 0.091253184
000020 ad bd e5 bc 21 9c 39 3d d5 19 c1 3b 9d d8 8d 3d
       -0.028044546 0.04531491 0.005892972 0.06926081
000030 42 99 9a bd 79 8c 7a bd 49 98 03 bd 07 87 8f 3d
       -0.07548763 -0.06116912 -0.032127652 0.07008176
000040 a7 28 6d 3d 02 fc a3 bd 2b c6 a7 bd 1a 70 24 3c
       0.057900097 -0.08007051 -0.081920944 0.010036493
000050 a2 87 61 bb f2 55 bd 3d 1a cb 7b 3d 2b f6 f3 bd
       -0.003441312 0.092449084 0.06147299 -0.11912187
000060 c1 14 7e 3d 8e cb c0 3c 1f 70 b1 3c cb f0 4e be
       0.06203151 0.023534562 0.021659909 -0.20209043
000070 be 04 62 bc 82 f9 45 3d b3 28 fb 3b e0 cd 65 3d
       -0.013795076 0.048333652 0.007664764 0.05610454
000080 85 a8 c5 bd 3b 26 95 bd 1c b6 c6 bb 25 f0 74 3c
       -0.09651283 -0.072826825 -0.0060641896 0.014949833
000090 ce cf ef 3d 17 9c a9 3d 31 43 52 3d f4 96 ec bd
       0.117095575 0.08281725 0.05133361 -0.115522295
0000a0 46 31 83 3c 18 6c 85 3c 3f 32 7b 3c 41 62 93 bd
       0.016014706 0.016286895 0.015331804 -0.07196475
0000b0 2c cb a7 bc c1 e1 bf bb b9 c3 23 3c 6f 10 3c 3d
       -0.020482622 -0.0058557694 0.009995394 0.04591411
0000c0 57 1e 92 3d 1f 08 d2 bd af 7e 9a 3d d8 d3 17 3c
       0.07134693 -0.10255455 0.07543694 0.009266816
0000d0 7e 29 bb 3d 23 30 02 3e 55 21 8e bc 59 c2 2b bd
       0.091387734 0.12713675 -0.017349878 -0.04193339
0000e0 41 d7 9d 3d 1e fb 1e be ce 61 4a bd 5d 55 3e 3d
       0.07707072 -0.15525481 -0.04940968 0.046468128
0000f0 a5 38 4c bc db 15 a4 bd c5 30 ba 3d a3 d0 46 bd
       -0.012464677 -0.08011981 0.09091333 -0.048538815
000100 ee 85 a8 bd 3e 9a c3 bd cc a5 52 3d b0 20 54 3d
       -0.0822867 -0.09550904 0.051427647 0.051788986
000110 e3 94 12 bd 09 21 aa 3d 68 68 71 3d 81 53 79 3c
       -0.03578652 0.08307082 0.05893746 0.015217663
000120 89 6d 39 3d 35 54 cb bb 41 07 d7 3c f4 a2 97 bc
       0.045270476 -0.0062051066 0.026248576 -0.01851032
000130 9a 15 59 3d 94 57 91 bd 34 3f 76 bc 86 cb a3 3c
       0.052999116 -0.07096782 -0.015029717 0.019994508
000140 46 48 0a bc 94 75 9b 3d 1f cf 9e bd ea 09 d7 3d
       -0.008440083 0.075907856 -0.07754349 0.10499938
000150 d2 03 00 bd 95 85 e5 3d 96 f7 1b bd df 50 a9 ba
       -0.031253643 0.112071194 -0.038077913 -0.0012917778
000160 c8 4c 91 bd a9 b9 aa bd 9f fe 45 3d d4 e2 72 3c
       -0.07094723 -0.08336193 0.04833853 0.014824588
000170 ab 99 39 bc 77 b1 5d 3d 4b 66 ab 3d f3 c7 b2 3d
       -0.011328141 0.05412432 0.0836912 0.087295435
000180 0c 01 a2 bd 1d 1f d0 3b 53 4a 29 3d ea a6 d6 bd
       -0.07910356 0.0063513652 0.041330647 -0.10481055
000190 82 3f 13 bc 7b e1 cc 3d 12 f2 a4 3c 61 f3 83 3b
       -0.008987309 0.100039445 0.02013496 0.0040268158
0001a0 46 dd c0 3d 6a b9 fc ba 98 32 8b 3b 05 4c 32 3d
       0.094172046 -0.0019281332 0.0042479746 0.04352953
0001b0 20 55 06 be ca c2 e1 bc 8b 71 9d 3d 2f 87 10 bd
       -0.1311841 -0.027558703 0.07687672 -0.03528517
0001c0 7e f2 05 3e b3 25 c2 bd e3 ec b3 bd fc 6e 62 bd
       0.13080785 -0.09479847 -0.08785417 -0.055281624
0001d0 0f da 82 3d 35 87 b0 3c a4 cf ef 3c 38 6d b2 bd
       0.063892476 0.021548847 0.029273815 -0.08712238
0001e0 94 4d 04 bd a3 94 59 3d 9c ad ad bd 42 4a c8 bb
       -0.032300547 0.053120267 -0.08480379 -0.006112368
0001f0 7c 83 bd 3c ae 6a 87 3d ed f0 3b bd 80 6f 04 3e
       0.023133986 0.066121444 -0.04588406 0.12933159
000200 19 ad 92 3d b0 c6 e6 3c 69 e4 85 3d 24 2d e8 3d
       0.07161922 0.028170913 0.065377064 0.11336735
000210 54 be 9a bb 4a 16 af bc 38 7e 08 bc 10 26 18 3d
       -0.004722396 -0.021372933 -0.008330874 0.037145674
000220 5e a5 a8 bc 7d 12 16 be bc b3 90 bd 31 2c a9 bd
       -0.020586666 -0.1465549 -0.070655316 -0.08260382
000230 b9 de a9 bd 83 8b 6d bd 12 98 e8 3c 41 03 56 3c
       -0.08294434 -0.057994377 0.028392825 0.013062299
000240 87 18 11 bd c1 64 92 bd c8 d0 e2 bc e6 0f 95 bd
       -0.03542378 -0.071481235 -0.027687445 -0.07278423
000250 02 46 97 3b 94 72 23 3d 56 f7 2c 3d 3c ce fb bb
       0.0046165 0.039904192 0.042228065 -0.007684497
000260 e9 b2 e3 3d 95 f9 a3 3c 05 cb 01 bd 5f 3f a3 bc
       0.11118109 0.02001647 -0.031687755 -0.019927679
000270 0e 46 1d bd b1 58 62 bd 4e e6 05 be 1e 9a e1 3d
       -0.038396887 -0.055260364 -0.13076136 0.11015724
000280 91 27 91 3d a1 aa 30 bd e6 c8 11 3d 55 0b 6d be
       0.07087625 -0.043131474 0.035591982 -0.23148854
000290 d6 3f 2c be 96 38 d9 bd 67 83 b1 bc 96 5f b6 bd
       -0.16821226 -0.10606496 -0.021669103 -0.0890495
0002a0 48 39 2e bd c1 93 89 bd 33 a5 cf bd 51 ad 7f 3c
       -0.042535096 -0.06717635 -0.10138931 0.015605287
0002b0 04 60 8f 3d 91 cc 09 be 7c 63 8e bd 58 10 88 3c
       0.070007354 -0.13456942 -0.06952569 0.016609356
0002c0 a8 05 b8 bd ce f1 71 bd f5 53 b4 bd 28 68 ce 3b
       -0.08985454 -0.059068494 -0.08805076 0.0062990375
0002d0 26 66 71 bd ba 34 b8 bd a3 9f a3 3c 89 d8 42 3d
       -0.058935307 -0.08994432 0.019973582 0.047569785
0002e0 fe 6d a3 bd 35 3a 39 3d 7a 47 3a 3a fa 1f 22 3d
       -0.07979964 0.045221526 0.0007105988 0.039581276
0002f0 08 90 39 3e 26 a1 35 3d 9f 2b 1c bc 87 43 03 ba
       0.1812135 0.044343136 -0.009531884 -0.0005007316
000300 65 e5 9e 3b 68 57 0b be e2 02 53 3d 12 7c 05 be
       0.0048491233 -0.13607562 0.05151642 -0.1303561
000310 f6 e3 10 3d 81 15 26 bd e2 75 04 be 04 e5 8c 3d
       0.03537365 -0.04054785 -0.12935594 0.06879619
000320 13 63 25 be 5b a9 87 3c e8 a9 dc 3d 42 89 92 bd
       -0.16151075 0.016560247 0.107745945 -0.07155086
000330 28 e9 c7 bb f7 d7 01 3e 5b 7d 20 bc 42 df 24 be
       -0.0061007924 0.1268004 -0.009795512 -0.16100791
000340 7d 4d 5d bd 49 ce da bd 91 6b 8c 3d 9c 97 b3 bc
       -0.054028977 -0.10683877 0.06856454 -0.021922879
000350 f6 b5 9b 3d 37 3a ad bb bd 7a 84 3d d5 d4 01 3e
       0.07603066 -0.0052864808 0.06468723 0.12678845
000360 16 ee e3 3d 40 69 83 3d 85 32 89 3d f2 f3 e4 3c
       0.11129396 0.06416559 0.06699089 0.027948353
000370 18 81 c2 bc d5 5b a9 bd 0e 06 5a bc 0d c7 3d bc
       -0.023743197 -0.08269469 -0.013307108 -0.011583102
000380 e9 c5 a0 3c db 60 a7 3d ff 1f 8b bd 2e fa 3e be
       0.01962562 0.081727706 -0.06793212 -0.18650123
000390 e0 f9 8e bd 6c 54 89 bd 2a ac 52 be 13 ab f9 3c
       -0.069812536 -0.06705555 -0.20573488 0.030477082
0003a0 97 2f ef bd e4 c4 c8 bd 1f cd c1 3d 30 cd cd bc
       -0.11678999 -0.09803179 0.09462952 -0.025122255
0003b0 5e 36 ca bd ca 5f a0 bd b2 72 ed 3c 80 f4 a7 3d
       -0.09873651 -0.0783077 0.028985355 0.082009315
0003c0 04 87 16 bd 9d 6f e8 3c cd 8c ba bd 90 9c e7 3c
       -0.036749855 0.028373534 -0.09108887 0.028272897
0003d0 5e 03 24 ba e0 07 87 bd 93 d8 8e bd 9f a2 ad bd
       -0.0006256605 -0.06593299 -0.06974902 -0.08478283
0003e0 e3 1f a1 bc ec b8 3a bd 45 52 ed 3c 0e 00 b6 3d
       -0.019668525 -0.04558651 0.028969893 0.08886729
0003f0 c2 94 99 bd 70 de 8d b9 9c f3 85 3d ad 1f 30 bd
       -0.074990764 -0.00027059345 0.065406054 -0.04299896

model.3.bias f4 [80]
000000 72 8a 2f 3e cf 47 17 3d 43 45 20 be 88 d2 84 bd
       0.17142656 0.036933716 -0.15651421 -0.06485468
000010 76 b8 56 3f ef 82 0e 3e c1 23 ca bd 31 de 5a bb
       0.83875215 0.13917135 -0.09870101 -0.0033396597
000020 88 fe 82 bd 72 88 74 3c ef e8 0b be d9 da a6 3e
       -0.06396204 0.014925109 -0.13663076 0.32588843
000030 f5 e7 1c 3d 8b ec d3 be 00 f4 07 3e 1c c7 10 3e
       0.03830715 -0.41391405 0.13276672 0.14138454
000040 4a b5 2c be f4 ed d5 3d de 49 60 3e 3e 01 91 3d
       -0.16866031 0.104457766 0.21903178 0.07080315
000050 7a 5a 0e bd 37 13 03 3d d6 9a e7 3d aa 27 93 3d
       -0.034754254 0.032000747 0.113088295 0.071853
000060 e0 f3 1f bb ee eb 1b 3e ce db ec 3c 87 9b 78 3e
       -0.0024406835 0.15226719 0.028913405 0.24278079
000070 5a 69 d6 bc 70 52 d1 3c b5 6b 97 be 11 3f f8 bc
       -0.026173282 0.025552005 -0.2957436 -0.03030351
000080 85 52 1b be 42 e9 6f be a0 33 30 be 85 86 76 3e
       -0.15168197 -0.23428825 -0.17207193 0.24074753
000090 f1 05 ae bc f1 df 3a 3d be 01 05 be 48 b8 66 be
       -0.021243067 0.045623723 -0.12988946 -0.22531235
0000a0 15 00 15 3e cf 35 88 3e f3 35 39 bd 37 6a 3a 3d
       0.14550813 0.26603553 -0.045217466 0.04551145
0000b0 6f 0a e1 bd 90 1e a8 bd c5 1b 49 3c 69 c1 03 3e
       -0.10988318 -0.08208954 0.012274687 0.12866749
0000c0 91 12 ad 3d e3 c5 6f be 8c 27 ea 3a 8f 9e 44 3e
       0.08450807 -0.23415332 0.0017864569 0.1920111
0000d0 c7 d6 c0 bc 16 79 4b 3b 6f 1f 82 3b d5 76 51 3e
       -0.023539914 0.0031047515 0.0039710323 0.20455487
0000e0 f6 b3 d4 bc 1c 52 b4 be f2 73 52 3e 20 4b 63 3c
       -0.025964718 -0.35218894 0.20552042 0.013872892
0000f0 44 80 90 bc db bc 76 3c b4 b1 ad 3c e1 7d 13 bd
       -0.017639287 0.015059675 0.0212029 -0.03600872
000100 5e f4 53 3e 5a 4d 68 be 60 ab d1 bd f3 04 32 3e
       0.20698687 -0.22685757 -0.10237765 0.173847
000110 6d fa 00 be 20 d3 0f 3e 7c 59 ce bd d2 1e 93 be
       -0.1259553 0.14045382 -0.100756615 -0.28734452
000120 fa 4b c5 bd e7 54 84 3c aa 9c cd bd c9 ea fa bd
       -0.09633632 0.016153766 -0.10039647 -0.12251813
000130 aa 86 fd 3d c2 ad 81 bc 20 69 74 3e b8 e2 7a 3d
       0.12379201 -0.015829924 0.23868227 0.061251372

model.5.weight f4 [80]
000000 6b f0 92 3f 29 ff 8e 3f f8 71 df 3f dd 84 8e 3f
       1.147962 1.1171619 1.7456656 1.1134297
000010 bd a6 b6 3f 3c 93 8c 3f 07 65 95 3f e7 7f ca 3f
       1.4269634 1.0982432 1.1671456 1.5820283
000020 95 bf b2 3f bf 0d 8d 3f 27 df ce 3f 83 29 b8 3f
       1.3964716 1.101982 1.6161851 1.4387668
000030 36 e9 8c 3f 8d 07 e5 3f 10 12 91 3f be 87 95 3f
       1.100867 1.7892929 1.1333637 1.168205
000040 41 a0 f6 3f 7d 05 9d 3f 12 7d ae 3f 50 e5 86 3f
       1.9267656 1.22673 1.3631918 1.0538731
000050 f0 0a 9b 3f 25 c8 93 3f 14 d4 92 3f f3 a9 95 3f
       1.2112713 1.1545454 1.1470971 1.1692489
000060 62 88 85 3f e3 de 8a 3f 78 f0 87 3f 5b a1 b1 3f
       1.0432246 1.084927 1.062026 1.3877367
000070 ed f7 bb 3f 58 60 e8 3f 8b e5 c2 3f 7b 5a bb 3f
       1.4685036 1.8154402 1.5226301 1.4636987
000080 92 32 d9 3f 2d 61 c2 3f b2 d6 df 3f 46 83 b0 3f
       1.6968558 1.5185906 1.7487395 1.3790061
000090 4e c7 82 3f 54 f0 9c 3f 19 e7 cf 3f a1 8b a2 3f
       1.0217073 1.2260842 1.62424 1.2698861
0000a0 dc b2 d4 3f 7a a2 a9 3f 94 67 83 3f 99 9d b6 3f
       1.6617084 1.3252709 1.0265985 1.4266845
0000b0 ee 2f c7 3f f7 6b 7f 3f c1 dc d3 3f 3a b8 90 3f
       1.5561502 0.99774116 1.6551744 1.1306221
0000c0 b7 a9 7f 3f 1a 1a e4 3f be 89 be 3f 98 91 a8 3f
       0.9986834 1.7820466 1.4885786 1.3169432
0000d0 5a 8e dc 3f 7f 12 ae 3f 0b 0f bb 3f ef b5 99 3f
       1.7230942 1.3599395 1.4613966 1.2008647
0000e0 11 4c ba 3f 54 19 b5 3f ab 5c 96 3f 7f 17 95 3f
       1.4554464 1.4148355 1.174703 1.1647795
0000f0 ee 63 b3 3f 44 94 9e 3f 7c 5e a5 3f 46 35 84 3f
       1.4014871 1.2388997 1.2919459 1.0328758
000100 76 c1 ac 3f d4 3e c6 3f 1b a6 dc 3f fe 05 97 3f
       1.349654 1.5487924 1.7238191 1.1798704
000110 0e fb eb 3f ee 1d 9e 3f 24 b7 d4 3f c5 f0 d4 3f
       1.8435991 1.2352884 1.661839 1.6635977
000120 7e e3 a7 3f 3c 96 86 3f ef 8f bf 3f 86 54 9c 3f
       1.31163 1.0514598 1.49658 1.2213295
000130 5f 70 92 3f 49 c0 bd 3f 8c e6 af 3f 74 90 e1 3f
       1.1440543 1.4824306 1.3742232 1.7622209

model.5.bias f4 [80]
000000 5b a0 35 bf fa ce 06 bf 63 cb cd 3f 2f e5 2b bf
       -0.7094781 -0.5265957 1.6077694 -0.6714658
000010 2a c7 91 3f 9b 96 11 bf a2 5e f5 3e 72 cf b4 3f
       1.1388905 -0.5687043 0.47923762 1.4125807
000020 b4 6f 80 3f dc 1e 0b bf 49 d8 cf 3f 5a 69 c8 bf
       1.0034089 -0.5434396 1.623788 -1.5657151
000030 6f 29 07 bf c1 7f fb 3f 51 3f 20 bf 81 12 65 bf
       -0.527976 1.9648362 -0.62596613 -0.8948136
000040 c1 5f 01 40 5f e4 79 bf 99 18 b7 bf 0a 1d cb be
       2.0214694 -0.9761409 -1.4304382 -0.39670593
000050 a4 62 6c bf 9f 0a 54 bf ed 19 2e bf e4 11 6e bf
       -0.92338014 -0.82828707 -0.6800831 -0.9299605
000060 88 04 81 be da 61 d8 be 68 98 bc be e3 d7 b6 bf
       -0.2519877 -0.42262155 -0.36835027 -1.4284633
000070 eb 39 8c 3f 80 9a eb 3f 00 c1 0c 40 82 24 9d 3f
       1.0955175 1.8406525 2.1992798 1.2276766
000080 0e dd da 3f 0a 5b c6 3f d6 09 07 40 34 ff b2 bf
       1.709871 1.5496533 2.1099753 -1.3984132
000090 7f 86 29 3e 85 70 91 bf 07 ec c0 3f 1a a5 a8 3f
       0.16555212 -1.1362463 1.507203 1.3175385
0000a0 cf d7 f9 3f 04 1b 86 3f 18 38 58 be 3a 26 8d 3f
       1.9518985 1.0476995 -0.21115148 1.1027291
0000b0 96 54 b0 3f ff 90 8f 3c 6e df cc 3f ef f8 35 bf
       1.3775814 0.017525194 1.6005685 -0.7108297
0000c0 60 ac 88 bc 68 bd 05 40 8d e4 b4 3f ef d1 a4 bf
       -0.016683757 2.0896854 1.4132248 -1.2876567
0000d0 b8 46 d6 3f a8 fe 6a 3f 1c 09 97 3f da af 66 bf
       1.6740332 0.91794825 1.1799655 -0.9011208
0000e0 ab f1 99 3f b4 6c b8 3f c9 75 26 bf 30 da 5d bf
       1.2026876 1.4408174 -0.65023476 -0.8666105
0000f0 ed 44 8a 3f a2 e0 8b bf 2d da ab bf c3 12 33 be
       1.0802284 -1.0927927 -1.3425957 -0.17487626
000100 71 30 b1 bf f7 8a b3 3f d7 86 db 3f 45 0e 45 bf
       -1.3842908 1.4026784 1.7150525 -0.769749
000110 cd 21 e6 3f f1 ad 8b bf f5 d2 c4 3f c3 0a 02 40
       1.7979065 -1.0912458 1.5376879 2.0319068
000120 de 25 4f 3f 2b f3 e0 be 67 8b 79 3f ab 11 14 3f
       0.80917156 -0.43935522 0.97478336 0.5783946
000130 2b 63 32 bf 60 82 a6 3f cf 5c b1 bf 06 30 08 40
       -0.6968257 1.3008537 -1.3856448 2.127931

model.5.running_mean f4 [80]
000000 5b c1 f1 3e 8e 54 fd 3e 8c 90 1b 3d 4d b8 fc 3e
       0.4721783 0.49478573 0.037979648 0.4935936
000010 27 6b dd 40 14 18 24 3f d8 dd d7 3c 8a 56 79 3d
       6.91933 0.6409924 0.0263509 0.060873546
000020 b0 00 14 3d 06 bc f4 3e 17 42 4e 3d 1e ae 65 3f
       0.03613347 0.477997 0.050355997 0.89718807
000030 57 cc e5 3e 1d e1 a3 3f e1 07 ff 3e c0 5e 30 3f
       0.4488246 1.2803074 0.498107 0.6889458
000040 1d db 66 3d 78 3f 2b 3f a0 28 44 3f 95 3f d3 3e
       0.056361306 0.6689372 0.7662449 0.41259447
000050 ec db f1 3e 56 71 16 3f 97 75 0d 3f e6 52 d3 3e
       0.472381 0.58766687 0.5525755 0.41274184
000060 59 9b f5 3e 8f df 2d 3f 8e c9 ca 3e a3 0b 5e 3f
       0.47970083 0.6791925 0.396069 0.86736506
000070 79 e1 a0 3d 8c 7e 75 3d 28 dc 00 40 93 21 a6 3d
       0.078555055 0.059935138 2.0134373 0.081118725
000080 5d 6d 11 3f f8 a0 a0 3f 89 11 e1 3d b8 c8 54 3f
       0.568075 1.2549124 0.10989673 0.8311877
000090 b2 87 4a 3e 30 51 2e 3f 76 89 10 3d 34 56 e0 3e
       0.19778326 0.6809263 0.035287343 0.43815768
0000a0 8a d9 8e 3e 96 9b 86 40 c8 c8 93 3e f9 f4 94 3d
       0.27900344 4.2064924 0.2886412 0.07273287
0000b0 b2 74 22 3e 72 9a 3c 3e b8 2a 5b 3d 5f a9 07 3f
       0.15864828 0.18418291 0.053507537 0.52992815
0000c0 56 1e dc 3e 39 43 dc 3d 8b 04 43 3e b8 3d 58 3f
       0.42991894 0.10755009 0.19044702 0.84469175
0000d0 a9 00 7f 3d d2 f3 4a 3d 7d 21 30 3d a0 68 3a 3f
       0.06225649 0.04954893 0.043000687 0.72815895
0000e0 dd 37 b5 3d 24 c2 b9 3f 96 75 22 3f b2 b6 ff 3e
       0.08848546 1.4512372 0.6346067 0.49944073
0000f0 bd 15 63 3d 14 c7 1e 3f 16 fa 27 3f 3f 78 a6 3e
       0.055440653 0.6202252 0.65615976 0.32513615
000100 ae 3b 47 3f cd e1 19 40 c2 45 23 3e 65 9b 23 3f
       0.7782544 2.4044068 0.15944579 0.6390899
000110 55 03 28 3d 6a d8 2c 3f 89 f1 98 3c a3 1a 89 3f
       0.041018803 0.6751772 0.01866986 1.0711254
000120 dd ea 6d 3d 43 17 ad 3e e1 54 98 3c 10 73 92 3c
       0.05808531 0.3380681 0.01859516 0.017877132
000130 a6 32 30 3f cd 61 aa 3e 94 e1 4f 3f d8 93 ce 3e
       0.68827283 0.3327774 0.8120358 0.4034717

model.5.running_var f4 [80]
000000 51 12 01 3e ab 3f 21 3e 7e f4 d1 3c a7 aa 9e 3e
       0.12604643 0.15746944 0.025629278 0.30989572
000010 c5 06 46 43 19 0c 89 3e e3 f1 52 3c 4e 12 54 3d
       198.02644 0.26767042 0.012875053 0.05177527
000020 00 e5 8e 3c d8 e8 19 3e 38 c8 21 3d 37 96 68 3e
       0.01744318 0.15030229 0.039497584 0.22713552
000030 61 61 f6 3d b0 14 96 40 27 6f 51 3e 4c 4a 56 3e
       0.12030292 4.6900253 0.20452558 0.2092678
000040 20 63 58 3d a4 fd 7f 3e 9d 26 86 3e c4 4c a8 3e
       0.052828908 0.249991 0.26201335 0.32871068
000050 f7 c5 81 3e 81 9b 98 3e b4 8c 20 3e a3 f1 fc 3d
       0.25346348 0.2980614 0.15678674 0.12350776
000060 04 f8 b7 3e 98 ae 77 3e 77 3f 45 3e ee 06 43 3e
       0.35931408 0.24187696 0.19262491 0.19045612
000070 79 7a c8 3d 6c db 5e 3d d1 10 ff 40 bf ba 87 3d
       0.09788985 0.054408476 7.970803 0.06627416
000080 08 80 5d 40 f1 ce d4 40 00 cb 02 3e 52 2f 3f 3e
       3.4609394 6.6502614 0.12772751 0.18670395
000090 a5 86 6b 3e 08 e3 a6 3e e6 f6 c0 3c be d2 2a 3f
       0.23000582 0.32595086 0.02355523 0.6672782
0000a0 b1 ec d4 3e 75 48 9e 42 51 c0 11 3e 03 2d 65 3d
       0.4158683 79.14152 0.14233519 0.05595113
0000b0 23 54 72 3e cb 0d ae 3d a6 9a 0c 3d 87 47 80 3e
       0.23664908 0.084987246 0.03432717 0.2505457
0000c0 b8 21 28 3e 21 f2 1b 3e f1 66 7c 3e 7b 6a 8f 3e
       0.16419113 0.15229084 0.24648644 0.28010926
0000d0 ad 29 86 3d 09 e8 2d 3d 61 9a ac 3c 75 ff 42 3e
       0.06550918 0.042457614 0.021069707 0.19042762
0000e0 43 6c 3a 3d 9a e8 75 40 4c 24 eb 3d d0 ca 9f 3e
       0.045513403 3.8423219 0.114815325 0.3120942
0000f0 1b c3 21 3d a4 ae 80 3e 51 bc b2 3e 5b 78 d9 3d
       0.039492708 0.2513324 0.349093 0.10618659
000100 bf 03 a4 3e ae 89 8b 41 7a b7 62 3e 19 5d 81 3e
       0.32034108 17.442226 0.22140303 0.2526634
000110 69 d7 07 3d 30 6e 55 3e c9 b4 63 3c e0 6d 0b 40
       0.033164416 0.20842814 0.013898083 2.1785812
000120 20 f6 06 3d 62 5d db 3d b6 fd 3c 3c 8a 9b 2b 3c
       0.032949567 0.10711171 0.011535099 0.010474095
000130 13 76 54 3e 7a ac 0d 40 e9 70 8b 3e 2c e9 3d 3f
       0.20748167 2.2136521 0.2723458 0.7418392

model.6.weight f4 [1, 80]
000000 05 5e 68 bf 1a b7 39 bf b7 c2 09 40 b9 dd 54 bf
       -0.9076846 -0.72545016 2.1525095 -0.8315082
000010 81 9e c3 3f 19 3f 3c bf 73 b6 46 3f 22 70 ef 3f
       1.5282747 -0.7353378 0.77622145 1.8706095
000020 ab 2c b3 3f bf f2 36 bf 42 0f 04 40 a2 98 f0 bf
       1.3998007 -0.7146415 2.0634313 -1.879658
000030 f8 85 33 bf 12 9c 1d 40 af d6 52 bf ec bd 8a bf
       -0.70126295 2.4626508 -0.8235883 -1.083921
000040 84 e9 26 40 48 be 9a bf 77 67 da bf ba a7 04 bf
       2.6080027 -1.2089319 -1.7062825 -0.5181843
000050 a0 14 93 bf d6 96 81 bf c1 7e 62 bf ad 9d 8e bf
       -1.1490669 -1.0124156 -0.8847466 -1.1141869
000060 92 e8 ca be cb f1 18 bf bb 62 04 bf 67 cf dc bf
       -0.39630562 -0.59743947 -0.5171315 -1.7250794
000070 e5 b0 c4 3f fc 9c 18 40 84 de 1e 40 09 6a d0 3f
       1.5366484 2.3845816 2.4823313 1.6282359
000080 f8 4f 0c 40 87 ac f6 3f 16 69 23 40 ba c3 d8 bf
       2.192381 1.9271401 2.553289 -1.6934731
000090 5c 11 8f 3e 88 a4 ab bf 33 30 fd 3f c4 30 c4 3f
       0.27942932 -1.3409586 1.9780334 1.5327382
0000a0 43 35 17 40 8b 56 ae 3f 2d 5a a1 be 4e 7d c0 3f
       2.3626258 1.3620161 -0.3151411 1.503824
0000b0 c0 77 e9 3f 5b 5e 1e bd 77 db 04 40 61 da 62 bf
       1.823967 -0.038664203 2.075895 -0.8861447
0000c0 56 4e b3 bd 27 d3 23 40 e5 90 e5 3f 50 51 c6 bf
       -0.08755176 2.5597627 1.7934843 -1.5493565
0000d0 c0 e5 0b 40 b2 d9 a6 3f 04 a6 cb 3f ea 74 8f bf
       2.1858978 1.3035185 1.5910039 -1.1207554
0000e0 86 56 cd 3f 5a b1 e0 3f 80 08 66 bf d0 e8 86 bf
       1.604203 1.7554123 -0.8985672 -1.0539799
0000f0 0c 1b bb 3f d8 7d a8 bf 53 89 c9 bf d4 09 a0 be
       1.4617629 -1.3163404 -1.5745033 -0.31257498
000100 85 3f d4 bf b0 e1 ea 3f 0e df 0d 40 59 17 7e bf
       -1.6581885 1.8350124 2.2167392 -0.99254376
000110 9e ee 17 40 6e f3 a7 bf 7e 0b 02 40 2b 7d 1b 40
       2.373939 -1.3121164 2.0319514 2.4295146
000120 36 2d 96 3f 20 17 0c bf 6f c0 bd 3f 64 ed 68 3f
       1.1732547 -0.54722786 1.4824351 0.9098723
000130 ac 08 65 bf 10 a2 d9 3f 7e c8 d6 bf b9 fa 24 40
       -0.8946636 1.7002583 -1.6779935 2.577803
