models/neural_networks/regression/2023-11-17_12:41:59/NN_model.pt (torch, 37575 bytes, 13 tensors)

model.0.weight f4 [80, 11]
0	0x3e416848	0.18887436
1	0x3e694ec5	0.22783954
2	0xbf5eb42c	-0.8699367
3	0x3f046b03	0.51725787
4	0x3f53e0b7	0.8276476
5	0x3eeed57a	0.46647245
6	0x3f595c36	0.8490633
7	0x3c380016	0.011230489
8	0xbe2fb647	-0.17159377
9	0x3f163675	0.58676845
10	0x3f29458f	0.66121763
11	0x3dcab7e8	0.098983586
12	0x3ece876b	0.4033769
13	0x3e8afd62	0.2714644
14	0x3f02386d	0.5086735
15	0x3ecf1c99	0.40451506
16	0x3d3c3998	0.045953363
17	0x3daf489f	0.08558773
18	0xbf04a239	-0.5181003
19	0x3f621aee	0.8832234
20	0xbe3dc878	-0.18533504
21	0xbed038a5	-0.40668216
22	0xbedd900d	-0.43273965
23	0xbe899725	-0.26873127
24	0xbe82bd31	-0.25534967
25	0xbc995430	-0.018716902
26	0xbe24b6ba	-0.1608533
27	0x3d6d92e2	0.058001406
28	0x3e343831	0.1759956
29	0x3e9a92cf	0.3019013
30	0x3d2510ba	0.040299155
31	0x3d16ab2e	0.036784343
32	0xbe686f1b	-0.22698633
33	0x3e91426d	0.2837099
34	0xbe090ada	-0.13383046
35	0x3e4dca69	0.20096745
36	0xbd933b68	-0.07189065
37	0xbddf98b4	-0.10917798
38	0x3d30aeed	0.043135572
39	0xbd0e53a3	-0.03474773
40	0xbe1ae45c	-0.15126175
41	0x3c524efb	0.012836213
42	0x3e8b72b2	0.27235943
43	0x3e5045c2	0.2033911
44	0xbefdcdea	-0.49571162
45	0x3e9de979	0.30842188
46	0x3e9f479e	0.31109327
47	0xbe654a0d	-0.2239153
48	0xbdf2ed4b	-0.11861666
49	0xbeeb2ee1	-0.45934203
50	0xbe73f79b	-0.23824923
51	0xbd497063	-0.049179446
52	0x3eb58670	0.3545413
53	0xbddf3d4d	-0.10900364
54	0x3d8e9bf9	0.06963343
55	0xbd1ed81c	-0.038780317
56	0xbdb71855	-0.08940188
57	0xbdfa11ad	-0.12210403
58	0x3ec58ce5	0.38584056
59	0x3ddc04ef	0.107431285
60	0x3d591d89	0.053006683
61	0xbe5e80bb	-0.21728794
62	0x3dfb76e1	0.12278534
63	0x3bb08f3b	0.005388168
64	0x3eb5652e	0.35428756
65	0x3ea270a7	0.31726572
66	0xbe51a333	-0.20472412
67	0xbdfbecee	-0.1230105
68	0x3e05f427	0.13081418
69	0xbc888612	-0.016665492
70	0xbe982fb9	-0.2972391
71	0xbe23e494	-0.16005164
72	0xbe4c3333	-0.19941406
73	0xbec5c2ec	-0.38625276
74	0xbd4c04c3	-0.04980923
75	0xbef945f9	-0.48686197
76	0xbe54ada3	-0.20769362
77	0x3c72a3a1	0.01480952
78	0xbf3993b6	-0.72491014
79	0xbc6efbde	-0.014586417
80	0xbcee826d	-0.029114926
81	0x3e708627	0.23488675
82	0xbebf430b	-0.37355837
83	0xbcf201a4	-0.029541798
84	0xbe98e0f9	-0.2985914
85	0xbec2f2c6	-0.38075846
86	0x3e070491	0.13185336
87	0x3e64711b	0.22308771
88	0x3e0ddd97	0.13854061
89	0xbdd564ae	-0.10419594
90	0x3e9c2a21	0.30500892
91	0x3e928e4e	0.28624195
92	0x3e8e19b6	0.2775399
93	0xbc3b8f78	-0.01144778
94	0x3e12d1e8	0.14337885
95	0x3da3e932	0.08003463
96	0xbe8c6cdf	-0.27426812
97	0x3f349666	0.7054199
98	0xbe37ce59	-0.17949809
99	0xbe95d946	-0.2926733
100	0xbeb09c0e	-0.3449406
101	0xbe9b0840	-0.30279732
102	0xbdacb9b0	-0.084338546
103	0x3edb8e1d	0.4288186
104	0xbcc2d044	-0.02378095
105	0xbe5bdb99	-0.21470489
106	0xbeebf407	-0.46084616
107	0xbe085002	-0.1331177
108	0xbe0b6778	-0.13613689
109	0xbe685b18	-0.22691
110	0xbf81e644	-1.0148396
111	0xbf59d1ea	-0.8508593
112	0xbedd6589	-0.43241528
113	0x3f90a056	1.1298931
114	0x3f3985be	0.724697
115	0x3f8affb9	1.085929
116	0xbe18dd15	-0.14928086
117	0x3eee00ba	0.4648493
118	0xbf40a8ee	-0.75257766
119	0xbff06f52	-1.8783972
120	0xbf867f0b	-1.050752
121	0x3e64c7be	0.2234182
122	0xbe8e6a4a	-0.27815467
123	0x3de5ff31	0.112303145
124	0x3e4fc0f2	0.20288447
125	0xbe58bd53	-0.21165971
126	0xbe9cf1fa	-0.30653363
127	0x3e261e78	0.1622256
128	0xbdef1a63	-0.11674955
129	0xbe504f28	-0.20342696
130	0xbec92383	-0.39284906
131	0x3e0ea942	0.13931754
132	0xbe92fda9	-0.28709152
133	0x3d328e84	0.043592945
134	0xbe05e07c	-0.13073915
135	0xbd3358d9	-0.043785904
136	0x3e7ab76f	0.24484037
137	0x3e5bc67d	0.21462436
138	0xbc10b8fb	-0.008833165
139	0x3ec91818	0.39276195
140	0xbdcda06b	-0.10040363
141	0x3d690659	0.05689082
142	0xbee58e18	-0.4483497
143	0x3e833fcb	0.25634608
144	0xbddd18e6	-0.107957646
145	0xbe2980e7	-0.16553079
146	0xbd05cc78	-0.0326657
147	0x3e4f66c2	0.20254043
148	0x3e57b655	0.21065648
149	0xbe3ff7ba	-0.18746844
150	0xbd73169a	-0.059347726
151	0x3eaf31df	0.34217736
152	0xbe3fc89d	-0.18728872
153	0xbda537ec	-0.08067307
154	0x3e3ee25d	0.18641038
155	0xbdaac2f6	-0.08337967
156	0xbe192ea2	-0.14959195
157	0x3ecac7e9	0.39605644
158	0x3ead07ba	0.33794957
159	0x3e7df54a	0.24800602
160	0xbb32793f	-0.0027232913
161	0x3e32493c	0.17410749
162	0x3ec6c89c	0.38824928
163	0xbebd0fa6	-0.36926
164	0xbea2edc7	-0.31822035
165	0x3ee6b876	0.45062608
166	0xbd2bb7bd	-0.041923273
167	0xbea70aae	-0.32625335
168	0xbed14452	-0.40872437
169	0x3e2bf66d	0.16793223
170	0xbdb87e71	-0.09008492
171	0x3cf6ccd0	0.03012696
172	0x3d9fd96a	0.0780514
173	0x3e62f8d2	0.2216523
174	0x3d63491b	0.05548964
175	0xbe019cdf	-0.12657498
176	0x3ea49563	0.32145223
177	0x3e88660e	0.26640362
178	0x3d7ea1f0	0.062166154
179	0xbd13828a	-0.036013164
180	0xbed97579	-0.42472437
181	0x3b9e34c8	0.0048280694
182	0xbd8daa5b	-0.06917258
183	0xbe44e963	-0.19229655
184	0x3d2af5b7	0.04173824
185	0xbd033706	-0.032034896
186	0xbd7fcdd4	-0.062452152
187	0xbe8ec790	-0.2788663
188	0xbe5c83af	-0.21534608
189	0xbea4a365	-0.3215591
190	0x3e8bb6f2	0.27288014
191	0x3e44cfdd	0.19219919
192	0xbec15ffc	-0.37768543
193	0x3e82d03b	0.25549492
194	0x3dea1e50	0.11431563
195	0x3e7f7b55	0.24949391
196	0xbe59be36	-0.21263966
197	0xbc0f971e	-0.0087640565
198	0xbde59e8c	-0.11211881
199	0xbe41af33	-0.1891449
200	0x3e78894d	0.24271126
201	0xbead25ba	-0.33817846
202	0xbcc38240	-0.023865819
203	0x3dbaf1f6	0.09128182
204	0xbead6115	-0.3386313
205	0xbf07cba8	-0.5304513
206	0x3e3679f0	0.17819953
207	0xbe952aa5	-0.29134098
208	0xbe01d0a4	-0.12677246
209	0x3e0c7dc3	0.1371985
210	0xbda41c8f	-0.080132596
211	0x3e544805	0.20730598
212	0xbd912ac0	-0.07088232
213	0xbdda97dc	-0.10673496
214	0x3eec3124	0.4613124
215	0xbd08e01c	-0.033416852
216	0xbdc5be2e	-0.096554145
217	0x3dfd446b	0.12366565
218	0x3e5204f4	0.20509702
219	0x3ea8cc83	0.3296853
220	0xbfb13122	-1.3843119
221	0xbf29949b	-0.6624238
222	0xbf2a0c30	-0.66424847
223	0xbee39b2c	-0.44454324
224	0xbebf8fd6	-0.37414426
225	0xbe754f7d	-0.23956104
226	0xbe7f06e0	-0.24904966
227	0xbe3939a6	-0.18088397
228	0xbe222857	-0.15835701
229	0xbec04635	-0.37553564
230	0xbf513860	-0.81726646
231	0xbf070e10	-0.5275583
232	0x3d90258f	0.07038414
233	0xbe175cbf	-0.14781474
234	0xbe9d990a	-0.30780822
235	0x3ea18227	0.3154461
236	0xbee8d5dd	-0.45475665
237	0xbd7badaa	-0.061444916
238	0x3e32b05d	0.1745009
239	0x3c2deafb	0.010615106
240	0x3d8cd4be	0.06876515
241	0x3e15f34f	0.14643596
242	0x3d8393a9	0.06424648
243	0xbd33661d	-0.043798555
244	0xbd8b4f6b	-0.06802257
245	0x3e6a385b	0.2287306
246	0xbe8eac55	-0.27865854
247	0x3ec43c12	0.3832708
248	0x3c9e1124	0.019295283
249	0xbe79ee86	-0.24407396
250	0xbe256411	-0.16151454
251	0x3ebca5c9	0.36845234
252	0xbea07089	-0.31335858
253	0xbe937d17	-0.28806373
254	0xbecc0ad8	-0.39852023
255	0x3c607b17	0.013701222

model.0.bias f4 [80]
0	0x3e8b9e54	0.27269232
1	0xbf7cb449	-0.98712593
2	0x3c7d9bb8	0.015479021
3	0xbeb4838b	-0.3525661
4	0xbf058406	-0.52154577
5	0x3e57be58	0.21068704
6	0x3da66531	0.081247695
7	0x3d32da27	0.043665078
8	0x3cfccefb	0.030860415
9	0xbdaf5b92	-0.085623875
10	0x3f8ab11f	1.0835303
11	0xbe35bf64	-0.17748791
12	0x3e345999	0.17612304
13	0x3dd46b29	0.10372002
14	0x3d5d25e1	0.053991202
15	0xbdc02776	-0.093825266
16	0x3e03db44	0.12876612
17	0x3c1b8041	0.009491027
18	0xbe53a2d0	-0.20667577
19	0x3dd450b4	0.103669554
20	0xbee6cd49	-0.45078495
21	0xbeec8caa	-0.46201068
22	0x3dd4186c	0.103562206
23	0xbd01ca40	-0.03168702
24	0x3c8b60c9	0.017013924
25	0x390ddccb	0.0001352906
26	0x3e26a507	0.1627389
27	0xbebd3f17	-0.36962196
28	0xbe54207a	-0.20715514
29	0xbe69e8a0	-0.22842646
30	0x3dbdcb58	0.092673
31	0x3d60dc63	0.054897677
32	0x3bc38315	0.005966554
33	0xbe89ecd7	-0.26938507
34	0xc011e8eb	-2.2798412
35	0x3dc7ae96	0.097500965
36	0xbda2c177	-0.07947057
37	0xbf89af3d	-1.0756603
38	0xbe931e95	-0.2873427
39	0xbeb9a3ad	-0.36257687
40	0x3e1fa42f	0.15589975
41	0xbed1a3a6	-0.40945166
42	0xbd800b93	-0.062522076
43	0x3e2d3396	0.1691421
44	0x3e926b40	0.2859745
45	0x3e297667	0.16549073
46	0x3ddc9389	0.107703276
47	0xbeed1d6e	-0.46311516
48	0xbdb2f95f	-0.0873897
49	0x3a9f1c0d	0.0012139097
50	0xbea901bc	-0.33009136
51	0xbe1249c1	-0.14285947
52	0x3e6d21ea	0.23157468
53	0xbf621629	-0.88315064
54	0xbe2970cd	-0.16546936
55	0xbf4473fb	-0.7673947
56	0x3eb3baa0	0.3510332
57	0x3f210702	0.6290132
58	0x3f1d9f0c	0.6157081
59	0x3dfa2c07	0.12215429
60	0xbe74f499	-0.23921432
61	0xbe874fa6	-0.26427954
62	0x3e4fc7f4	0.2029112
63	0x3e4dd3cc	0.20100325
64	0xbf1e9d5c	-0.6195886
65	0xbd8bc6bd	-0.06825016
66	0xbf35a0cd	-0.7094849
67	0x3fb3fd8e	1.4061754
68	0xbdbe24e7	-0.09284382
69	0x3e2bea30	0.16788554
70	0xbe164277	-0.14673792
71	0x3f3134a4	0.6922095
72	0x3e99f112	0.30066735
73	0xbe5cc0bb	-0.21557896
74	0x3de042e2	0.10950257
75	0xbe15af5e	-0.14617679
76	0x4061859d	3.52378
77	0xbebbfa20	-0.36714268
78	0xbe803205	-0.25038162
79	0x3e7f3392	0.24922016

model.2.weight f4 [80]
0	0x3f90f3c6	1.1324394
1	0x3f80f9e2	1.0076258
2	0x3f86501c	1.0493197
3	0x3f7fcc53	0.9992115
4	0x3f9f34a0	1.2437935
5	0x3f7117ca	0.94176924
6	0x3f78f47b	0.9724805
7	0x3f841459	1.031871
8	0x3f42c656	0.76083887
9	0x3f69db08	0.9134984
10	0x3f7c71b9	0.98611027
11	0x3f76954d	0.96321565
12	0x3f949bdd	1.1610066
13	0x3f7174b3	0.94318694
14	0x3f8428c2	1.0324938
15	0x3f96a0b3	1.1767792
16	0x3f6484e5	0.8926528
17	0x3f84dc3d	1.0379711
18	0x3f506f86	0.8142017
19	0x3f6fe5cd	0.93710023
20	0x3f59489b	0.8487641
21	0x3f90a9ad	1.1301781
22	0x3f738565	0.9512542
23	0x3f6fd49e	0.93683803
24	0x3f4d36df	0.8016185
25	0x3f82f89b	1.0232118
26	0x3f8f060d	1.1173722
27	0x3f8065e8	1.0031099
28	0x3f657058	0.8962455
29	0x3f6da718	0.9283309
30	0x3f834cce	1.0257814
31	0x3f769f29	0.9633661
32	0x3f824371	1.0176831
33	0x3f808d8c	1.0043197
34	0x3f6f3b18	0.93449545
35	0x3f62dc4c	0.88617396
36	0x3f8e1adb	1.1101946
37	0x3f7a389c	0.9774263
38	0x3f8dbc8d	1.1073166
39	0x3f8c366e	1.0954111
40	0x3f732208	0.949738
41	0x3f83f1f1	1.030821
42	0x3f81d811	1.0144063
43	0x3f687331	0.9080077
44	0x3f6811b8	0.90652037
45	0x3f7c3916	0.98524606
46	0x3f8d68bd	1.1047589
47	0x3f5220c5	0.8208125
48	0x3f738f8f	0.9514093
49	0x3f6ddd5b	0.92915887
50	0x3f708843	0.9395792
51	0x3f77158f	0.9651727
52	0x3f85c4d1	1.0450689
53	0x3f8c1aea	1.0945714
54	0x3f84f5c2	1.0387499
55	0x3f8c28ac	1.0949912
56	0x3f5a9d29	0.8539606
57	0x3f93b84d	1.1540619
58	0x3f9b4e52	1.2133276
59	0x3f6445dd	0.891691
60	0x3f84b5d1	1.0367986
61	0x3f81c201	1.013733
62	0x3f6cd15c	0.9250696
63	0x3f834530	1.0255489
64	0x3fa4c0e2	1.2871363
65	0x3f824b30	1.0179195
66	0x3f68b822	0.90905964
67	0x3f7c1850	0.984746
68	0x3f633827	0.88757557
69	0x3f746206	0.9546207
70	0x3f4f1737	0.808948
71	0x3f940984	1.1565404
72	0x3f7c3d9a	0.98531497
73	0x3f815f23	1.0107158
74	0x3f50b467	0.8152527
75	0x3f6f30b1	0.9343367
76	0x3f67e085	0.90576965
77	0x3f72a428	0.9478173
78	0x3f61965f	0.88120073
79	0x3f5ccb0f	0.8624734

model.2.bias f4 [80]
0	0x3ee889b9	0.45417574
1	0x3de5ff96	0.1123039
2	0x3e617289	0.22016348
3	0xbe101901	-0.14072038
4	0xbdb6335c	-0.08896515
5	0x3c02b88c	0.00797857
6	0x3d80aa5e	0.06282495
7	0xbec7683d	-0.38946715
8	0xbe1cfc0c	-0.15330523
9	0xbd19cbff	-0.03754806
10	0x3e9a95f8	0.30192542
11	0xbe66182d	-0.2247016
12	0xbd1139ad	-0.035455395
13	0x3d9de346	0.077093646
14	0x3e3beab0	0.18351245
15	0xbd41a3b3	-0.047275256
16	0x3c980fd1	0.01856223
17	0x3e835706	0.2565233
18	0x3da9635f	0.08270907
19	0x3d7b0b54	0.0612901
20	0x3e7376e9	0.2377583
21	0x3ea53b41	0.3227177
22	0x3dfda807	0.12385564
23	0x3e146833	0.14492874
24	0xbcd15ea8	-0.02555783
25	0xbe470b27	-0.19437848
26	0x3e1078dc	0.14108604
27	0xbe3a4851	-0.18191649
28	0xbd63ef42	-0.055648096
29	0x3da8bdcb	0.08239325
30	0xbd30f9fd	-0.043207157
31	0xbe65901f	-0.22418259
32	0xbe63e23a	-0.22254267
33	0xbe306c9a	-0.17228928
34	0x3e76929a	0.24079362
35	0xbc30c8a4	-0.010790024
36	0xbe1faf9a	-0.1559433
37	0x3d903cea	0.070428684
38	0xbee3b24b	-0.44471964
39	0x3e3e85ca	0.18605724
40	0xbd2487f2	-0.04016871
41	0x3e2e1a09	0.17002119
42	0xbdea3dcd	-0.11437569
43	0x3d851600	0.06498337
44	0xbe79d693	-0.2439826
45	0x3e3fc53f	0.18727587
46	0x3b87d786	0.0041455654
47	0x3cf7b49e	0.030237492
48	0x3e8a3de1	0.27000335
49	0x3e0b9672	0.13631609
50	0xbd8bbcfb	-0.068231545
51	0xbe25f88c	-0.16208094
52	0xbc8dcf7e	-0.017310854
53	0xbe902518	-0.281533
54	0x3e66c876	0.22537407
55	0x3dbb1d2c	0.091364235
56	0xbe037c1f	-0.12840317
57	0x3ce95714	0.028483905
58	0x3e490ef1	0.19634606
59	0xbd52aeb2	-0.051436134
60	0xbe7947ba	-0.24343768
61	0x3d37a6f2	0.044836946
62	0xbec5fdff	-0.38670346
63	0xbd178eba	-0.03700135
64	0x3e8388b4	0.25690234
65	0x3e11b612	0.1422961
66	0xbecc363a	-0.39885122
67	0xbe261d26	-0.16222057
68	0x3ca7ec66	0.020498466
69	0x3e33d140	0.17560291
70	0xbd71f17c	-0.059068188
71	0xbe5814c1	-0.21101667
72	0x3e23eddd	0.16008706
73	0xbe1160d9	-0.141971
74	0xbbc4bd8e	-0.006004042
75	0xbe1540f8	-0.14575565
76	0xbe12521e	-0.14289138
77	0xbe63f095	-0.22259744
78	0x3d3619bc	0.044458136
79	0x3d862f00	0.06551933

model.2.running_mean f4 [80]
0	0x3f846966	1.0344665
1	0x3da25c9c	0.0792782
2	0x3ed75045	0.42053428
3	0x3e29be5c	0.16576523
4	0x3dda05dd	0.106456496
5	0x3edc65aa	0.43046314
6	0x3ec38f0b	0.3819507
7	0x3e9a3924	0.3012172
8	0x3ee0b7a6	0.43890113
9	0x3eacf151	0.3377786
10	0x4017d2cb	2.3722408
11	0x3e419449	0.18904223
12	0x3ef80ac5	0.48445717
13	0x3e873d47	0.26413938
14	0x3f051c7d	0.51996595
15	0x3dc96e72	0.09835519
16	0x3ebdede9	0.37095574
17	0x3ed56e1d	0.41685572
18	0x3e58c385	0.21168335
19	0x3ea31756	0.3185374
20	0x3f51ced7	0.8195624
21	0x3d18d772	0.03731484
22	0x3e9131b7	0.28358242
23	0x3ee28424	0.4424144
24	0x3eaf4b9e	0.3423738
25	0x3ef164d2	0.47147232
26	0x3efc373a	0.49260885
27	0x3e8a1032	0.2696548
28	0x3e3d003d	0.18457122
29	0x3e99e301	0.30056003
30	0x3ee86709	0.4539111
31	0x3e832c85	0.25619903
32	0x3ed3f386	0.4139673
33	0x3e6ab370	0.22920012
34	0x3fb36c93	1.4017509
35	0x3eab60be	0.33472246
36	0x3eab7e68	0.33494878
37	0x3f26d04e	0.651616
38	0x3e4600de	0.19336268
39	0x3d956989	0.0729552
40	0x3ee8d5a9	0.4547551
41	0x3dad8d96	0.08474271
42	0x3e9b5b3f	0.30343053
43	0x3edd6d1c	0.43247306
44	0x3ed505bd	0.4160594
45	0x3ec7b9d5	0.39008966
46	0x3f58e411	0.84723
47	0x3fafe5c2	1.3741992
48	0x3e98d1ed	0.2984766
49	0x3eb3f6fe	0.35149378
50	0x3df4375b	0.11924621
51	0x3e78d1f4	0.24298841
52	0x3ec5014e	0.38477558
53	0x3e1cee76	0.1532534
54	0x3df7fd67	0.121088795
55	0x3ddd5f0a	0.10809143
56	0x3ef0c18e	0.4702267
57	0x3fb4d7a5	1.412831
58	0x3f84cdea	1.037534
59	0x3ecbc903	0.39801797
60	0x3f3e0dab	0.74239606
61	0x3dd1461b	0.1021845
62	0x3eb1fb27	0.34761927
63	0x3f1b032b	0.6055171
64	0x3f021b20	0.5082264
65	0x3e2eeb0c	0.17081851
66	0x3cdfab1a	0.027303267
67	0x3ff0a730	1.8801022
68	0x3ea4dbd2	0.3219896
69	0x3e973bfa	0.29537946
70	0x3e3b09ae	0.18265411
71	0x3fc690d6	1.551295
72	0x3f71f763	0.9451811
73	0x3e00dbe3	0.1258388
74	0x3ebc4121	0.3676844
75	0x3e40966f	0.18807386
76	0x410452a6	8.270178
77	0x3dc4da9c	0.09612009
78	0x3e4b959d	0.19881292
79	0x3f04f0d5	0.5192998

model.2.running_var f4 [80]
0	0x3f95d47e	1.1705472
1	0x3d92c6d8	0.07166833
2	0x3e406e0a	0.18791977
3	0x3e5c3c88	0.21507466
4	0x3e531104	0.2061196
5	0x3e1e8208	0.1547929
6	0x3f263ec9	0.6493955
7	0x3ecc583d	0.3991107
8	0x3ea66f54	0.32506812
9	0x3e7a55dd	0.24446817
10	0x40c2f168	6.0919685
11	0x3e734a4c	0.23758811
12	0x3e56072d	0.20901175
13	0x3da9ae70	0.082852244
14	0x3ea0c07a	0.31396848
15	0x3d0e5ac1	0.03475452
16	0x3f06c15f	0.5263881
17	0x3e59beeb	0.21264236
18	0x3ec298e7	0.3800728
19	0x3ea5bb0c	0.32369268
20	0x3fab08f5	1.3362108
21	0x3cef57c8	0.029216662
22	0x3dde04bb	0.10840746
23	0x3f13ca8e	0.5773095
24	0x3e1addf0	0.15123725
25	0x3eac814e	0.33692402
26	0x3e793fa5	0.24340685
27	0x3ef5d1bd	0.4801158
28	0x3e106143	0.14099602
29	0x3f5259e6	0.82168424
30	0x3f21d6cf	0.63218397
31	0x3e44e415	0.19227631
32	0x3f3d8c3a	0.74042094
33	0x3d9659d0	0.07341349
34	0x415d971c	13.849392
35	0x3e1fc869	0.15603794
36	0x3e312444	0.1729899
37	0x4060658d	3.5061982
38	0x3e97c77f	0.2964439
39	0x3d0338d2	0.03203661
40	0x3e62e1e3	0.22156481
41	0x3d5b3ae4	0.05352296
42	0x3dd3cc65	0.103417195
43	0x3ed08af3	0.4073101
44	0x3e86242f	0.2619948
45	0x3e25e131	0.16199185
46	0x3f3b0c31	0.7306548
47	0x401af28d	2.4210541
48	0x3e22153c	0.15828413
49	0x3f06d82b	0.52673596
50	0x3dcb613c	0.09930655
51	0x3deececc	0.11660537
52	0x3e075bc9	0.13218607
53	0x3eb01685	0.3439218
54	0x3dcd4ecf	0.10024797
55	0x3e165dd1	0.14684226
56	0x3e5bd6db	0.2146868
57	0x3fe849a4	1.8147473
58	0x3f688e3d	0.9084204
59	0x3e9270a1	0.28601554
60	0x3f3e5081	0.7434159
61	0x3da43896	0.080186054
62	0x3ebc6021	0.3679209
63	0x3e920db4	0.2852608
64	0x3f226e56	0.6344961
65	0x3dc3fd76	0.09569828
66	0x3ca83042	0.020530824
67	0x4115f522	9.372347
68	0x3e3962ae	0.1810405
69	0x3e7d8a26	0.2475973
70	0x3e2e0493	0.16993932
71	0x3ff6abbf	1.9271163
72	0x3f650f54	0.89476514
73	0x3db2ba7c	0.08726975
74	0x3ed8d70a	0.42351562
75	0x3e6ccf54	0.23125964
76	0x42737bcb	60.87089
77	0x3d817449	0.06321008
78	0x3e829609	0.25505093
79	0x3e7294c0	0.23689556

model.3.weight f4 [80, 80]
0	0xbeec4dd3	-0.46153125
1	0xbda820fa	-0.08209415
2	0x3da6f3a3	0.08151939
3	0xbe227377	-0.15864359
4	0xbb9b0ee0	-0.004731998
5	0x3e199555	0.14998372
6	0x3e549ec0	0.20763683
7	0x3e6bbc24	0.23020989
8	0x3dc0cc0d	0.094139196
9	0xbd50d821	-0.050987367
10	0xbbf63345	-0.007513436
11	0x3d991dce	0.07476388
12	0x3ec9f87a	0.39447385
13	0x3e1c617e	0.15271565
14	0x3df06d1b	0.1173956
15	0x3bd716cf	0.0065639983
16	0xbe9c54f7	-0.30533573
17	0x3cd790fe	0.026314255
18	0x3e1146f7	0.14187227
19	0xbed17f1c	-0.4091729
20	0xbc3ad794	-0.011403937
21	0xbc9c1784	-0.019054182
22	0x3e0f9e36	0.14025196
23	0x3daea5d5	0.08527724
24	0x3c414c15	0.0117979245
25	0x3e12059a	0.1425995
26	0x3e2a0897	0.1660484
27	0x3e36821f	0.17823075
28	0x3dfe481f	0.124161
29	0x3de47095	0.11154286
30	0xbea0f57b	-0.31437287
31	0xbe38537d	-0.18000598
32	0xbe5556eb	-0.20833938
33	0x3e4ac849	0.19802965
34	0xbdc449f5	-0.09584419
35	0x3e45bf1b	0.19311182
36	0x3e33d658	0.17562234
37	0x3d78e071	0.06076092
38	0x3e9914a9	0.29898575
39	0xbc76f2f0	-0.015072569
40	0x3e0debce	0.13859484
41	0x3e3353f6	0.17512497
42	0x3e89d47a	0.2691992
43	0xbd285a15	-0.041101534
44	0xbe94f679	-0.29094294
45	0x3b45d19f	0.0030184758
46	0x3e2b6bc3	0.16740327
47	0xbcb9144b	-0.022592684
48	0xbd72dfc3	-0.059295427
49	0xbe943f72	-0.28954655
50	0xbea8882f	-0.329164
51	0xbe41261b	-0.18862192
52	0xbe1f31f1	-0.15546395
53	0xbd8f4cf3	-0.06997099
54	0xbef775c9	-0.4833205
55	0xbee89da4	-0.4543277
56	0x3e1f212a	0.15539995
57	0x3e214dd1	0.15752341
58	0x3dddb720	0.10825944
59	0xbe4afa8d	-0.1982214
60	0x3e8130b4	0.2523247
61	0xbea8f15b	-0.3299664
62	0xbe2082cc	-0.15674895
63	0x3e93d27e	0.2887153
64	0xbeee8bd4	-0.46591055
65	0xbc301d43	-0.010749164
66	0xbde6451d	-0.11243651
67	0xbe9513af	-0.2911658
68	0xbe64dbae	-0.22349426
69	0x3c324fa5	0.010883247
70	0xbe9d23a7	-0.30691263
71	0xbd6e55fd	-0.058187474
72	0xbea6294c	-0.32453382
73	0xbe9c7b6c	-0.30562913
74	0xbeb608a2	-0.3555346
75	0xbe322e03	-0.17400365
76	0x3d273289	0.04081968
77	0xbe0b8452	-0.13624695
78	0xbead1127	-0.3380215
79	0xbe8d935b	-0.27651486
80	0xbe00e2b2	-0.12586477
81	0x3e0cfcb5	0.13768275
82	0x3cf474b4	0.029840805
83	0x3d916b36	0.07100527
84	0xbdc987dc	-0.09840366
85	0xbd177a84	-0.036982074
86	0xbe11cbbe	-0.14237878
87	0x3d451747	0.048117902
88	0x3d3bf15f	0.045884486
89	0xbde0ae7f	-0.109707825
90	0xbe13d591	-0.14436938
91	0x3e2218b8	0.15829742
92	0xbdbb4a8e	-0.091450796
93	0x3cacfdfb	0.021117201
94	0xbe0d8ba5	-0.13822801
95	0xbd1b33ba	-0.037891127
96	0xbd2e63ee	-0.04257577
97	0xbe2809af	-0.16409944
98	0xbc61c589	-0.013780006
99	0x3d839a50	0.06425917
100	0xbd9535fa	-0.07285686
101	0xbe28c390	-0.16480851
102	0xbdfbd2fc	-0.122961015
103	0xbc3c98f2	-0.011511074
104	0xbd9a363d	-0.075298764
105	0x3dbae892	0.091263905
106	0xbdb5eae5	-0.08882693
107	0x3d3d83fb	0.046268445
108	0xbd7a5b79	-0.06112239
109	0x3d1e9742	0.03871847
110	0x3dadddfb	0.08489605
111	0x3d90dc1e	0.07073234
112	0xbc25b9dc	-0.010115113
113	0xbd8274e4	-0.06369951
114	0xbc06b5c1	-0.008222044
115	0xbd738760	-0.059455276
116	0xbe3a23b8	-0.18177688
117	0xbdc638c2	-0.096787944
118	0x3cd6db8a	0.026227731
119	0xbda971da	-0.082736686
120	0xbe566cc0	-0.20939922
121	0xbd4c325e	-0.04985272
122	0xbd32deea	-0.04366962
123	0xbd9da285	-0.07697014
124	0x3d48b49c	0.049000368
125	0xbda2ba66	-0.07945709
126	0x3ddb868d	0.10719023
127	0x3df34948	0.11879212
128	0xbe05e40e	-0.13075277
129	0x3d28ecc2	0.041241415
130	0x3c9e3dbc	0.019316547
131	0x3dcaf7aa	0.099105194
132	0xbd61cec0	-0.055128813
133	0x3e43a844	0.19107157
134	0xbd030330	-0.03198546
135	0xbe55963f	-0.20858096
136	0x3bb59414	0.005541334
137	0xbd100932	-0.03516502
138	0xbd6caf99	-0.05778465
139	0xbd03cfad	-0.032180477
140	0x3e398d95	0.18120416
141	0x3df10187	0.117678694
142	0xbd2f6c0c	-0.04282765
143	0xbd4b8f5e	-0.049697272
144	0xbe2b89a7	-0.16751729
145	0xbcec97ab	-0.028880915
146	0x3e2e6206	0.1702958
147	0xbcfcd5c0	-0.030863643
148	0x3d261ffa	0.04055784
149	0x3dcfdad9	0.10149164
150	0x3d4bacd4	0.04972537
151	0x3e0759b7	0.13217817
152	0x3dd28425	0.10279111
153	0x3de4d0f6	0.11172669
154	0x3d2c0e96	0.042006098
155	0x3d314a16	0.043283544
156	0xbd35a4ce	-0.044346623
157	0x3ddb26c6	0.10700755
158	0x3d23f352	0.04002697
159	0x3d4d1b79	0.050075028
160	0xbd535eab	-0.051603954
161	0xbd013a9b	-0.03155003
162	0x3d4ea485	0.050449867
163	0xbd5a17c4	-0.05324532
164	0xbd2b7071	-0.04185528
165	0x3c5d57c1	0.013509692
166	0xbdc8323f	-0.09775209
167	0xbd919f86	-0.07110505
168	0xbd1c2ce2	-0.03812874
169	0x3cba5582	0.022745851
170	0x3d55422e	0.052065067
171	0xbca3c76e	-0.019992556
172	0xbbdff122	-0.006834165
173	0x3db779f6	0.08958809
174	0xbd1dde9c	-0.038542375
175	0xbd309055	-0.043106396
176	0x3d8ac293	0.06775393
177	0xbc8b222d	-0.01698407
178	0x3c88bea2	0.016692463
179	0xbd983a14	-0.074329525
180	0x3e023f5d	0.12719484
181	0x3cbdff69	0.023193078
182	0xbd9d22a6	-0.07672624
183	0xbd58601c	-0.052826032
184	0xbd07c23a	-0.033144213
185	0xbdb604b7	-0.08887618
186	0x3d1b9829	0.037986908
187	0xbe02b54c	-0.12764472
188	0xbd94dff6	-0.0726928
189	0x3b04f904	0.0020290026
190	0xbd6fef54	-0.05857785
191	0xbc5bbe6b	-0.013412098
192	0xbdcb6784	-0.099318534
193	0xbd5bb2d0	-0.053637326
194	0xbd92e744	-0.07173017
195	0x3d837db8	0.06420463
196	0x3d6ce416	0.057834707
197	0x3d7bcd0f	0.061474856
198	0x3cf85579	0.030314194
199	0x3caf362e	0.02138814
200	0x3cfb3719	0.030665921
201	0x3d982c69	0.074303456
202	0x3d2fc71b	0.04291449
203	0xbd65658e	-0.056005053
204	0x3c5a3bcb	0.01331992
205	0x3da2de6d	0.079525806
206	0x3d6a1ed4	0.057158306
207	0xbca7cd24	-0.02048356
208	0xbde9311e	-0.113863215
209	0xbd665814	-0.05623634
210	0x3ddfeaff	0.10933494
211	0x3bd979eb	0.006636848
212	0xbc2e8045	-0.010650699
213	0xbb033688	-0.0020021517
214	0x3d28c29f	0.04120123
215	0xbd2b2c90	-0.041790545
216	0xbdc961c8	-0.098331034
217	0xbce21006	-0.027595531
218	0x3d8c8951	0.068621285
219	0x3dad70ba	0.084687665
220	0x3cfc855b	0.030825308
221	0x3b16c4d5	0.0023005505
222	0x3d12b05e	0.035812728
223	0xbbbc75b6	-0.005751337
224	0xbc8d81b0	-0.017273754
225	0xbdbc4ef4	-0.091947466
226	0xbdf80bea	-0.121116474
227	0xbde283ae	-0.11060272
228	0xbd5e18e7	-0.054222967
229	0x3e0d4a34	0.13797837
230	0xbe03c9d0	-0.12869954
231	0xbcf3484c	-0.02969756
232	0xbe19e0af	-0.15027116
233	0x3de6a173	0.11261263
234	0xbd93eeb2	-0.07223262
235	0xbdd36160	-0.10321307
236	0x3de0fb84	0.10985473
237	0x3d3cf4bf	0.046131846
238	0x3d3f2a3c	0.046671137
239	0x3c96cd66	0.018408488
240	0xbd490519	-0.049077127
241	0x3e836ce1	0.25669006
242	0x3d924833	0.07142677
243	0x3d2bf56f	0.04198211
244	0xbd4ec65c	-0.05048214
245	0x3c7c6652	0.015405254
246	0xbd8b2c10	-0.06795514
247	0xbd38d88e	-0.045128398
248	0x3d9db02f	0.0769962
249	0xbe39fd2a	-0.1816298
250	0xbcd8aaf6	-0.026448708
251	0xbc84f711	-0.016231092
252	0xbd0583ec	-0.032596514
253	0xbe3109d5	-0.17288907
254	0x3e033d92	0.12816456
255	0xbe07961b	-0.13240854

model.3.bias f4 [80]
0	0xbeaad4be	-0.33365434
1	0x3d6b7fe4	0.057495013
2	0x3d647db3	0.05578394
3	0x3dad2973	0.084551714
4	0x3df00590	0.11719811
5	0x3dcfed7a	0.10152717
6	0x3e11fc32	0.14256361
7	0x3c250c88	0.010073788
8	0xbeb8c6e4	-0.36089242
9	0xbe38a8c7	-0.18033133
10	0x3dae06a7	0.084973626
11	0xbea37bf5	-0.3193051
12	0xbddc3105	-0.10751537
13	0x3e0ab712	0.13546398
14	0xbe3c112a	-0.18365923
15	0x3e1b6676	0.15175804
16	0xbade96dc	-0.0016982215
17	0x3dc5ff5f	0.09667849
18	0x3e3cab50	0.18424726
19	0x3e775077	0.24151789
20	0xbe4d1d3c	-0.20030683
21	0xbe35d6cc	-0.1775772
22	0xbd4046bd	-0.04694246
23	0xbb6f4cf4	-0.0036514373
24	0x3e7e3b53	0.24827318
25	0x3e471cd6	0.19444594
26	0x3d3a7306	0.04551985
27	0xbde44c92	-0.11147417
28	0x3d8b4f6d	0.06802259
29	0x3d6125f1	0.054967824
30	0x3d6a0803	0.057136547
31	0x3d957a33	0.07298698
32	0xbad70b3c	-0.0016406546
33	0xbe0c8213	-0.13721494
34	0xbe0bb46d	-0.13643046
35	0x3e2d3197	0.16913448
36	0x3b737043	0.003714577
37	0xbe4bf0db	-0.19916098
38	0xbdcf3f8b	-0.10119542
39	0xbe508026	-0.20361385
40	0x3da82e79	0.08211989
41	0x3d6c81a5	0.057740826
42	0x3d04e0ff	0.032441135
43	0xbe3e8744	-0.18606287
44	0x3f9d48fc	1.2287898
45	0xbda6da86	-0.08147149
46	0x3e781147	0.24225341
47	0xbe9f83d4	-0.31155264
48	0xbc841001	-0.016120913
49	0xbdaf6212	-0.08563627
50	0x3dc3f5b7	0.09568351
51	0xbd7aa63d	-0.061193693
52	0xbeae2496	-0.34012288
53	0xbe193bc6	-0.14964208
54	0x3d7a9c54	0.061184242
55	0xbd454b3d	-0.048167456
56	0xbda2fb1d	-0.07958052
57	0xbd9641f6	-0.073368
58	0xbdb262f6	-0.087102816
59	0xbde06dec	-0.10958466
60	0xbd5ac301	-0.053408626
61	0x3d0aeb3f	0.033915754
62	0xbe87bd42	-0.2651158
63	0xbb6931b1	-0.0035582597
64	0x3f0307f0	0.51183987
65	0xbd7ad9e4	-0.061242953
66	0x3d08a828	0.03336349
67	0xbd98525f	-0.07437586
68	0x3dbb445d	0.09143899
69	0x3c7401ac	0.014892977
70	0x3e214bee	0.15751621
71	0xbd4d2f89	-0.05009416
72	0x3e0df604	0.13863379
73	0xbd9f20a4	-0.077698976
74	0x3e1f6d88	0.15569127
75	0x3e119c88	0.14219868
76	0xbdf04c64	-0.1173332
77	0x3e4faf9f	0.20281838
78	0x3cde6a52	0.027150307
79	0xbe8a4b15	-0.27010408

model.5.weight f4 [80]
0	0x3fb6e1aa	1.4287617
1	0x3fc89a51	1.5672094
2	0x3f9305f0	1.1486187
3	0x3fd14c3c	1.635139
4	0x3fd04038	1.6269598
5	0x3fa0d4c0	1.2564926
6	0x3f8d7e43	1.1054157
7	0x3fc266aa	1.518758
8	0x3fc72ccf	1.556055
9	0x3fa340e5	1.2754179
10	0x3f90fc48	1.132699
11	0x3fbf1cc3	1.4930652
12	0x3fedbe63	1.8573726
13	0x3f9b6267	1.2139405
14	0x3ff922c1	1.9463731
15	0x3fa7752f	1.3082637
16	0x3f93b23d	1.1538769
17	0x3f8db6dd	1.107143
18	0x3f973b8d	1.1815048
19	0x3fbebacc	1.4900756
20	0x3fe7ee51	1.8119603
21	0x3fa4cbc6	1.2874687
22	0x3fa25e25	1.2684981
23	0x3f8defef	1.1088847
24	0x3fa8aacf	1.3177127
25	0x3fa3a103	1.2783512
26	0x3f85cfc1	1.0454026
27	0x3f9cc760	1.2248344
28	0x3f889a6b	1.0672125
29	0x3f860905	1.0471503
30	0x3fb938f5	1.4470507
31	0x3fae82da	1.3633683
32	0x3fa1cdcc	1.2640929
33	0x3fd892e6	1.691983
34	0x3fd1f80a	1.640382
35	0x3f9d58f2	1.2292769
36	0x3f9a6681	1.2062532
37	0x3fe1c8b2	1.7639372
38	0x3fc3fc15	1.5311304
39	0x3fee02fd	1.8594662
40	0x3f96adab	1.1771749
41	0x3fa7cf31	1.3110105
42	0x3fa96bf8	1.3236074
43	0x3fc5f72c	1.5466056
44	0x3fabe0b8	1.3427954
45	0x3fd77efd	1.6835629
46	0x3fa5e0f2	1.2959273
47	0x3fe75107	1.8071603
48	0x3fa4e2ee	1.2881753
49	0x3fc999dd	1.575008
50	0x3f87909e	1.0591009
51	0x3fb40336	1.406348
52	0x3fb9f4bd	1.4527813
53	0x3fdd2ee6	1.7279937
54	0x3fa41a59	1.2820541
55	0x3f8591f5	1.0435168
56	0x3f857555	1.0426432
57	0x3fd3b8ee	1.6540811
58	0x3fcc2add	1.5950581
59	0x3fa4a231	1.2861997
60	0x3f946946	1.1594627
61	0x3fcf3ebe	1.6191022
62	0x3fd9ecd5	1.70254
63	0x3faf81dd	1.3711506
64	0x3fa5bc26	1.2948043
65	0x3f9f40bd	1.2441632
66	0x3f9a8dd6	1.2074535
67	0x3fe9d4be	1.8268049
68	0x3f88810e	1.0664384
69	0x3f8f4c0a	1.119508
70	0x3f8db20d	1.1069962
71	0x3fc19733	1.5124267
72	0x3fa43831	1.2829648
73	0x3fdada56	1.7097881
74	0x3f95ef15	1.1713587
75	0x3fa2034c	1.2657256
76	0x3fe2cff1	1.7719709
77	0x3faa05b9	1.3282996
78	0x3fa28f32	1.269995
79	0x3fd15424	1.6353803

model.5.bias f4 [80]
0	0x3fde62e6	1.7373931
1	0x3fa9e071	1.3271619
2	0xbf3b0adf	-0.7306346
3	0x3fdcffcd	1.7265564
4	0x3fe2e6e6	1.7726715
5	0xbf8e4c2a	-1.1116993
6	0xbeffa663	-0.4993163
7	0x3fb9c107	1.4512032
8	0x3fc89532	1.5670531
9	0x3f65b92e	0.89735687
10	0xbf2e1f9c	-0.6801698
11	0x3fcd63bc	1.6046062
12	0x3ff1173c	1.8835216
13	0xbf74673f	-0.9547004
14	0x3ffce119	1.9756194
15	0xbf94bae7	-1.1619538
16	0x3ec61f6e	0.38695854
17	0xbf0c9de3	-0.54928416
18	0xbf70342e	-0.9382962
19	0x3f9286ea	1.1447423
20	0x3fda5e42	1.7060015
21	0x3f455233	0.7707855
22	0x3f48d034	0.7844269
23	0xbf031764	-0.51207566
24	0xbf8b8c36	-1.0902164
25	0xbf8fa068	-1.1220827
26	0xbe88c696	-0.2671401
27	0x3f8a90f4	1.0825486
28	0xbeb92fba	-0.36169225
29	0xbe87e497	-0.26541588
30	0x3fa89853	1.3171486
31	0x3f80fe49	1.0077602
32	0xbf96f101	-1.1792299
33	0x3fdf23a8	1.7432756
34	0x3fcfb97a	1.6228478
35	0xbf6218fb	-0.8831937
36	0xbf66a4b6	-0.9009508
37	0x3fdc6c57	1.7220563
38	0x3fe3b797	1.7790402
39	0x3fe41da1	1.7821542
40	0x3ededa1b	0.43525776
41	0xbfa46e3b	-1.284614
42	0x3fa8b293	1.3179497
43	0x3fabf189	1.3433086
44	0x3f9e1b9c	1.2352176
45	0x3fc3c083	1.5293125
46	0xbf98d760	-1.1940727
47	0x3fff2dab	1.9935812
48	0xbf9d1fac	-1.227529
49	0x3fdc923e	1.723213
50	0xbea2c7dc	-0.31793106
51	0x3f6b8d7b	0.9201276
52	0x40025bf2	2.036862
53	0x3fcdc8e6	1.6076934
54	0xbf8c4ebf	-1.0961531
55	0xbea9c77f	-0.33160016
56	0xbebc42fc	-0.36769855
57	0x3fb59325	1.418553
58	0x3fac3bb2	1.3455718
59	0x3f522a09	0.8209539
60	0xbf4bac4d	-0.79559785
61	0x3fb9444e	1.447397
62	0x3fe9d5d7	1.8268384
63	0x3f4e9b64	0.8070586
64	0x3f5717f9	0.84020954
65	0x3f839861	1.0280877
66	0xbf718651	-0.94345576
67	0x3fe0eb37	1.7571782
68	0xbeb729c6	-0.35774058
69	0xbf143176	-0.5788797
70	0xbf1347c9	-0.5753141
71	0x3fa13c51	1.2596532
72	0xbf96065e	-1.1720693
73	0x3fca6f57	1.5815228
74	0xbf4b73f6	-0.7947382
75	0xbf8fe5a7	-1.1241959
76	0x3fdc572d	1.7214104
77	0xbfa0790e	-1.2536943
78	0x3f56fb72	0.83977425
79	0x3fbbdace	1.4676149

model.5.running_mean f4 [80]
0	0x3faf74e6	1.370755
1	0x3ecee7e3	0.4041129
2	0x3ec2c67d	0.3804206
3	0x3f2e2a47	0.6803326
4	0x3f04b5df	0.51840013
5	0x3ef75b64	0.48311913
6	0x3ef60d6a	0.4805711
7	0x3eeb695d	0.45978823
8	0x3fdde448	1.7335291
9	0x3e3cce7e	0.18438146
10	0x3eebbf45	0.46044365
11	0x3f7b6c05	0.982117
12	0x3d32154f	0.043477353
13	0x3ed2de1b	0.41185078
14	0x3d056cc4	0.03257443
15	0x3f071b3a	0.5277592
16	0x3d8444b0	0.064584136
17	0x3edfabcc	0.43685758
18	0x3eebfe8d	0.46092644
19	0x4085684a	4.1689806
20	0x3dc4b8ff	0.09605598
21	0x3f3a05a8	0.7266488
22	0x3e4feb7a	0.20304671
23	0x3eac772b	0.33684668
24	0x3f15cafc	0.58512855
25	0x3f28c156	0.6592001
26	0x3e7931d2	0.24335411
27	0x3eed8962	0.46393877
28	0x3ee11ff4	0.4396969
29	0x3e84e7d5	0.25958124
30	0x3f9c06f0	1.2189617
31	0x3e898e85	0.26866546
32	0x3eced19b	0.4039429
33	0x3ecc0a11	0.3985143
34	0x3ed1a013	0.4094244
35	0x3f01fac2	0.5077325
36	0x3ec14089	0.3774455
37	0x3d9e1eef	0.07720744
38	0x3f1bbb74	0.60832906
39	0x3df9f5ef	0.12205111
40	0x3ede1468	0.43374944
41	0x3f14ec1c	0.58172774
42	0x3f5c96ba	0.8616749
43	0x3d743622	0.059621938
44	0x413007ea	11.001932
45	0x3d8bcd6c	0.068262905
46	0x3f1d3a95	0.61417514
47	0x3ebcc1ef	0.3686671
48	0x3ebb09f3	0.36531028
49	0x3ef2e5ce	0.47440952
50	0x3e62d9bb	0.2215337
51	0x3d4b2aab	0.04960124
52	0x40240aea	2.5631661
53	0x3da89e8e	0.08233367
54	0x3ec4940d	0.38394204
55	0x3eb1075a	0.3457592
56	0x3e99f85e	0.30072302
57	0x3e040a39	0.12894525
58	0x3d87de65	0.06634215
59	0x3e6bf4c7	0.23042594
60	0x3ec000b9	0.3750055
61	0x3f07aeec	0.53001285
62	0x3ea4a892	0.3215986
63	0x3d7df0e0	0.061997294
64	0x4093a05e	4.613326
65	0x3f347bb6	0.7050127
66	0x3ece303d	0.40271178
67	0x3e2e93a8	0.17048514
68	0x3ec5ca8d	0.38631096
69	0x3e9694a2	0.29410273
70	0x3eccf8f4	0.40033686
71	0x3f0e1392	0.5549861
72	0x3ee2707b	0.4422644
73	0x3d49d195	0.04927214
74	0x3f13489e	0.5753268
75	0x3f225e31	0.63424975
76	0x3d6cbc8d	0.057797004
77	0x3ece158f	0.40250823
78	0x3e8ce189	0.2751582
79	0x3f4a710d	0.7907875

model.5.running_var f4 [80]
0	0x4024ac39	2.5730116
1	0x3f410114	0.7539227
2	0x3e046493	0.12928991
3	0x3f908728	1.1291246
4	0x3f93fbda	1.1561234
5	0x3e83cd05	0.25742355
6	0x3dfedc28	0.12444335
7	0x3f4e6088	0.80616045
8	0x4104b537	8.294242
9	0x3e88c297	0.2671096
10	0x3e59df5f	0.21276616
11	0x40c07942	6.014802
12	0x3d470d3b	0.048596602
13	0x3e3245c6	0.17409429
14	0x3ccb599d	0.024823004
15	0x3e1f2830	0.15542674
16	0x3d148fca	0.03626994
17	0x3e39c39c	0.18141025
18	0x3e5d8712	0.21633556
19	0x426ab5d1	58.677555
20	0x3e094a65	0.13407286
21	0x3fc60ee4	1.5473294
22	0x3e9b55ec	0.3033899
23	0x3df315c6	0.11869387
24	0x3e7aeae9	0.24503674
25	0x3ea556c7	0.32292768
26	0x3d99dd60	0.07512927
27	0x3eac500a	0.33654815
28	0x3e560aec	0.20902604
29	0x3dcffd70	0.10155761
30	0x40fcd35d	7.900801
31	0x3eb9e4b8	0.3630731
32	0x3e336c0e	0.17521688
33	0x3fad9e83	1.3563999
34	0x3f839d93	1.0282463
35	0x3e2286fd	0.15871806
36	0x3e0097b2	0.12557867
37	0x3da19644	0.07889989
38	0x3f1db1a1	0.61599165
39	0x3e5ada5f	0.21372364
40	0x3f252a24	0.64517426
41	0x3e693f26	0.22777995
42	0x4003ac2b	2.0573833
43	0x3da0c13a	0.07849355
44	0x430ee87a	142.90811
45	0x3d75e11f	0.060029145
46	0x3e9fe716	0.31230992
47	0x3f4b2a55	0.7936147
48	0x3e18c22e	0.14917824
49	0x3fd07cce	1.6288087
50	0x3d449674	0.047995046
51	0x3d213620	0.03935826
52	0x40e23507	7.068973
53	0x3e003fb2	0.12524298
54	0x3e03da76	0.12876305
55	0x3e2e3aa1	0.17014553
56	0x3e0ff0c5	0.1405669
57	0x3dc2212f	0.094789855
58	0x3d27ddea	0.040983118
59	0x3e0918a5	0.13388307
60	0x3e446f0e	0.19182989
61	0x3fb3c82c	1.4045463
62	0x3efd746c	0.49502885
63	0x3d0b22a1	0.03396857
64	0x41d3b52c	26.463463
65	0x3f38e162	0.72218907
66	0x3e5aaa97	0.21354137
67	0x3e8b6f83	0.27233514
68	0x3e8bfd3d	0.27341643
69	0x3e0bf4a6	0.13667545
70	0x3e27222b	0.16321628
71	0x40191ada	2.392264
72	0x3e13bfe2	0.14428666
73	0x3d775803	0.06038667
74	0x3e7a619f	0.24451302
75	0x3e741074	0.23834401
76	0x3d831b13	0.06401648
77	0x3e14c31d	0.14527555
78	0x3e938879	0.28815058
79	0x3face325	1.3506819

model.6.weight f4 [1, 80]
0	0x40011769	2.0170538
1	0x3fe5aba6	1.7943008
2	0xbf6cf729	-0.92564636
3	0x400a33ad	2.159404
4	0x400c2952	2.190022
5	0xbfaccedb	-1.3500627
6	0xbf2fe70d	-0.6871193
7	0x3fec7e5a	1.847606
8	0x3ffc107d	1.9692532
9	0x3f99805a	1.1992295
10	0xbf5d754d	-0.8650711
11	0x3ff9f2dd	1.9527241
12	0x401cd19c	2.4502935
13	0xbf96bfaf	-1.1777247
14	0x4025af85	2.5888379
15	0xbfb80399	-1.4376098
16	0x3f31e58a	0.69490874
17	0xbf3ad06a	-0.72974265
18	0xbf90e0ad	-1.1318566
19	0x3fcbdf79	1.5927573
20	0x4011ff35	2.2812016
21	0x3f8f5a84	1.1199498
22	0x3f8ddc9f	1.1082953
23	0xbf33e381	-0.7026902
24	0xbfb19ff1	-1.3876935
25	0xbfb05dcc	-1.3778625
26	0xbed1964e	-0.40934986
27	0x3fa59417	1.2935818
28	0xbf05cb69	-0.52263504
29	0xbed17db4	-0.40916216
30	0x3fd75497	1.682269
31	0x3fafe1fe	1.3740842
32	0xbfb4c363	-1.4122127
33	0x400ddbeb	2.2165477
34	0x40054497	2.0823114
35	0xbf918062	-1.1367304
36	0xbf9048db	-1.1272234
37	0x40103bf3	2.253659
38	0x4007efbb	2.124007
39	0x4017ee80	2.373932
40	0x3f425e7b	0.75925416
41	0xbfc555c6	-1.5416801
42	0x3fc9f69f	1.5778388
43	0x3fe50b5b	1.789409
44	0x3fc3d38e	1.5298936
45	0x4002c2fa	2.0431504
46	0xbfb9f277	-1.4527119
47	0x401fed6c	2.498866
48	0xbfbca9a9	-1.4739276
49	0x40071724	2.1107874
50	0xbef28316	-0.47365636
51	0x3facf2d2	1.3511603
52	0x4012ea3d	2.2955468
53	0x4008d96b	2.1382701
54	0xbfae37c3	-1.3610767
55	0xbee491d8	-0.4464252
56	0xbef6ebec	-0.4822687
57	0x3ff7f97f	1.9373015
58	0x3feacc85	1.8343664
59	0x3f93c5d5	1.1544749
60	0xbf7d26f6	-0.98887575
61	0x3ff6e13e	1.9287488
62	0x401284d4	2.2893572
63	0x3f9e93e4	1.2388883
64	0x3f96b908	1.1775217
65	0x3fa234ec	1.26724
66	0xbf94e961	-1.1633722
67	0x40152d0f	2.3308752
68	0xbf0519b4	-0.51992345
69	0xbf447541	-0.76741415
70	0xbf3f18b4	-0.7464707
71	0x3fd91b63	1.6961483
72	0xbfb66d98	-1.4252195
73	0x4006af95	2.1044667
74	0xbf805dff	-1.0028685
75	0xbfaf671a	-1.3703339
76	0x40109abc	2.2594442
77	0xbfc400f3	-1.531279
78	0x3f935bd2	1.1512396
79	0x3ffa8590	1.957201
