models/neural_networks/regression/2023-11-17_13:35:15/NN_model.pt (torch, 66681 bytes, 19 tensors)

model.0.weight f4 [80, 11]
00000000: 50a0 1c3e 331e 473e ea7f 263e 9900 88be
00000010: 020b 74be 7243 853e 331f adbe 4dab 18be
00000020: 7165 53bd 8f35 80bd 7c46 85be cb69 a4be
00000030: dc48 d8bc e854 6dbe 37de e5be 33c1 753e
00000040: d0e0 f2bd 340c 62bd ae56 29be 6d90 a73e
00000050: 5a65 003e 9aee 38be 7945 423d c1fa 20be
00000060: 7dfe b4be 8efc c43d 0023 d3bd eeca 0ebe
00000070: ae52 8b3c f2e0 9a3d bc12 8a3f ec01 a9bd
00000080: 710f 49be a89e c63e a871 063e 455a a13c
00000090: 09c4 7b3e 3da4 2b3f 2bdf f33e 1027 723f
000000a0: d696 773e 319c 4dbd c159 2abe 0ef0 243e
000000b0: 4292 1cbe 83f1 ae3e 6ef0 5f3e 0921 35be
000000c0: b3c4 163e c0b0 10bd b2ff 893d bc32 88bd
000000d0: ca04 8fbd 55e6 863e 2415 cc3d 2a2d cdbd
000000e0: 111d 4a3e 0103 69be 4a54 36be 25eb bc3d
000000f0: df5b 5c3e 4e8a b93e 8808 9a3e 1534 cf3e
00000100: 5300 d03d 0368 b9bc 06c4 9cbe 0459 b3be
00000110: e463 1abe 7e04 52be 96c7 16be 9a9b 723e
00000120: 2109 5c3c 7fec 9bbd 3922 573c 8ed3 e03d
00000130: 1bd8 84be e288 50c0 0613 59c0 3215 12c1
00000140: 7967 a2bf d306 aabf 2fff 83bf 857d ddbf
00000150: 831c 7dbf 4c54 eb3d b2ad f03f 1287 aec0
00000160: 8222 25be c6ec 25be 74dd a73e 7e5a 833e
00000170: 4039 a73e bb19 e33c d07d a93e 7230 0a3f
00000180: 324f 833e 8a2f 12be 6439 653e 9094 c43e
00000190: c993 873e cff4 9fbe 7fb9 c03e 0247 423e
000001a0: e421 7ebe 974a f3be 4330 0ebe 6e56 643f
000001b0: b859 f23e a810 f43e 7de7 a03e f198 96bc
000001c0: fc39 863d fd6a 27be f2a0 38be c2fb 86be
000001d0: c2eb 373e 2d7a 503e 45df 5abe ac29 c0bd
000001e0: 87bf af3e f9ff 253f d0ac ae3e 2941 143e
000001f0: 7293 9c3d 386b 903e 8051 8b3e c605 efbd
00000200: ea2c 1d3f 4386 013f aa17 a4be eb0c 4c3e
00000210: a1ab 083f 0e18 d93d 0b48 503e f78a efbd
00000220: 1afb 353e b406 a43e 471b bd3e bc93 093e
00000230: f246 b03e c184 27be 4c28 3bbe 1ded ba3e
00000240: 957d 0fbf e66d 8e3e 5b4d 20be c733 b1be
00000250: 8acf 583d e3be b6bd 3341 84be 5fb7 e33e
00000260: c800 ff3c 7a5b 7dbe a8e5 e6be bb62 e93d
00000270: 5a17 233e ffd3 a4be f373 c03e e368 073d
00000280: f0bb f63e 3e6e 01be fbbb 3ebe 65f4 e7be
00000290: 34ab 05bf 1669 0bbd 4dcb 3bbe 32be e23c
000002a0: e08c 8cbe 2ccf b73d 426c 73be b61a 5cbe
000002b0: 9cf4 403e 78a7 02bf 6e27 1fbd b618 c0bd
000002c0: ffe1 98be 3552 bfbd a574 62bd 3a35 d63d
000002d0: fc92 aabe cc35 b3bd 6d1b 143d e470 d6be
000002e0: ea41 92be 07bd eb3d 21e4 803d 312d ddbf
000002f0: 6def d5be 55fb a4bf 1c84 873f 3f24 85c0
00000300: 9a32 4cbf 3927 27be 36a3 5ec0 19a0 84c0
00000310: 1bf2 b33f c7d1 e3bf 496b 96be 1529 423d
00000320: 6641 413e 1bbd f2bf 53c7 7dbf fd6f dfbe
00000330: e0fe f3bd 430d b73e cb0c cdbf fabb 78be
00000340: e83a 28bb 912d c7bd fc23 a3be 8d42 6cbe
00000350: bb7d 8f3e 4a18 06bc 6eca 35be e525 9abc
00000360: 272e a5bd 59ed fb3c e8b1 073e 3ac4 c7be
00000370: 767e 8fbe bdfa 923e 3f64 5e3e 84f0 5abd
00000380: 81b6 323d 4b8c 7bbe 1204 fd3e 5a56 513d
00000390: 10d0 ba3c 9b6c ba3e 3061 04bf f374 413d
000003a0: b079 19bd 0861 3abe cdd6 9b3e 2833 22bd
000003b0: 3936 9cbe b04e f9bd e409 e13d ece2 0bbe
000003c0: 220a fa3e a40c bfbe e982 fe3d 98e8 d3bd
000003d0: 1281 83be 3e35 f7bd 1604 95be 8c7a 7fbe
000003e0: ed58 0e3e 6190 463c b944 a8be e284 3bbe
000003f0: 43e5 013e a874 203e 5aab 10bf d7fa a7be
0.1529553 0.19445114 0.16259733 -0.26562956 -0.23832324 0.2602802 -0.33812866 -0.14909096
-0.051610414 -0.062602155 -0.26030338 -0.32111964 -0.02640193 -0.2317692 -0.448961 0.23999481
-0.11859286 -0.05518742 -0.16536972 0.32727376 0.12538663 -0.1805977 0.047429536 -0.15720655
-0.3535041 0.096184835 -0.1030941 -0.13944599 0.017007198 0.07562436 1.0786967 -0.0825232
-0.19634797 0.3879292 0.13129294 0.019696364 0.245865 0.6704748 0.476312 0.94590855
0.24178633 -0.050197784 -0.16635801 0.16107199 -0.15290168 0.34168634 0.2186906 -0.17688383
0.14723472 -0.035324812 0.06738223 -0.06650302 -0.06983335 0.26347604 0.0996497 -0.1001838
0.1973765 -0.22755052 -0.17805591 0.09224538 0.21519421 0.3623833 0.30084634 0.40469423
0.10156312 -0.022632604 -0.30618304 -0.3502885 -0.15077168 -0.20509526 -0.14724573 0.2369217
0.013429911 -0.076134674 0.013130718 0.10977851 -0.25946125 -3.2583547 -3.391786 -9.130175
-1.2687827 -1.3283333 -1.0312251 -1.730393 -0.9887163 0.11490688 1.8803008 -5.453988
-0.16126445 -0.16203603 0.32786143 0.25654978 0.32660866 0.02772223 0.331038 0.5398017
0.2564636 -0.14275947 0.22385174 0.38394594 0.2647994 -0.31241462 0.37641522 0.189724
-0.24817616 -0.47517845 -0.13885598 0.8919438 0.47334075 0.47668958 0.31426612 -0.018383475
0.065540284 -0.16349407 -0.18030146 -0.2636395 0.17961028 0.20359106 -0.21374233 -0.09382948
0.3432581 0.6484371 0.3411622 0.14477982 0.076453105 0.282068 0.27210617 -0.11671023
0.6139666 0.5059549 -0.32049304 0.19926803 0.53386885 0.10600291 0.20339982 -0.11696427
0.17771569 0.32036364 0.36934873 0.13435262 0.34429127 -0.16359235 -0.18277091 0.36509028
-0.56051 0.2781822 -0.15654509 -0.34609815 0.0529323 -0.089231275 -0.25830993 0.4447584
0.031128302 -0.24741927 -0.4509709 0.113957845 0.15926877 -0.3219299 0.37588462 0.033059012
0.4819026 -0.1263971 -0.18626396 -0.45303646 -0.5221436 -0.034035765 -0.18339272 0.027678583
-0.2745123 0.08975062 -0.23771766 -0.21494564 0.18843311 -0.5103679 -0.038855962 -0.09379713
-0.2985992 -0.093418516 -0.055287022 0.10459371 -0.33315265 -0.08750495 0.036158968 -0.41883004
-0.28565913 0.115106635 0.06293512 -1.7279416 -0.4178423 -1.28892 1.0587192 -4.1606746
-0.7976471 -0.16323556 -3.4787116 -4.144543 1.405826 -1.7798394 -0.29378727 0.04740246
0.18872604 -1.896396 -0.9913227 -0.43640128 -0.11913848 0.35752305 -1.6019529 -0.24290457
-0.0025669876 -0.09725488 -0.3186339 -0.23072262 0.28025612 -0.008184502 -0.17753002 -0.018816898
-0.080654435 0.030752825 0.1325146 -0.39016896 -0.2802617 0.28706923 0.21717928 -0.05345203
0.04363108 -0.24565236 0.49417168 0.051107742 0.02280429 0.36410984 -0.51710796 0.047230672
-0.037469566 -0.18201077 0.30437317 -0.039599568 -0.3051012 -0.121732116 0.109882146 -0.13660783
0.48835856 -0.37314332 0.12427313 -0.10347098 -0.2568441 -0.12070702 -0.2910468 -0.24949092
0.1390111 0.012119384 -0.3286493 -0.1831241 0.12685113 0.15669501 -0.5651146 -0.32808563

model.0.bias f4 [80]
00000000: 3cfb 1c3e f9a3 f2bd 742c 3dbf 8c63 30bf
00000010: 7989 30be 6c98 4f3e f44f a73d 99e9 d3bf
00000020: 3fed 933d 8241 313e 2d53 123e b4b7 4bbe
00000030: fe48 cabe 84e0 b8bc 0cfd acbe 4437 8b3e
00000040: 2187 813e fb3a 1640 adfc ed3e c2ca 813c
00000050: faf3 47bf 6829 2e3d b9ff babe 540c 85be
00000060: c2c2 d6bd bbf3 65bf 574c 8dbe b452 2c3f
00000070: 7a96 b33d b1d6 7c3e 9763 1bbb a2b4 c03e
00000080: 1e0b c33d 5065 0abf b1d8 d13c 1654 eb3e
00000090: 113e b0bd 8a6c 263e 7835 763f 0000 9dbd
000000a0: 3365 6dbe 76ba 2b3e 12ba e2be d031 96be
000000b0: 7d3c fbbd a825 49bc dea0 6bbe c325 a13e
000000c0: 77bf cb3d 8e0b 6bbe 7c11 13bf 0ed8 ef3d
000000d0: 484e 7b3f c4d8 b9be b269 56bf f1d8 6f3e
000000e0: 08ef 13be 9f78 d1be d23f 833e f0ac bbbe
000000f0: 907d d73f a16d a9bf 33d0 883e 297c 263f
00000100: 7c0a 453f b4ea 2c3d 7c96 1bbf 53a9 e1be
00000110: 513f 3dbe 3f50 143e 202c 063e 4d46 cbbe
00000120: 840b 053b a395 6a3e ad59 1ebe 9fb7 4fbe
00000130: 9175 6e3e 983e 76be a2d4 2fbc 2368 14be
0.15330213 -0.118476816 -0.73895955 -0.68901896 -0.17239942 0.20272988 0.08169547 -1.6555663
0.072229855 0.17310145 0.14289542 -0.19894296 -0.39508814 -0.022567995 -0.3378681 0.27190602
0.25298408 2.34735 0.4648184 0.015843753 -0.78106654 0.042519957 -0.36523226 -0.25985968
-0.10486366 -0.8982503 -0.27597305 0.67313695 0.087689355 0.24691273 -0.0023710483 0.37637812
0.09523605 -0.5406084 0.025616022 0.4596259 -0.08605588 0.16252342 0.96175337 -0.076660156
-0.23183136 0.16770348 -0.44282585 -0.2933488 -0.122673966 -0.012277044 -0.23010585 0.31474122
0.099486284 -0.22953627 -0.57448554 0.11711131 0.9816632 -0.36298192 -0.8375503 0.234226
-0.14446652 -0.4091234 0.2563463 -0.36655378 1.6835194 -1.3236581 0.26721343 0.65033203
0.7696912 0.042216018 -0.60776496 -0.44074497 -0.18481185 0.14483736 0.1310277 -0.39702073
0.0020301053 0.22908644 -0.15463896 -0.2028489 0.23287036 -0.24047315 -0.010731848 -0.1449285

model.2.weight f4 [80]
00000000: 690c 7a3f 7d30 713f 7fd6 853f 5450 843f
00000010: 645b 7f3f e470 4e3f f8d3 7d3f 25fd 863f
00000020: 0052 793f 8e2d 673f 8d28 6f3f ee96 713f
00000030: 1038 6b3f 214a 943f ba80 9c3f 491a 4a3f
00000040: f24e 583f d41b 6d3f 66fa 7d3f a878 673f
00000050: f604 9d3f 7d0f 6c3f 2e0d 6e3f 92b3 763f
00000060: 0ce2 833f 614b 723f f235 883f 1c6f 5c3f
00000070: c9e2 773f 3132 8e3f fa7b 783f e050 713f
00000080: dc9f 873f 5ef4 863f c477 8d3f d35a 6c3f
00000090: 462d 903f 3571 8e3f c98e 633f 0bc1 883f
000000a0: fec1 843f f2b2 853f 76df 7b3f ab4d 733f
000000b0: 9fae 633f f4f7 803f e311 9b3f 5ec3 713f
000000c0: bb10 7d3f bfa2 b43f 5eb5 a43f d526 853f
000000d0: 10c7 803f 096b 863f 3243 4f3f 44ab 583f
000000e0: 6058 993f 9cce 833f 0853 533f cdcb 813f
000000f0: f9ae 463f 95d6 6d3f f5ae 823f eb45 633f
00000100: 1238 323f 1ad0 5f3f a914 723f 3246 813f
00000110: 3a33 833f a961 6d3f 4ae9 7e3f b583 703f
00000120: da68 823f a487 8c3f dacf 9b3f 961d 6f3f
00000130: af31 5c3f 59c3 873f 9dac 683f b8ec 863f
0.97675186 0.9421461 1.0456084 1.0337014 0.99748826 0.8064101 0.99151564 1.0546004
0.9739075 0.90303886 0.9342125 0.94370925 0.9188242 1.1585122 1.2226784 0.7894636
0.8449546 0.9262059 0.992102 0.9041848 1.2267139 0.92211133 0.9298886 0.9636775
1.0303359 0.9464627 1.0641463 0.8610704 0.9683042 1.1109067 0.97064173 0.9426403
1.059566 1.0543325 1.1052175 0.92326087 1.1263816 1.1128298 0.8888975 1.0683912
1.0371702 1.0445235 0.9838785 0.95040387 0.88938326 1.0075669 1.2114834 0.9443873
0.98853654 1.4112166 1.2867849 1.0402476 1.0060749 1.0501415 0.80961907 0.8463633
1.1980095 1.0297427 0.8254857 1.014032 0.7761074 0.9290555 1.0209643 0.8877856
0.69616807 0.8742691 0.94562775 1.0099547 1.0250008 0.9272714 0.9957472 0.9395097
1.0188248 1.0978894 1.2172806 0.9340452 0.8601331 1.060649 0.90888387 1.0540991

model.2.bias f4 [80]
00000000: 7d09 d03c 7320 3e3d 35b1 dbbc 55c8 1ebe
00000010: dcec 803d ee14 0cbc 5c9c 7e3d 811e 953d
00000020: c953 95bc 217f 283e f73d 0d3e 0677 403e
00000030: 05bd b63d 0f01 103e 3dfc 4dbe bb07 853b
00000040: 5763 4cbd 0acf 76bc c5d0 443e 0390 a7bd
00000050: ee33 193d 8310 fcbd 48ea 06be 817e 133e
00000060: 04ee 633d 00fe dbbd 5af0 603b 3136 833d
00000070: 4781 293c a050 783b 304e 3c3d 8aea 38bd
00000080: 5262 66bc f8f6 13be e662 703d 8676 ddbc
00000090: 1a61 883d f65b be3c 97a4 ca3d c4aa a2bc
000000a0: a137 323d b894 d93d 3906 0f3e 9020 c9bd
000000b0: f085 9fbd 471b f3bd e96c 45bd c9c5 2ebb
000000c0: 689c f23c af27 073e c489 51be 95c6 033e
000000d0: 94be 753d 5272 9b3c 5d1e 263d 9e0c f83d
000000e0: 9a01 bcbd 3d78 f7bd 3a4a b03d 7081 29bd
000000f0: 844f bb3e a3e8 b83d cf3b 3cbd 2093 d1bd
00000100: 3ae9 13be 2efc 12be 0aaf 013d 7779 003e
00000110: b6bd f03d 1442 95bc 3cfc 253d cf37 e43c
00000120: 4d35 ddbd a69f 113e d096 963d 32a9 793b
00000130: 65b4 f9bc 1815 3f39 0a28 81bd ebe8 68be
0.02539515 0.046417665 -0.026817897 -0.15506108 0.06295177 -0.008549912 0.062160835 0.07281209
-0.018228428 0.16454746 0.13793169 0.18795404 0.08922771 0.14062904 -0.20115753 0.0040597594
-0.049899425 -0.01506401 0.19220264 -0.08181765 0.03740304 -0.12307837 -0.13175309 0.14403726
0.05564691 -0.10741806 0.0034322948 0.064068206 0.0103457635 0.0037889853 0.045973003 -0.04514555
-0.014061527 -0.1444968 0.058688067 -0.027034055 0.06659146 0.02323721 0.09894674 -0.019856818
0.043510083 0.10624069 0.13967218 -0.09820664 -0.077892184 -0.11870437 -0.048199568 -0.0026668182
0.029615596 0.13198732 -0.2046271 0.12868722 0.059996203 0.01897541 0.0405563 0.121117815
-0.09179993 -0.120834805 0.086079076 -0.041383207 0.36584103 0.09028747 -0.045955475 -0.1023314
-0.14444438 -0.14354011 0.03166107 0.12546335 0.117549345 -0.018219985 0.040523753 0.027858643
-0.10801182 0.14221057 0.07352984 0.0038095233 -0.030481527 0.00018223037 -0.06306465 -0.22745101

model.2.running_mean f4 [80]
00000000: 88b3 9b3e dd2b 4e3e 859b 113e 9b33 a13e
00000010: f6c9 063e 5447 fb3e 69ff bb3e 1926 a540
00000020: fe85 033f 744b 213f ed09 b03e 4600 de3e
00000030: d6a9 1e3e d6ec 4f3e 5aad 5e3e 1279 da3e
00000040: 26cc e63e 432c 9d40 9987 c83f 368f b63e
00000050: 10fa e73c 0ce1 943e df02 4b3e 40e3 aa3e
00000060: befe e03e aaf5 0d3f 514a 0e3e e41e 343f
00000070: b6ce b63e a671 b03f d39b 793e 0e14 003f
00000080: 4a9f b93e 66ab 0b3d 93a0 4f3f 7065 2c3f
00000090: 7739 5f3e 38eb bc3e 607c 3f40 e07e 963e
000000a0: 70a9 173e c940 093f 852d 563f 44d0 303e
000000b0: 56fe 1a3f 40b5 a03e 1d8a 3c3e e71e 0b3f
000000c0: 7b0b cc3e 2fe0 a13e c44c 233e 203a 803e
000000d0: fa62 2140 c8fe 3d3e 57cf 8e3e 7bc9 053f
000000e0: 66b6 5d3e 8f80 0b3e d7c0 b73e da25 2d3e
000000f0: d594 4b40 9e47 793e f50c 223f b3f2 403f
00000100: ee92 b93f 7d4e 043f 871c 843f ceb5 2a3e
00000110: 570d 303e 6f40 803e 6b99 9f3e b77e 633e
00000120: fc87 b33e b208 063f a852 493e e2a1 6f3e
00000130: c19d d03e 154d d23e 4048 613e 7f7d 713e
0.3041041 0.2013392 0.14219482 0.31484684 0.1316298 0.49077857 0.367183 5.1609006
0.5137633 0.6300576 0.34382573 0.43359584 0.15494475 0.2030519 0.21745816 0.42670494
0.45077628 4.911653 1.5666381 0.35656136 0.028317481 0.29077947 0.19825314 0.33376503
0.43944353 0.5545298 0.13895537 0.70359635 0.35704583 1.3784683 0.24375848 0.500306
0.3625434 0.034099005 0.8110439 0.6734228 0.21799265 0.36898208 2.9919662 0.29393673
0.14810729 0.5361448 0.8366321 0.17266947 0.60544336 0.31388283 0.18412061 0.5434403
0.3985251 0.3161635 0.15947253 0.25044346 2.521666 0.18554223 0.27892563 0.5226056
0.2165161 0.1362326 0.35889313 0.1690897 3.180959 0.24343726 0.6330102 0.7537033
1.4497964 0.51682264 1.0321206 0.16670915 0.17192589 0.2504916 0.31171736 0.22216307
0.35064685 0.5235702 0.19660437 0.23401597 0.40745357 0.41074434 0.22000217 0.23583029

model.2.running_var f4 [80]
00000000: 4948 993e 44bf be3d c868 a93d 2b88 733e
00000010: 81c8 df3d bb90 7d3e 0c9c 053e 57b3 0542
00000020: 3c1f 963e 0464 323f a944 c03e 5480 153f
00000030: 4823 e13d 066a 303e fca0 0f3e 255c ce3e
00000040: d77b 183f d50c 9242 b809 1041 1f8e 043e
00000050: afe8 4e3c b852 093e ecd4 833e f754 333e
00000060: 5fee 7f3e 5659 e83f e540 233e 0b7a 8e3e
00000070: 074a d93e 21e9 3d40 fc75 163e 1014 993e
00000080: 2c2c 463e b8f7 223c 7c11 3e3f e4dc 5a3f
00000090: 338a 153e ae09 a63e e55f 0a42 2532 993e
000000a0: 0b84 133e 88cb c83e dfe9 4540 cd6a 1d3e
000000b0: 0690 853f 720c 5e3e f724 aa3d eb09 df3e
000000c0: 444d 893e e436 313e ba31 803e 21e1 0f3e
000000d0: c6a1 d040 786d b73d 9018 0b3f 6fc3 453f
000000e0: ea2c 213e 564c 653d 4987 9f3e 8d2f 863d
000000f0: 9231 1741 68ec 013f c0d4 aa3e 6151 013f
00000100: 029d 9740 9ded 713f 829e b83f 279a 013e
00000110: c6d0 a83d 1bbb 563e c5ab a83e 8a13 893e
00000120: 43e8 393e 13f2 cf3e e23b 953d c87a a13e
00000130: a284 313e f24b 793e 19f1 a43d b250 a23d
0.29937962 0.09313825 0.082719386 0.23782413 0.10926915 0.24762242 0.13047808 33.425137
0.29320705 0.6968386 0.37552384 0.5839894 0.109930575 0.17227945 0.14026254 0.40304676
0.59563965 73.02506 9.002373 0.1294484 0.012628718 0.13410461 0.25748384 0.1751288
0.24993275 1.8152263 0.15942724 0.27827486 0.4243929 2.967354 0.14693445 0.2989812
0.19352788 0.009946756 0.7424543 0.854933 0.146035 0.3242926 34.593647 0.2992107
0.14405839 0.39217782 3.0923994 0.15372773 1.0434577 0.21684435 0.08307832 0.43562254
0.26816761 0.17306095 0.25037938 0.14050724 6.5197477 0.089564264 0.54334354 0.77251333
0.1573979 0.055981003 0.31157902 0.06552038 9.449602 0.5075135 0.3336544 0.505148
4.737916 0.94503194 1.4423373 0.1265646 0.082429454 0.20969813 0.3294355 0.2677272
0.18155007 0.40614375 0.07286812 0.31538987 0.17335752 0.24345377 0.08053798 0.07925548

model.3.weight f4 [80, 80]
00000000: 9707 ac3d 31f3 3fbe 25f5 bb3c b105 ba3e
00000010: dc33 093e 94f3 b03d bb27 d43d bbe4 23be
00000020: dc8e 8fbd 8fba 8fbd 714d cb3d 2e7f 153e
00000030: 716c b9bc 38c7 28bd 471a 003e eb8a 6bbb
00000040: 38ee 33bd c1c4 adbc ceed 3c3d b158 98bb
00000050: fac3 83be 22b8 42be da96 1bbe d1f0 253d
00000060: 9c3b b53d 5111 743d 854f dabd dede 293e
00000070: 9cd7 5e3e 92ec e5bd 537b c6bc c8c2 ecbd
00000080: 8fb3 9b3c 488c 3e3d 4b54 4a3e 531f 183d
00000090: 5873 353d 0ac5 843e b3f7 e63d 9b76 dabd
000000a0: 686a 0cbc 9647 3cbe 5d67 31be b7c5 983b
000000b0: 2c54 513d 2eb3 8f3d 0341 2c3e 61bd 2abc
000000c0: f942 023e 0fc4 a13d 3b0a 663d 14b5 323e
000000d0: 4ef1 17bd c0c4 b3bd 5cb3 253e 4e1a 073d
000000e0: f056 ab3d 792d 953e ceec a53c f443 153e
000000f0: 8a11 48be d392 873d 77d8 1abb 7218 8d3d
00000100: 8995 2d3d badd bbbd 1e39 483e 3740 1f3e
00000110: d706 67be 7edf 73bd 2d9f 0abd a7f9 e739
00000120: cc31 0f3e e187 abbc 7bf8 c93d 7eb6 153e
00000130: 17fb 07bc 0c25 143d dc6b e3bc 9a0a 02bd
00000140: 588c 8d3c 041c 53bd 04e3 2d3d 3816 823e
00000150: 9578 573d a363 22be f59c 20be 42e3 733d
00000160: 992d 1dbe 37cb 4bbd fa4e a43c 09d4 ed3c
00000170: ffa8 56bc 1bf8 b3be 609e 613d d7a7 f83d
00000180: 2e28 d3bc 6f0e 263e 800d 4fbe c084 9c3d
00000190: ec09 16be 7296 ce3d 033e 773e d448 43bd
000001a0: c304 15be f7bc 0a3e 861c 363e e03a 1a3e
000001b0: 0eb6 a03c 377c 8ebc 439e 573e 5eb5 e3bc
000001c0: cc2b 8bbd 0751 a2bd 158c 27be 967d 9f3d
000001d0: 26be 26be cfb3 7d3c c0f1 96b4 4d53 b53a
000001e0: 34b3 9dbd 8081 dbbd 78de 88bd cdeb 663e
000001f0: 240f fe3d c99b a6bd 8f59 3e3d dd2a ca3d
00000200: 61d0 78be ebd9 67be 9abb ab3d 760e b03d
00000210: 654b dd38 bf44 b9bc b6d5 a4bd 2cc0 053d
00000220: 97e9 98bd 6b40 e8bc 3870 56bc 750b 3cbd
00000230: 01c2 23be 39c3 23bd c7c0 11bd 3e00 0bbd
00000240: d169 ad3d bfcd ac3d 3019 56bb eafb 393d
00000250: 0822 64bc 9547 6ebc d7c8 fb3c 7087 38be
00000260: 0b7f 1dbe 54f6 8dbe 5535 e13d a46e 12bc
00000270: d6ef 303d 1e69 113d 4789 57bc 36b4 8cbd
00000280: 989b d5bd 08d8 613d 7f7a c83d 848b 0e3e
00000290: 0529 86be 60ec f13c e1c4 4dbc 98e4 5f3e
000002a0: 77dc 443d a7d1 52bd 2efe 36be 23f5 60be
000002b0: c35e d4be c245 0cbe f445 823e e16b e9bc
000002c0: 3938 b03d 62c1 bb3e b207 21be 7052 273e
000002d0: bbcb 253e acbc 2d3e c8af e63d d698 90bd
000002e0: 118f aebc f75c 2e3e 6ddc 51be 1a7a 61be
000002f0: 9447 4ebe 5520 953e 210d 123e 38b1 493e
00000300: 91df b8bd dc01 ed3d 9553 70bd b654 a33e
00000310: 0352 7c3d 42a9 66be ad7d d53d f23b 5b3e
00000320: c22c 953e 3bd8 e43e 9982 993d 03fb b7bd
00000330: 5e7b 30be 1f27 5bbe 1365 353d d0cb 263a
00000340: 453f 6abe 88a4 933c 5489 88be 6aea 84be
00000350: 923b fd3d 2266 fe3d ee83 a8bd 2001 803d
00000360: cf98 e33d f88a 3b3d f068 9abe 377c ec3b
00000370: c493 4ebe 8315 03be 0358 093b ed0a f23d
00000380: 12e1 29bd 4c17 2abe a9b5 37be 93f4 e0bd
00000390: 866a a93d 8bd6 9c3d dc1b bfbd 9f36 df3d
000003a0: 86ed b93d 63b3 043d 1430 a5bd 38cb 8dbe
000003b0: 2e2a af3c 2a92 ddbd e284 11bd 8a38 113c
000003c0: f83d 053d e509 813d 3009 ea3c f0a3 003d
000003d0: c004 c9bd fe48 863c f663 453d d0bd 38be
000003e0: 6718 093e 95b3 30bd 03f7 b33d d734 be3d
000003f0: 631d 0f3c 3b97 953d 3b81 773e a77d cebd
0.08399885 -0.18745114 0.022944042 0.36332467 0.13398689 0.08640209 0.103591405 -0.16005222
-0.0700967 -0.07018005 0.0992688 0.14599296 -0.022634717 -0.041205615 0.12510024 -0.0035940956
-0.043928355 -0.021211984 0.046125226 -0.0046492447 -0.25735456 -0.19015554 -0.15194264 0.040512864
0.0884926 0.059586827 -0.106596984 0.16588923 0.21761936 -0.11226763 -0.024228727 -0.11560589
0.019006519 0.0465205 0.19758718 0.037139248 0.044299453 0.2593158 0.112777136 -0.106671534
-0.008570291 -0.18386683 -0.17324586 0.0046622413 0.051105663 0.07016598 0.16821675 -0.010421128
0.1272086 0.07898723 0.0561621 0.17451888 -0.03709536 -0.087777615 0.16181701 0.03298407
0.083661914 0.29136255 0.020254519 0.14576703 -0.1953794 0.06619801 -0.0023627558 0.06889428
0.042378936 -0.0917315 0.19553038 0.1555184 -0.22561203 -0.05953931 -0.033843208 0.0004424576
0.1398384 -0.020938816 0.09861847 0.14620396 -0.008299611 0.036168143 -0.027761392 -0.03174839
0.017278835 -0.05154039 0.042452827 0.25407577 0.05260523 -0.15858321 -0.15684874 0.0595429
-0.15349425 -0.049754348 0.02005719 0.02903177 -0.013101815 -0.35150227 0.05508268 0.12141388
-0.025775995 0.16216443 -0.20219994 0.076425076 -0.14652222 0.10087289 0.2414475 -0.047676876
-0.14552598 0.13548647 0.17784318 0.15061522 0.01961806 -0.017393215 0.21056466 -0.027796444
-0.06795463 -0.07925611 -0.16362031 0.077876255 -0.16283473 0.015484764 -2.8115574e-07 0.001383403
-0.07700196 -0.107180595 -0.066830575 0.22550888 0.124052316 -0.081351824 0.04647213 0.09871457
-0.2429824 -0.22641723 0.083853915 0.08596508 0.000105521445 -0.022615789 -0.080485746 0.032653973
-0.07466429 -0.02835103 -0.0130882785 -0.045909364 -0.15991975 -0.0399811 -0.035584237 -0.033935778
0.084674485 0.084376805 -0.0032668822 0.04540626 -0.013924129 -0.014543434 0.030735416 -0.18020415
-0.15380494 -0.27726996 0.109965004 -0.008937512 0.043197475 0.03550064 -0.013155288 -0.0687031
-0.10430068 0.055137664 0.09788989 0.13920408 -0.2620317 0.029531658 -0.012559147 0.21864545
0.048061814 -0.05146947 -0.178704 -0.21968512 -0.41478547 -0.13698485 0.25443995 -0.028493823
0.086044736 0.36670977 -0.15725592 0.16340041 0.16190998 0.16966504 0.11263996 -0.07060401
-0.021308454 0.17027651 -0.20494242 -0.22019234 -0.20144492 0.2912623 0.14262821 0.1969651
-0.09027017 0.1157262 -0.05867346 0.31900567 0.06160165 -0.22525504 0.104243614 0.21409586
0.2913571 0.4469622 0.07495613 -0.089834236 -0.17234561 -0.21401642 0.044285845 0.0006362768
-0.22875698 0.01802279 -0.26667273 -0.25960094 0.12364878 0.12421824 -0.082282886 0.062502146
0.1111313 0.045786828 -0.30158186 0.007216956 -0.20173556 -0.12801175 0.0020957 0.1181849
-0.04147441 -0.1661045 -0.17940392 -0.10984149 0.08272271 0.07658108 -0.09331486 0.1089909
0.09078507 0.03239764 -0.08065811 -0.27694106 0.021382418 -0.10818894 -0.035527118 0.008863578
0.0325298 0.06300715 0.028568834 0.031406343 -0.09815359 0.016392227 0.048191033 -0.18041158
0.13388215 -0.043140013 0.08787348 0.09287422 0.008735034 0.073042355 0.24170391 -0.1008256

model.3.bias f4 [80]
00000000: 40cb e43c e1b0 f5bd 4414 8dbe f427 393c
00000010: fc87 edbd 9fc2 7b3d 555f 223d 28e3 c4bc
00000020: 508c 09bd a7dd 253d 98dc 2d3d e966 5d3d
00000030: 675f 883d 4ac0 323d b1a6 bebd bdbd 22be
00000040: 32bb 47be 3dd0 623d 24dd 81bd 2c95 f33c
00000050: a9f4 823d b4a0 16be ba0c 5b3d ede7 d8bc
00000060: 269f d23b 46e1 00be 4425 343d 95af 8d3d
00000070: 3276 35bc e1d4 703d 61fa a8bd fc83 8fbd
00000080: 970f 1dbc 77af c6bd 753b d6be 66ea 25be
00000090: 4b5c 803d 176a 21be 2110 18bd 963d 983d
000000a0: 6947 93bd cdde 0e3e e05b 66be b8f1 413d
000000b0: ddeb 3bbe 4c9d f23d 7412 55be b0b7 2abe
000000c0: ea55 b9bd 43bb 183e 0d1d 733d cad0 ab3d
000000d0: 4ec6 753d 398b 9f3d 2a3c b83c 05ca 15be
000000e0: 2fb1 9bbc 4903 773c 93a9 23bd 8a9d bcbd
000000f0: a510 ec3d deac 193e ef26 88bd e9f6 1abe
00000100: 9df3 41bd e3de 0dbe 85a4 a13c 1eff c7bd
00000110: 805c 8bbb afd1 303e 84c6 b4bd f304 9fbd
00000120: 1e1f ddbd 9812 0fbe 20f6 3abd 4282 e7be
00000130: 4f8c b73d 1818 18be 71e1 fa3c a1c5 c23b
0.027928948 -0.119966276 -0.27554524 0.0113010295 -0.115982026 0.061464902 0.039641697 -0.024034098
-0.033581078 0.040494587 0.042446703 0.05405322 0.066588216 0.043640412 -0.093091376 -0.15892692
-0.19505003 0.055374373 -0.06341007 0.029734217 0.063943215 -0.14709741 0.053478934 -0.026477778
0.0064276634 -0.12585935 0.04398085 0.06918255 -0.011075543 0.058796767 -0.08250881 -0.07007596
-0.009586236 -0.09701436 -0.41842237 -0.16202697 0.062676035 -0.15763126 -0.037124757 0.074336216
-0.07191355 0.13952179 -0.22495985 0.04734966 -0.18351693 0.11846408 -0.2080782 -0.16671634
-0.0904959 0.14915185 0.059353877 0.08389433 0.06000357 0.077902265 0.022489626 -0.14627846
-0.019005386 0.015076467 -0.03995664 -0.09209736 0.11526612 0.1500735 -0.06648051 -0.15133251
-0.04735147 -0.13854556 0.01973177 -0.097654566 -0.00425297 0.17267488 -0.08826926 -0.07764616
-0.10796951 -0.13971937 -0.04564488 -0.45216566 0.089623086 -0.14852941 0.030625077 0.0059439694

model.5.weight f4 [80]
00000000: bbf6 733f 1c0a 793f cee9 853f e457 553f
00000010: e09f 943f 0b7f 733f 72eb 803f f23a 7a3f
00000020: 4b8b 843f 6b70 853f 32fa 623f e0c3 7e3f
00000030: 8264 713f 678f 463f 7254 913f 6c80 7a3f
00000040: abcd 813f 4443 723f def0 5f3f b7fe 843f
00000050: 14a1 3a3f 6ce5 6d3f 1c9d 813f 0111 7e3f
00000060: 5a54 7f3f 2150 6e3f 8d2e 833f ecbe 6c3f
00000070: 1abe 8f3f 7a11 8b3f 814f 7e3f c27b 603f
00000080: 4f7b 6f3f a6f1 683f 8cc7 8c3f daae 823f
00000090: 16ef 733f fc51 903f 654b 6a3f 240a 613f
000000a0: a5c8 903f b7b5 6e3f 87b1 6f3f d448 603f
000000b0: a8cf 9c3f 6a7d 4e3f 0de6 933f aa05 7f3f
000000c0: 4ab5 753f 12ad 813f 2e50 823f ed01 543f
000000d0: 70e3 743f 0dc5 5f3f 5eca 893f f4ed 713f
000000e0: 060e 663f d1bd 973f d8a7 7f3f 22ab 7e3f
000000f0: 784d 7f3f 0daa 873f d2e6 563f c047 793f
00000100: 38eb 863f d191 843f 49cf 733f 7245 8b3f
00000110: 3470 5e3f afb8 633f 1abe 5f3f 1b4a 963f
00000120: ca4c 833f b04c 9d3f b31e 883f 22a6 843f
00000130: 54fd 583f e165 673f 747d 663f b183 863f
0.95298356 0.9728105 1.0461977 0.83337235 1.161129 0.9511573 1.0071852 0.97746193
1.0355009 1.0424932 0.8866302 0.9951763 0.9429399 0.77562565 1.1353896 0.97852206
1.014089 0.9463389 0.8747691 1.0390233 0.72902036 0.92928195 1.0126071 0.99244696
0.99738085 0.93091017 1.0248581 0.92478824 1.1229889 1.0864708 0.99340063 0.8768884
0.9354753 0.90993726 1.0998397 1.020961 0.9528669 1.127502 0.9152129 0.879061
1.1311232 0.93246025 0.9363026 0.87611127 1.2250872 0.80660117 1.1554581 0.9961802
0.9597975 1.0130942 1.0180719 0.8281544 0.9565954 0.8741005 1.0764883 0.9450371
0.8986515 1.1854802 0.99865484 0.9947988 0.9972758 1.059877 0.83945954 0.97375107
1.0540533 1.0357 0.9523817 1.0880568 0.8688996 0.8895368 0.87399447 1.1741365
1.0257809 1.2289028 1.0634369 1.03632 0.8476155 0.9038983 0.90035176 1.0508939

model.5.bias f4 [80]
00000000: da8f c2bd 875f 2bbe 5fd9 843e a49e fabd
00000010: 1a60 febd abf9 833e 9f4e 973c 4d99 9abc
00000020: 2f5c 8e3d a1b0 c639 955a 923d 3e87 94be
00000030: 1184 b6bc 6328 afbe ee3b 95be 0cea dcbd
00000040: 4566 47be 06b4 183c 79e0 08bd 7422 983e
00000050: af80 84be 044d 533e f4a9 18be abb2 32be
00000060: ec55 1fbe caa8 843d 0487 013e bdc4 b63d
00000070: c152 f83d 4453 133e 26ea 8abb 79a2 cabd
00000080: db2f f1bd 712b 13be 8240 9ebe d946 6dbe
00000090: a835 17ba c58f dcbe 47c8 153d 4dd9 6d3b
000000a0: d457 163e 5336 d8bd c5c6 7dbe 2162 0abd
000000b0: 529f 103e aafb 18be 2c27 79be db2d 743e
000000c0: ced4 9c3d 47ca 47bb 38e0 b2bd 5b92 28be
000000d0: 1122 f3bd 4444 fa3d f92a cf3d 4b04 3b3e
000000e0: ba72 95bd 012b a43e df23 33bd f03e 3fbd
000000f0: 1834 10bd c842 78be c565 d7ba d105 b4ba
00000100: c33f 14be dd05 b93c d0d6 e33d 7822 31be
00000110: 92fc 09be 6f53 6b3e c323 933d d5b8 453e
00000120: 5d44 9bbe c696 a73e 4b4e 183c 9584 95be
00000130: ae85 703e 4ec3 3b3c 7456 553e 3132 d6bd
-0.09500094 -0.1673566 0.2594709 -0.122372895 -0.12420674 0.2577642 0.018470107 -0.018871928
0.069511764 0.00037897102 0.071461834 -0.29009432 -0.022279771 -0.342105 -0.29147285 -0.107868284
-0.19472606 0.009320265 -0.0334172 0.29713786 -0.25879428 0.20634848 -0.14908582 -0.17450969
-0.1556012 0.064775065 0.1264916 0.089242436 0.12125159 0.14387232 -0.0042393385 -0.098942704
-0.11776706 -0.1437204 -0.3090859 -0.23171557 -0.0005768188 -0.43078437 0.036567952 0.0036292851
0.14681941 -0.105572365 -0.24782856 -0.03378499 0.14123276 -0.14939752 -0.24331349 0.23845617
0.07657777 -0.0030485557 -0.087341726 -0.1646208 -0.11871732 0.12220052 0.10115618 0.18263356
-0.07297273 0.3206406 -0.04373538 -0.04669088 -0.03520593 -0.24244225 -0.0016433528 -0.0013734644
-0.14477448 0.022585804 0.111249566 -0.17298305 -0.13475254 0.22981046 0.071845554 0.19308789
-0.30325595 0.32732219 0.00929601 -0.29202715 0.23488495 0.0114601385 0.2083376 -0.10458792

model.5.running_mean f4 [80]
00000000: 1921 083f 5474 013f 8247 4a3f 8605 183f
00000010: 738c 803e 011a 2a3f a9d3 0c3f 8937 eb3e
00000020: 56bc 143f 2437 eb3e 5ddb 373f 4c11 543f
00000030: 0f91 1d40 f666 b73f c5b2 593e 0392 4d3f
00000040: be61 3b3e f9cc d53e 5de3 2d3f 82ac 683f
00000050: 0c4c 933f ec76 3f3f d66d e03e 342f b63f
00000060: 65c8 f03e d804 e13e 169c 7d3f 31ea 033f
00000070: 99ea 883f 7b2e 193f acd2 2d3f 94cb 333f
00000080: 4f98 5b3f 9e6b d13f 1a77 303f ff98 db3e
00000090: d6b0 fd3f 8dfe 5d3e 7dac 983e 9c33 2d3f
000000a0: fc95 f23e 6c94 573f c80e 553e 1080 983f
000000b0: 995e 023f daf3 4f3f 0a5a 173e 51aa 553f
000000c0: 2fe3 823f 95e2 903f 57f9 3b3f 4404 673f
000000d0: 70b3 5d3f 032d ae3f 4db0 c73f eaf0 533f
000000e0: 2a76 3640 18e4 543f 9ee9 b13e 7c85 8d3e
000000f0: ebc5 e23e c1c3 913e 0efd 913e 873c 293f
00000100: a45d c43e 20c1 143f 6958 6c3f cbff ce3e
00000110: e21a 063f e6c0 133f 8247 213f ae0a 1a3f
00000120: 9612 4a3f 9d31 c83e 015f 4b3f f81f 8b3f
00000130: 2d2a ce3f 7370 ea3e bf3c f63e 4852 863f
0.53175503 0.5056813 0.7901536 0.5938343 0.25107154 0.6644593 0.5501047 0.45940807
0.5809988 0.45940506 0.71819097 0.8283889 2.4619787 1.4328296 0.21259601 0.8030092
0.18299004 0.41757944 0.67925054 0.90888226 1.1507583 0.74790835 0.43833798 1.4233155
0.4702789 0.43949008 0.99066293 0.5152922 1.0696594 0.5983655 0.67899585 0.7023251
0.8577928 1.6360967 0.68931735 0.42890164 1.9819591 0.21679135 0.29819098 0.67656875
0.47380054 0.8421085 0.2080642 1.1914082 0.50925595 0.8123146 0.14780441 0.8346301
1.0225581 1.1319147 0.7342734 0.90240884 0.86601925 1.3607486 1.5600678 0.8278948
2.8509622 0.83160543 0.34748548 0.27640903 0.44291624 0.2846966 0.28513378 0.6610798
0.38352692 0.58107185 0.92322403 0.4042953 0.5238477 0.57716215 0.6299974 0.60172546
0.7893461 0.39100352 0.7944184 1.0869131 1.6106621 0.45788917 0.4809322 1.049386

model.5.running_var f4 [80]
00000000: e825 873f 802c 543f 05f5 b23f 7668 753f
00000010: 2d9c ec3e 79ef bc3f 1096 533f 22c9 bb3e
00000020: 7d3e 423f c4a2 d93e c750 393f 94f4 b03f
00000030: 682b a241 0dcf 0c41 d33e 623e d8b1 6d40
00000040: 494b 163e d0d8 dd3e 9058 2f3f 85be c03f
00000050: 49a4 0241 2db9 0740 99cd 943e f817 3341
00000060: d57e 0a3f d5c1 e83e 87ed fd3f b9c0 303f
00000070: a99a 0840 dca5 093f 75f7 773f 509b de3f
00000080: 6ed4 9b3f d5dd f840 bae5 2b40 fd86 283f
00000090: ff8c 2641 18ea 943e 2c0c 883e 7bce 9f3f
000000a0: eb2d a73e 9eaf 8a3f 1817 123e 268c 6140
000000b0: 03d4 883f 8207 2040 ca28 093e 552b b73f
000000c0: 2fd3 db3f 939c 2f40 977e 8e3f 51dd 3040
000000d0: bc00 d93f 5574 3440 e287 3140 d81d a63f
000000e0: e226 9441 365a 1240 083f b03e e7a4 823e
000000f0: 9251 0a3f ac3b 243e f092 363e 6735 8c3f
00000100: 594d 053f 0a98 413f ac5a c03f 0120 0d3f
00000110: c3ca 823f acb4 7f3f a7ad 8c3f 5f4d a23f
00000120: fb62 d83f c9b6 db3e 79dd a73f bff5 2a40
00000130: f7bd eb40 ec5d 023f 0136 c53e ba1d 8840
1.0558443 0.828804 1.3981024 0.9586252 0.46212903 1.4760581 0.8265085 0.3667689
0.758766 0.42506993 0.7238888 1.3824639 20.271194 8.8005495 0.22094278 3.7139797
0.14677157 0.43329477 0.6849451 1.5058142 8.165109 2.1206772 0.2906311 11.193352
0.5409978 0.45460382 1.9838113 0.6904407 2.1344397 0.53768706 0.96861964 1.7391148
1.2174203 7.777079 2.6858964 0.65830976 10.409423 0.2908485 0.26571786 1.2484888
0.3265222 1.0834844 0.14266622 3.524179 1.0689701 2.5004582 0.13394466 1.4310099
1.7173823 2.7439315 1.1132382 2.763508 1.6953349 2.8196003 2.7739186 1.2977858
18.518986 2.286756 0.3442309 0.25516436 0.54030716 0.16038388 0.1782949 1.0953797
0.5207115 0.7562262 1.5027671 0.5512696 1.0218128 0.9988506 1.0990494 1.2679862
1.6905206 0.42912892 1.3114463 2.6712492 7.366939 0.50924563 0.38517764 4.2536287

model.6.weight f4 [80, 80]
00000000: bf68 093e f884 af3c 79cf a7bd 1022 fbbc
00000010: f262 8ebb b9c4 35bd 09b7 113d 5699 a9bd
00000020: ffe5 3cbd 3b96 a3bc 4bb7 ccbd 14a4 723d
00000030: d1fb 973d f127 aa3c 3433 87bd 512a 973d
00000040: 5e28 6e3c 470b 043d 539b 74bd ab6e 6bbc
00000050: 813e 19bc cee3 933d 0f28 c1bd 7f98 dbbc
00000060: 2115 cebd 0261 43bc ad27 cebd dc45 b0bd
00000070: ada0 a2bc b170 d4bd c7be 20bd 3f9d 98bd
00000080: 0c01 89bc 5c58 62bd da62 2a3d bda9 0cbc
00000090: 3704 6c3b 4c7f e53c 3509 12bd e232 a5bd
000000a0: 1c3a 0d3b e3f9 823d d6dd b0bd e0c3 4b3d
000000b0: 697b a83d d72d 89bd 05cb 5e3c 9bae b3bd
000000c0: c01f bdbd 021f 98bd 188d 10bd 428e 8ebd
000000d0: 3ff8 bfbd 44e2 a9bd 4041 d8bd 97f8 0bbb
000000e0: 1a6a b03d 9446 55bd 9955 223d 5d3a cdbd
000000f0: ad57 f93d a7cf 82bd 6810 efbd f699 b4ba
00000100: 1d15 b33d 99c9 c83d 90bc 423c b941 e73d
00000110: 5a7a 233d f730 753a 54a6 51bd 10b3 e6bd
00000120: 5b6d f93c 6dc4 84bd 9434 b83d 7767 52bd
00000130: fb54 20bb 41e5 10bd 1597 0d3d a38f 29bd
00000140: ce66 933d 2b2b fcbd 8388 a33d 289c 85bd
00000150: 205e 0cbc 0d6b c13d 8c07 83bd ea91 5d3d
00000160: 3748 2b3d 8d5e b33d d5f4 5f3d 9826 f8bc
00000170: 020c 45bd 0138 2a3c 6a81 7cbd 0883 c93a
00000180: 1bd2 c43d 615d 5f3d 7b3c 9bbd ac63 87bc
00000190: edc1 52bd cb9d fabc 9083 94bd 0cc4 bd3c
000001a0: ee5e 72bd 9fd5 30bc 0bff fabc b326 563d
000001b0: 70f1 5b3b 667e d1bd c7ed b5bd 7838 3ebd
000001c0: 4fbe 7b3b c964 e63c 9613 b2bc c3fe d3bd
000001d0: 0011 103d 6836 87bd 7bfd 15bd e57b b53c
000001e0: 2e6b 17bd ce12 a9bd ddf0 6e3c aa32 b4bb
000001f0: f7a6 213e 5be4 063e 8b6f 9cbd 4f61 673d
00000200: 30a4 be3d ebde 773d 85d9 c2bd 0782 b73d
00000210: 5995 0cbe c788 ebbd 8f4a e13c adce 8a3d
00000220: 6a27 adbc 2594 20bd dcfe 26bd 9324 0fbe
00000230: 93d2 273d 331c c3bd 9fe2 05bd f869 85bc
00000240: 75a1 673d 363b 723c 4a23 e83d a1c2 8cbd
00000250: 73f7 4ebd 72f9 ac3d c870 62bd 5854 4f3d
00000260: 7eb2 833b 25bd a4bc 30dc 5a3d 6e48 aabd
00000270: 5225 d23c befd 773d af73 823c 42a2 30bd
00000280: 7725 f0bd dce5 683d 0c8a ae3d 42dd 35bb
00000290: e155 d2bc 3606 1c3d 7e1d 6fbc b2d9 1a3d
000002a0: f37d 2ebd 5a76 d13c e61d c83d 2831 81bd
000002b0: 4ce4 303d a301 853d 4889 9ebd f4e5 783d
000002c0: ab73 cd3d 8f05 c73d 8c41 00be 08ad 8b3d
000002d0: 98c9 9f3d 0e7a 973d 11f7 093c ea4b 543c
000002e0: 41d2 133d f2f7 cdbd 5beb 17bc 8218 093d
000002f0: ce92 c03d 4a5a b83d 4bc1 9a3d e9cd afbd
00000300: dceb 173d f8e7 8abd 9745 e7bb 3ba8 833c
00000310: 3b45 7f3d bb3d 87bd b1c9 7a3d a0e1 71bd
00000320: ce90 80bd 8cf1 afbd e3d3 b33d 4104 8abd
00000330: 33a5 1f3e 6502 7c3d a507 e6bd 15bf 41bd
00000340: 9b9d ed3d 333b f6bd 9eb6 6c3d f40f 3dbb
00000350: 4c29 a4bd d824 35bd 9d7a c1bc 51a4 92bd
00000360: cf88 31bd 5f70 9abc 0485 f3bd 5a90 7cbc
00000370: b7dc 5bbd 3c18 1bbd 82d8 ba3d 7db2 d2bd
00000380: aba4 763d 7cdd 82bc 21b4 7f3d 0098 63bd
00000390: f9e6 b03d 4057 11bc fe7a 8a3d b8fb c03d
000003a0: 19c2 40bc 2599 fdbc 5870 b53c d9a0 7f3d
000003b0: d8e7 353d 6678 b13c b36e c63c 0280 e5bd
000003c0: 8d42 97bd bc08 813d 2525 fe3c 32b4 dcbc
000003d0: 6117 1abd a2e7 7ebc fb42 71bd 7a46 1c3d
000003e0: 5e54 393d f6fb 963c abd3 22bd bca0 023e
000003f0: dc46 e23c bc16 e33c 3356 533e 0389 3ebc
0.13418864 0.02142571 -0.08193869 -0.03065589 -0.0043452913 -0.044377062 0.035574947 -0.082812
-0.04611778 -0.019969096 -0.09995898 0.05923851 0.07421077 0.020770999 -0.06601563 0.07381118
0.0145359915 0.032237317 -0.05971844 -0.014369647 -0.009353281 0.07221185 -0.09431469 -0.026806114
-0.10062624 -0.011924984 -0.10066161 -0.086070746 -0.019852007 -0.10373057 -0.03924444 -0.07451867
-0.016724132 -0.055260047 0.04159818 -0.008585391 0.0036013254 0.028014801 -0.03565331 -0.08066346
0.0021549528 0.06395318 -0.08636062 0.049747348 0.082266636 -0.066981964 0.013598208 -0.08773538
-0.092345715 -0.07427789 -0.035290807 -0.06960727 -0.09373521 -0.0829511 -0.105593204 -0.0021357888
0.08613987 -0.05206926 0.039632414 -0.100208975 0.12174926 -0.06387263 -0.11673051 -0.0013778794
0.087442614 0.09804077 0.011885777 0.112918325 0.039911605 0.00093533046 -0.051184013 -0.11264622
0.030447653 -0.06482778 0.089944035 -0.051368203 -0.0024464715 -0.035374884 0.03456791 -0.04139675
0.07197343 -0.12312921 0.07985022 -0.06523925 -0.008567363 0.094442464 -0.06397924 0.054094233
0.041816916 0.087582685 0.05467685 -0.03029184 -0.048107155 0.010389329 -0.061646856 0.0015374133
0.09610387 0.054532412 -0.07579895 -0.01652702 -0.051454473 -0.03059282 -0.07251656 0.023164771
-0.059172563 -0.010793119 -0.030639192 0.052283 0.0033560656 -0.10229187 -0.08883243 -0.04644057
0.0038412993 0.02812423 -0.021737855 -0.10351326 0.035172462 -0.06602174 -0.03661869 0.022153804
-0.03696745 -0.0825554 0.0145837935 -0.0054992037 0.15786348 0.13173048 -0.07638463 0.056489285
0.0930866 0.060515326 -0.09514145 0.089603476 -0.13728847 -0.115006976 0.027501373 0.067777015
-0.021136958 -0.03920378 -0.040770397 -0.13978796 0.040972304 -0.09526863 -0.032686826 -0.016285881
0.05655046 0.014784625 0.11334856 -0.0687306 -0.050528955 0.084460154 -0.055283338 0.050617546
0.0040190807 -0.020109722 0.053432643 -0.08314596 0.025652561 0.06054472 0.015924303 -0.04312349
-0.11725896 0.056859836 0.08522424 -0.0027750288 -0.025675716 0.03809186 -0.014594434 0.037805267
-0.042600583 0.02556913 0.09771328 -0.06308204 0.04318647 0.06494453 -0.07741028 0.060766175
0.100318275 0.09717857 -0.12525004 0.068201125 0.07802123 0.07396327 0.008420722 0.012957552
0.036089186 -0.100570574 -0.009272422 0.033470638 0.09403001 0.09001596 0.07556399 -0.08584196
0.037090167 -0.06782526 -0.0070578563 0.01607143 0.062321883 -0.06603571 0.061227504 -0.059053063
-0.06277619 -0.08590993 0.087806486 -0.067390926 0.15590362 0.06152572 -0.11231927 -0.04730137
0.116023265 -0.1202301 0.057791345 -0.002884862 -0.08015689 -0.04422459 -0.023618037 -0.07160247
-0.04334336 -0.01885241 -0.11890605 -0.0154152755 -0.053677287 -0.03786491 0.09123327 -0.1028795
0.060215633 -0.015974753 0.062427644 -0.05556488 0.086378045 -0.0088709 0.0676174 0.094230115
-0.0117650265 -0.030956814 0.022148296 0.062409256 0.044410557 0.021663856 0.024222707 -0.11206056
-0.073857404 0.06300494 0.031023571 -0.026941393 -0.037619952 -0.015558155 -0.05890177 0.03815315
0.045246474 0.018430691 -0.039752644 0.12756628 0.027621679 0.027720802 0.20638351 -0.011629346

model.6.bias f4 [80]
00000000: 63bf c7bd 5388 a43d 7903 55bd 62b9 29be
00000010: be5c 073e 53a0 a73c 8a2b 803d 2e89 b4be
00000020: ac8e b8b8 77c2 b5be b472 3b3d 44e0 c33d
00000030: f249 123e 8045 91bc b867 86be 0ba8 ec3d
00000040: 969d c63c 61bf b53d c389 033e 01f3 ca3d
00000050: 58c1 09bd 3b55 af3d b0d6 83bd 19bb fa3d
00000060: c1f7 cf3d 5df9 3f3b 46d0 46bc 5103 a43d
00000070: 77ce 1fbe 3d80 08be dd00 20bf 0d3a 8c3c
00000080: b4b1 5b3d 0922 6c3b 41c0 9d3c 7abe 813b
00000090: 057d d53c ab48 813d 3171 86bd 197a bc3d
000000a0: c6a6 a7bd d15a d13d 7cb9 9bbe 628e b03c
000000b0: 96fa e83d 7d5b 8a3c 5007 6abd 91b5 62be
000000c0: 69a3 913d 73bd 55bd 4d69 20bd ed7d 013e
000000d0: 47b5 2cbe f448 d13c 97a0 f63c dcfb cbbd
000000e0: 42f5 d839 d9ad fd3d 465c 13be 57b6 1e3d
000000f0: bff0 72bd 019c 413c fe42 49be 3c81 9fbd
00000100: fe55 f33e 1969 6e3e 7a85 deb9 dcdb 5a3e
00000110: 692e c0bc d8c4 8fbb b381 97bd 8411 c33d
00000120: edea fe3b 1325 31be 0909 7ebd 8ee0 81be
00000130: e7db 133e 3c04 4b3c 1aa0 cf3e 37c0 a2bd
-0.09753301 0.08033814 -0.052005265 -0.16574624 0.13218972 0.02046219 0.062583044 -0.3526091
-8.8003784e-05 -0.35499927 0.045763686 0.0956426 0.1428602 -0.017733335 -0.26251006 0.11555489
0.024245065 0.08874393 0.1284552 0.099096306 -0.033631653 0.08561178 -0.06437433 0.12242717
0.10154677 0.002929292 -0.012134617 0.08008445 -0.15606104 -0.13330169 -0.6250132 0.017117525
0.053636268 0.0036031029 0.019256713 0.003959474 0.02606059 0.063126884 -0.06564558 0.09202976
-0.081861064 0.102224 -0.3041495 0.021552268 0.113759205 0.016889328 -0.05713588 -0.22139575
0.07111246 -0.052182626 -0.039162923 0.12645693 -0.16866027 0.025547482 0.030105872 -0.09960148
0.00041381462 0.123866744 -0.14390668 0.03874811 -0.059311625 0.011816979 -0.19654462 -0.077883214
0.47526544 0.23282279 -0.00042442587 0.21372932 -0.02345963 -0.0043874793 -0.07397785 0.09524825
0.00777947 -0.17299299 -0.062020335 -0.25366634 0.14439355 0.012391146 0.40551835 -0.07946818

model.8.weight f4 [80]
00000000: d359 803f 14c1 963f 995b 883f e952 ae3f
00000010: d793 9a3f c06e a03f 2c23 873f d101 af3f
00000020: 1f96 923f 99b5 a23f 377c 923f 69b4 883f
00000030: d4d5 903f 8599 b13f 2c42 c33f 9fc4 823f
00000040: 2938 9b3f 9f92 a43f 563a 993f ba66 823f
00000050: 7515 903f 6da0 b93f c6f6 903f 4a5c 8f3f
00000060: 45e5 9d3f 4c95 833f ebd6 9b3f fe70 cb3f
00000070: 699b 973f 2287 c43f 0af5 b43f ded8 9a3f
00000080: 1eb6 bc3f f46a 983f b3ec 8e3f 55ce 963f
00000090: 7b90 c93f a2be 833f ded2 c83f 6ab2 903f
000000a0: 650e c13f f076 803f bb0f be3f 6d86 933f
000000b0: c753 8f3f c4e9 8d3f 5908 c73f 32dc e03f
000000c0: 8cf0 a53f 2a99 ca3f 2ab4 883f a612 843f
000000d0: 3cf9 ab3f 7198 8e3f 573d bd3f 9e9a 7f3f
000000e0: e2bb 863f df94 853f 0171 b43f 7752 bb3f
000000f0: 8a83 b53f 40bb 9b3f ed53 cf3f 2938 d03f
00000100: d58f c13f 6d66 a23f 92c0 963f e1f7 9c3f
00000110: 1d00 ac3f e2cb a13f 27dd 803f 47dc 923f
00000120: a95f a73f e3a8 a03f 6af5 d53f 7133 d23f
00000130: c710 933f abe7 933f c3e0 b93f 2756 bc3f
1.0027412 1.1777673 1.0652953 1.3619052 1.2076367 1.2533798 1.0557609 1.3672429
1.1452063 1.2711669 1.1444157 1.0680057 1.1315255 1.3874975 1.5254569 1.0216254
1.2126514 1.2857245 1.1970928 1.01876 1.1256548 1.4502083 1.1325309 1.1200039
1.2335593 1.0279937 1.2174963 1.5893857 1.1844302 1.5353739 1.413728 1.2097433
1.4743078 1.190764 1.1165985 1.1781718 1.5747217 1.0292552 1.5689352 1.1304448
1.5082518 1.0036297 1.484855 1.1525398 1.1197442 1.1086965 1.5549423 1.7567198
1.2964034 1.5827992 1.0679982 1.0318191 1.3435435 1.1140271 1.4784344 0.998453
1.0526087 1.0436057 1.4096986 1.4634541 1.4180768 1.2166519 1.6197487 1.6267139
1.5122019 1.2687508 1.1777518 1.2263147 1.3437535 1.2640345 1.006749 1.1473473
1.3076068 1.255154 1.671552 1.6421949 1.1489495 1.1555074 1.4521717 1.4713792

model.8.bias f4 [80]
00000000: ff71 013e 0b90 85bf 3a1f f4be 555f 9b3f
00000010: 53c7 8abf 10a6 713f ad58 c8be 0afd bf3f
00000020: 9c88 4dbf e81b 923f c375 62bf caf0 973e
00000030: 8556 54bf 6d38 da3f ceda e83f 7cf2 52be
00000040: 187d 9cbf 384c 833f ca56 86bf ffd6 5cbe
00000050: c68a 54bf cf8e c23f 4216 123f 383d 43bf
00000060: e3c9 9abf f821 86be e993 a4bf 5eb6 0440
00000070: 7534 283f 5f22 0a40 cbc4 ce3f 754a 99bf
00000080: 7673 d13f f7a4 473f d605 5abf f714 363f
00000090: 5757 f93f 0fac 6bbe b796 ea3f 5538 5dbf
000000a0: ea60 dd3f 4a2e 22bd 89ee d63f 86a0 323f
000000b0: a8af 49bf 39b4 34bf 5b7a e43f 375b 1140
000000c0: bcc7 c2bf 2efb 0140 89c3 0bbf e9b2 9bbe
000000d0: 1b5d 8a3f e318 39bf a4c9 c63f 254c 943d
000000e0: 4f6e b7be e7e3 e3be 802a a33f f80b c53f
000000f0: 86ad b33f 7cf6 463f f684 fc3f f067 0940
00000100: 8bb8 e33f e673 b7bf 01d8 94bf 0b80 96bf
00000110: 3cc8 993f 7435 7f3f dffe b4be 021f 0f3f
00000120: 7f3a 863f 43fc 4e3f f2f1 0d40 ce9d 0b40
00000130: e854 5fbf 74ef 6cbf ead4 c93f 4561 c03f
0.12641142 -1.0434583 -0.47680074 1.2138468 -1.0842079 0.94394016 -0.39130154 1.4999096
-0.80286574 1.1414766 -0.8846094 0.29675895 -0.8294452 1.704847 1.8191774 -0.20600313
-1.2225676 1.0257635 -1.0495236 -0.2156639 -0.8302425 1.5199832 0.5706521 -0.7626529
-1.2092861 -0.2619779 -1.2857639 2.0736308 0.65705043 2.1583478 1.6153806 -1.1975847
1.6363361 0.7798609 -0.85165155 0.7112574 1.9479779 -0.23014854 1.8327245 -0.8641408
1.7295201 -0.039594926 1.6791545 0.6977619 -0.78783655 -0.705875 1.784984 2.2711923
-1.5217204 2.0309558 -0.5459524 -0.30409935 1.0809664 -0.723036 1.5530286 0.07241086
-0.35826346 -0.44509813 1.2747345 1.5394278 1.403733 0.77719855 1.9728076 2.1469688
1.7790693 -1.4332244 -1.1628419 -1.1757826 1.2014232 0.9969094 -0.353507 0.5590669
1.0486602 0.8085367 2.2178922 2.1815066 -0.8723893 -0.92552876 1.5768101 1.5029684

model.8.running_mean f4 [80]
00000000: 999e 2b3e 1a87 fb3e 3c77 863e c72e 5b3d
00000010: d009 133f f043 df3d dc1d ab3e f0bd fc3f
00000020: a6ba c63e c3b4 363f 39d9 e03e 96c1 193e
00000030: 49f0 033f 9e7b 103f b970 b53e 80a9 ee3e
00000040: 2fa9 023f ddb9 953e 3cbf 363f ac44 963e
00000050: 9aa1 033f d628 5e3e 4da5 0e3e ec80 0f3f
00000060: aa7b f53e 5c07 bd3e 0c7b 173f 0933 403e
00000070: 130b 0a3e 3beb a93f 994c 9d3f 037d 053f
00000080: cdeb 273e 9323 353e ff85 053f 37cd 3c3e
00000090: 21e1 123e 65b2 ea3e 8a7e 913d 99e0 023f
000000a0: 7f1d 823e d5fd ea3e 8c47 fa3f 47b5 703e
000000b0: 85ab 183f 82ff c93e 5cb0 9c3e 2dde ba3d
000000c0: 46a8 303f d01e 8b3e 5cad ae3e cf10 f73e
000000d0: 3ebf a83d 6464 1e3f 9939 f83d fb49 1f3e
000000e0: 8ff2 b13e 298c 0e3f d0d4 c73d 2822 973d
000000f0: ab5c 9c3d f8d6 b93d 5f1f 8b3e 6c76 573e
00000100: 5f3a 2840 9e54 2c3f 09e3 183f 57be 033f
00000110: 0421 f43d ea5e d63d e0eb 893e 182c 1d3e
00000120: 2a70 053e f8ef 6b3e b503 7a3e 0d4b 4c3f
00000130: 4bcb 233f bda5 dd3e 789b 5240 47b1 f53d
0.16759719 0.49126512 0.26262844 0.053511407 0.5743685 0.1090163 0.33421218 1.9745464
0.38814276 0.7136957 0.43915728 0.15015253 0.5153852 0.56438625 0.35437563 0.46613693
0.51039404 0.29243365 0.7138555 0.29349267 0.5141846 0.21695265 0.13930245 0.56056094
0.4794591 0.36919677 0.5917213 0.18769468 0.13480787 1.3274912 1.2289001 0.5214388
0.16398545 0.17689352 0.52157587 0.18437658 0.14343692 0.4583923 0.071042135 0.5112396
0.2541313 0.45896783 1.9553084 0.23506652 0.5963672 0.3945275 0.30603302 0.09124408
0.69006765 0.27171946 0.34116638 0.4825501 0.082396016 0.61871934 0.12120361 0.15555565
0.3475537 0.5568262 0.09757388 0.07379562 0.076348625 0.09074205 0.27172372 0.21041268
2.6285627 0.67316616 0.5972143 0.5146231 0.1192036 0.10467322 0.2693777 0.15348852
0.13031068 0.2304076 0.24415477 0.7980202 0.63982075 0.4329051 3.290739 0.119967036

model.8.running_var f4 [80]
00000000: 76cc 103e 309d 703e 96f8 d43d cbf4 613d
00000010: bf2d a73e a820 e63d eeb5 f03d 81d8 ee40
00000020: da4a 5d3e 2a6f aa3f 7500 a03e 357d 1a3e
00000030: 9f69 843e 016b 373f 9b89 733f 4f2e c83e
00000040: 85d7 153f a1bf 9b3e 2e15 f63e dbc7 8f3d
00000050: e4ac 0c3f 0981 bc3e b6cd d53d 9c98 753e
00000060: 9845 573e 27fc 363e 8980 1c3f c0ce 8e3e
00000070: e3c9 273e 1c0e c040 f927 2c41 d8ee b53e
00000080: cfcb 393e ec22 223e 2a11 a63e bc42 293e
00000090: 35cf fb3d 83b7 353e fff4 5f3d 5a97 a33e
000000a0: 58da 013f 6f66 ec3e 1fa5 0f41 8ff5 9e3e
000000b0: dd7b e13e 31b4 113e e756 063f 90ba d73d
000000c0: a504 003f e56e d43e 2183 0a3e 791d 883e
000000d0: d734 9c3d 4744 b53e af4e 033e c146 0a3e
000000e0: cacb 3f3e b3e3 b43e cabe b13d aa57 943d
000000f0: 2209 863d 72c8 9b3d 5a65 fc3e 6edf a93e
00000100: e5b5 5a41 7e6c 853e 5bed 9f3e 9894 da3e
00000110: 6141 0c3e db8b a53d 7368 e53d f231 f93d
00000120: 1727 1e3e 61ab 9e3e 7b23 d83e c73c 0840
00000130: 89fd e83e 8653 823e c020 5942 5745 b43d
0.14140496 0.23497462 0.103989765 0.055165093 0.3265209 0.112366974 0.1175345 7.4639287
0.21610585 1.3315175 0.3125035 0.15086825 0.25861832 0.7164765 0.95131844 0.3909783
0.5853198 0.3041964 0.48063034 0.07020541 0.5495131 0.36817196 0.10439627 0.23983997
0.21022642 0.17869626 0.6113363 0.27892113 0.16385607 6.0017223 10.759759 0.35533786
0.18144153 0.15833634 0.3243497 0.16529363 0.12295381 0.17745785 0.054677006 0.3195141
0.5072379 0.461719 8.977813 0.3104672 0.44039813 0.14228894 0.5247635 0.10533631
0.50007087 0.41490856 0.13526584 0.26584986 0.07627266 0.35403654 0.12822984 0.13503553
0.18730083 0.3532997 0.08678968 0.07243283 0.06544711 0.07606591 0.49296075 0.33178276
13.669408 0.26059335 0.31235775 0.42691493 0.13696815 0.08083316 0.11201563 0.121677294
0.15444599 0.30990127 0.4221457 2.1287096 0.45505932 0.25454348 54.281982 0.08802288

model.9.weight f4 [1, 80]
00000000: 3951 2a3e 7eaa 9bbf 1adb 1abf b972 c33f
00000010: 20b9 a3bf a1d1 9a3f fcb8 04bf 7d15 e23f
00000020: 1733 7bbf b56a b13f 0feb 85bf 36e7 f53e
00000030: f9f9 7bbf bf98 fa3f 11dd 0940 c7ee 96be
00000040: 8c8e b3bf 334d a73f ff95 9ebf d039 97be
00000050: 658d 7abf 3c86 ec3f e7a4 483f 2270 6abf
00000060: ec5a b4bf 819c b7be fc96 bbbf 2fa3 1a40
00000070: f852 6a3f 9a1a 1d40 9565 f33f 9da9 b0bf
00000080: b851 fb3f 6825 823f 7a53 7dbf a18c 723f
00000090: 6612 1340 bd8f afbe b297 0c40 ea9a 81bf
000000a0: ea38 0440 1ada f5bd a373 0040 96d6 673f
000000b0: a287 6fbf 2dc2 5abf cb6b 0940 4a63 2c40
000000c0: 01ec ddbf 24ee 1740 b9c6 29bf d855 cbbe
000000d0: e3dc b33f d619 60bf 4ed0 f23f 85f0 9a3d
000000e0: 339c f9be 9eb8 0bbf f61e cf3f 831b f03f
000000f0: bf2a dd3f a058 853f f477 1640 bf30 2040
00000100: f821 0740 4f5b d1bf be22 a9bf 0ff3 afbf
00000110: 7775 c03f 1f26 a23f 68dd c5be 572a 4b3f
00000120: 8640 ac3f 82f8 8d3f 4ef5 2540 0ab6 2240
00000130: 1223 85bf 5523 8cbf 14c0 f23f c7ea ec3f
0.16632546 -1.2161405 -0.6049057 1.5269386 -1.2790871 1.2095224 -0.51844764 1.7662808
-0.9812483 1.3860689 -1.0462359 0.48027962 -0.98428303 1.9577864 2.1541178 -0.29479048
-1.4027877 1.3070434 -1.2389525 -0.29536295 -0.97872 1.8478465 0.7837662 -0.9157735
-1.4090247 -0.3586159 -1.4655452 2.41621 0.9153285 2.4547486 1.9015375 -1.3801762
1.9634314 1.0167665 -0.989555 0.9474583 2.297998 -0.3428935 2.1967587 -1.0125401
2.0659738 -0.1200449 2.007058 0.9056181 -0.93566334 -0.8545254 2.1472042 2.6935601
-1.7337648 2.37391 -0.6631885 -0.3971393 1.4051784 -0.8753942 1.896982 0.07565407
-0.48751983 -0.5457858 1.6181324 1.8758396 1.727867 1.0417671 2.3510714 2.5029752
2.1114483 -1.635599 -1.3213727 -1.3746051 1.5035847 1.2667884 -0.38645482 0.7936148
1.3457191 1.1091464 2.5930972 2.5423608 -1.0401328 -1.0948282 1.8964868 1.8509148
