models/neural_networks/regression/2023-11-27_13:57:40/NN_model.pt (torch, 37575 bytes, 13 tensors)

model.0.weight f4 [80, 11]
000000 e0 f4 6f be 68 e0 95 3e 5a 38 3e be 3f 03 6a 3e
       -0.23433256 0.2927277 -0.18576184 0.22852801
000010 44 6c 18 3e 65 35 0b bd e8 80 01 be 16 14 bc bd
       0.1488505 -0.033986468 -0.1264683 -0.091835186
000020 a7 3b 5f 3e ac 47 8f 3e 28 51 17 be fd c8 4c be
       0.218001 0.2798437 -0.14777052 -0.19998546
000030 52 c0 99 3e 34 09 07 3e 34 56 8d be fc 62 6c be
       0.3002954 0.13187104 -0.2760483 -0.23084635
000040 7d 62 12 be 96 ee e5 3d 04 50 b6 3d a0 de 88 3e
       -0.14295383 0.11227147 0.089019805 0.2673235
000050 f5 65 6f 3e d9 64 5b be 57 3d e5 bd ee bf 63 be
       0.23378737 -0.21425189 -0.1119334 -0.22241184
000060 92 31 56 3e e2 23 73 3e 34 30 67 bd b9 35 05 be
       0.20917347 0.23744157 -0.056442454 -0.13008775
000070 47 c5 a5 3d 40 fc 63 be 88 f7 61 bd e2 8b c9 bb
       0.08094268 -0.22264194 -0.055167705 -0.0061507085
000080 d3 ff 6d be 6d 20 06 be 50 3f 8d bc d5 da cf 3c
       -0.2324212 -0.13098307 -0.017242104 0.025372902
000090 cb 2c 69 3e 5c 85 b3 bd 28 35 f3 3d b4 39 19 be
       0.22770993 -0.08765671 0.11875373 -0.14963418
0000a0 dd 60 3a bd 65 7e 88 be 43 6c 80 be 8b 8c 59 3e
       -0.045502532 -0.2665893 -0.25082597 0.21245019
0000b0 81 ac f4 bc c1 f0 1c be 62 74 94 3e eb f2 4c 3e
       -0.029867413 -0.15326215 0.28995043 0.20014541
0000c0 df 9f f0 bd 9c 19 b4 3c 6a 74 64 bc 32 70 6a 3e
       -0.11749243 0.021984868 -0.013943771 0.22894362
0000d0 32 f1 17 3e 43 06 b7 bd 16 ef 3d be 99 f7 f3 bc
       0.14838102 -0.08936741 -0.18548235 -0.02978115
0000e0 fd b5 52 3e 31 05 82 bc f4 79 51 3e 98 ab 86 3e
       0.20577236 -0.015871616 0.20456678 0.2630279
0000f0 65 fd c1 bd 6f b9 74 3e b9 2a 6a be e9 2e 14 3d
       -0.09472159 0.23898862 -0.2286786 0.03617755
000100 f2 12 88 be 12 07 42 3d 06 f4 4d be 93 da c4 3d
       -0.26576954 0.047370024 -0.20112619 0.09612002
000110 cb 86 99 be 53 62 4b 3d a4 b3 45 bd fb a0 23 3e
       -0.2998565 0.049654316 -0.04826702 0.15979378
000120 2a cb 36 be c5 24 59 3e 5b cc 6b be d7 65 c4 bd
       -0.17850938 0.21205433 -0.23027174 -0.09589737
000130 30 ef 1f bd df 2d 3e 3c 9d 51 24 3c ba e6 1e be
       -0.039046466 0.011607616 0.010029224 -0.15517703
000140 92 45 a5 be 98 2f 36 bc e0 c8 79 be 42 1e 1b 3e
       -0.3227964 -0.011119746 -0.24393034 0.15148261
000150 6f 7d 95 bd 48 a2 53 3e 6b 50 8f be 04 35 8c 3e
       -0.07299315 0.20667374 -0.27991042 0.27384198
000160 61 3d 58 3e 2c 3b c5 3d 20 e0 3a be 00 39 15 bc
       0.21117164 0.09630427 -0.1824956 -0.009107828
000170 70 30 2e 3e b8 94 60 3d fa 1c 86 bc b0 f0 d5 bd
       0.17010665 0.05482933 -0.016371239 -0.10446298
000180 13 2a 93 bc 7b 86 87 3e 01 78 06 3c 6d 9d 99 bc
       -0.017964398 0.26469788 0.008207322 -0.018751824
000190 c9 16 63 be fc db 80 3e 62 d8 8a be 3c 9b 22 3e
       -0.2217666 0.25167835 -0.27118212 0.1587953
0001a0 c3 72 86 be f8 fc 75 be 06 d1 0c 3e fc 23 76 3e
       -0.2625943 -0.24022281 0.13751611 0.24037164
0001b0 a6 e8 57 3d be a3 01 be 78 39 f8 bd 6a 86 a4 3d
       0.052712105 -0.12660119 -0.12120336 0.0803345
0001c0 bf 04 95 3e 42 6d ca bc 04 61 4b be 50 23 3f 3e
       0.29105183 -0.024710301 -0.19861227 0.18665814
0001d0 a5 b4 8b be 6a 6d 32 bd 2f cf 8c 3e 26 77 33 be
       -0.27286258 -0.043561377 0.2750182 -0.1752592
0001e0 60 52 b7 bd eb 1c b5 3d 09 94 04 be 07 ac 62 3e
       -0.08951259 0.08843406 -0.12947096 0.22135936
0001f0 b8 49 25 3e 36 6c 71 be 65 4a 6a be 9f 00 a9 bd
       0.16141403 -0.23576435 -0.22879942 -0.082520716
000200 87 dc 2a be 10 2f 5c bd be 64 77 be f7 ad 6f bd
       -0.16685687 -0.05375582 -0.24159524 -0.058515515
000210 26 f4 16 be 49 47 2a 3c 49 3e 9b be fe e3 d5 3c
       -0.14741573 0.010392972 -0.30320957 0.026109692
000220 9b 40 17 be 16 ee 8a 3e 40 55 90 be 9b 59 89 be
       -0.14770739 0.2713477 -0.2819004 -0.26826176
000230 af f4 4d be d9 c8 ed bd cb 48 9b bc b2 c1 79 3d
       -0.2011287 -0.11610574 -0.018955609 0.060975738
000240 20 e8 92 be 8e 65 b5 bd 66 3a 37 be 27 f5 54 be
       -0.28692722 -0.08857261 -0.17893371 -0.20796643
000250 32 d6 b5 3d 83 47 bb 3d 6f 32 33 bd 98 28 f9 bb
       0.08878745 0.09144499 -0.04374927 -0.007603716
000260 0a 26 20 3d 3c eb 23 bc 89 fd 86 be 7e da 5b be
       0.039098777 -0.010004815 -0.26365307 -0.21470067
000270 98 52 bd 3d 80 5a 5f 3e d8 01 82 3e 4d c4 99 3e
       0.09244269 0.21811867 0.25392032 0.30032578
000280 5a 58 75 3e b0 e9 39 be c6 68 89 be 2d c0 96 be
       0.23959485 -0.18155551 -0.26837748 -0.29443493
000290 62 87 24 be bc 3d 94 be b9 98 31 3e 3c 64 3b be
       -0.1606727 -0.2895335 0.17343415 -0.18299955
0002a0 45 06 82 3e ad a8 f9 bd aa ee 2f 3e 3d a0 07 3e
       0.25395408 -0.121903755 0.17180887 0.1324472
0002b0 92 8b 2e bd a1 ef 77 be 0a e1 00 be 57 e0 8e 3c
       -0.042613573 -0.24212505 -0.12585846 0.017440958
0002c0 16 77 91 be 20 8b 5e be 37 00 c2 3d 6f e5 1f be
       -0.28411168 -0.2173276 0.09472697 -0.15614866
0002d0 ea 47 90 3e f7 54 34 3d 7c 37 ba 3d 4e 00 54 be
       0.28179866 0.04402634 0.09092614 -0.20703241
0002e0 ce 9d 43 3c 95 6a 99 3e 5a 04 a3 3d d0 e4 a2 3d
       0.011939479 0.29964128 0.07959814 0.07953799
0002f0 94 c4 92 3e 20 6b 92 be 1a 06 e5 3b 7b 07 2b 3e
       0.28665602 -0.28597355 0.0069892528 0.16702072
000300 fd 9b 53 be 07 96 97 3b b0 ee 0b 3e ab 23 8e 3d
       -0.20664974 0.004626039 0.13665271 0.06940397
000310 1c 70 2e be d1 2c 74 be 84 b5 0b be 57 c6 74 be
       -0.17034954 -0.23845221 -0.13643461 -0.23903786
000320 b1 70 d8 3d ba 76 1d 3e e5 85 99 be a4 64 c6 b9
       0.10568369 0.15377322 -0.29984966 -0.00037840486
000330 c7 94 f1 3d a6 30 8e 3d b2 de bf bd d0 2d 44 be
       0.11795955 0.06942873 -0.09368648 -0.19158101
000340 d5 1b b2 bc 6f a2 83 3e f3 3d ee 3d 49 db 46 be
       -0.021741787 0.25709864 0.116329096 -0.19419588
000350 aa 1c 20 be 3b 75 0a be 04 0f 27 3e 50 64 0d be
       -0.15635934 -0.13521282 0.16314322 -0.13807797
000360 a4 cd 05 be 72 a8 06 3e ab 63 dc bc 24 2e e7 bd
       -0.13066727 0.13150194 -0.026902994 -0.112880975
000370 eb 8b 7a bc 79 f2 2b 3e 37 2d 19 3e 4b 21 11 be
       -0.015292148 0.16791715 0.14958654 -0.14172857
000380 a8 2e a0 be 67 a7 eb 3d 82 b0 43 3e 42 cb 28 be
       -0.31285596 0.11506539 0.19110301 -0.16483787
000390 3d 61 88 3e 2d cf 5d be c3 0b 0c 3e 0e 9e 93 3e
       0.26636687 -0.21661063 0.13676362 0.28831524
0003a0 c5 cb 1c 3d 89 90 0f 3e f6 9f 3a be 53 32 a7 bd
       0.038280267 0.1401998 -0.18225083 -0.081638955
0003b0 cf 42 98 3e ec d4 94 3d b3 62 15 be 1b 0d bd 3d
       0.2973847 0.07267174 -0.14588432 0.09231015
0003c0 1e f0 03 be 94 d6 12 3e 35 48 1a 3e 17 e7 41 be
       -0.12884566 0.14339668 0.15066607 -0.1893581
0003d0 02 34 80 bd 6c bf 16 3e 1f 1b 2c be 84 e7 89 be
       -0.0625992 0.14721459 -0.16807221 -0.26934445
0003e0 e4 14 59 3d 12 d8 80 be 74 49 d6 3d fa 43 98 3c
       0.05299844 -0.2516485 0.10463229 0.018587101
0003f0 7a 5e 92 3e df 32 95 be dc 99 25 3e 9f 85 85 be
       0.28587705 -0.29140374 0.16171974 -0.26078507

model.0.bias f4 [80]
000000 12 d5 0c 3e 44 c7 5e 3e d0 20 8a 3e b5 c2 91 be
       0.13753155 0.21755701 0.2697816 -0.28468862
000010 11 f9 7e 3c db e3 26 3e 78 f6 5a be 26 1a 6d 3e
       0.015562312 0.16297857 -0.21383083 0.23154506
000020 a9 86 20 3e 1b cd 58 3e 5a 33 35 3e 57 f1 a6 3d
       0.15676369 0.21171992 0.1769537 0.08151501
000030 fe 9b e4 3b 1d 5e a7 3d 87 6f 2b 3e 84 c7 5d be
       0.0069766035 0.081722476 0.16741763 -0.2165814
000040 11 eb b3 3d 04 3d 80 3d 7c 6f 29 3d e7 2c 75 3e
       0.0878507 0.06261638 0.041366085 0.2394291
000050 f2 a3 82 be b9 7c 79 be ae 1b 48 3e 86 ab f2 3c
       -0.25515705 -0.24363984 0.19541809 0.029622804
000060 68 ed 6d bd c7 d0 8b 3e ab 18 33 be 61 06 7b be
       -0.058087736 0.27307722 -0.17489879 -0.24514152
000070 b2 cc dd 3d 01 c3 66 bd ec b4 cd 3d 06 42 6a 3e
       0.10830058 -0.056338314 0.10044274 0.22876748
000080 6a 77 e1 3d c8 3b 80 38 6e ff 58 3d bb e3 07 bd
       0.110091045 6.114651e-05 0.05297797 -0.033176165
000090 0e f8 5f be e3 12 2e 3e 64 80 5a 3e 2f d5 4a 3e
       -0.21871969 0.16999392 0.2133804 0.19807886
0000a0 b0 57 31 3e c7 98 81 be 89 db a6 3d b6 90 93 be
       0.17318606 -0.25311872 0.08147342 -0.28821343
0000b0 1c 9f 57 be 21 a8 6e 39 3b f0 98 be ab 41 84 3e
       -0.21056789 0.00022760082 -0.2987078 0.2583135
0000c0 73 9b 70 be a2 10 8e 3e a1 0a b3 bc a0 8d 87 be
       -0.23496799 0.27747065 -0.021855654 -0.2647524
0000d0 8d 9f 2f be 42 01 25 3e 0d 92 77 3e ec 0b 63 be
       -0.17150708 0.16113761 0.24176808 -0.22172517
0000e0 df a4 5c 3e e0 ca bc 3d 6b 87 bf bd b9 14 82 be
       0.21547268 0.09218383 -0.09352001 -0.25406435
0000f0 31 1b 8f be 28 ff 91 3e 68 3f 5f 3e 98 57 32 be
       -0.27950433 0.2851498 0.21801531 -0.17416227
000100 93 1f 8e be bb b3 91 3d 89 4b 0c be 31 d1 6a be
       -0.27758464 0.07114359 -0.1370069 -0.22931363
000110 52 e4 05 be cb d9 8c be b0 76 0c be 0c 33 b5 3d
       -0.13075379 -0.27509913 -0.1371715 0.08847627
000120 fd f3 6b 3e 68 20 ef bd 9d 22 94 3e da 08 84 bd
       0.23042293 -0.11676103 0.28932658 -0.06447001
000130 05 97 7b 3e 3b 96 8f be 8f 63 7b be 11 9c 93 3d
       0.24569328 -0.28044304 -0.24549697 0.07207502

model.2.weight f4 [80]
000000 b4 d7 7f 3f 59 40 80 3f b8 f6 7f 3f 45 6a 80 3f
       0.9993851 1.0019637 0.9998584 1.0032431
000010 d0 70 7f 3f d0 b5 7e 3f 3f f2 7f 3f 90 aa 7f 3f
       0.99781513 0.99496174 0.99979013 0.9986963
000020 48 1d 81 3f 41 31 80 3f 08 b8 7e 3f ce 41 80 3f
       1.0087061 1.0015031 0.9949956 1.0020082
000030 3f 24 80 3f 39 56 80 3f be 53 80 3f 83 7a 7f 3f
       1.0011061 1.0026313 1.0025556 0.99796313
000040 96 18 80 3f 30 d5 7f 3f dc 16 7f 3f de e5 7f 3f
       1.0007503 0.99934673 0.99644256 0.99960124
000050 c1 c4 7e 3f 54 13 80 3f b9 30 80 3f 72 68 7e 3f
       0.9951897 1.0005898 1.0014869 0.9937812
000060 1f 20 80 3f 57 ba 7f 3f b1 be 7f 3f 2e 26 80 3f
       1.0009803 0.9989371 0.99900347 1.0011652
000070 54 8a 7f 3f 83 0d 80 3f 92 a1 80 3f d4 5d 80 3f
       0.99820447 1.0004123 1.0049307 1.0028634
000080 b2 28 7f 3f 76 2a 80 3f 00 8d 7f 3f 8b 18 80 3f
       0.9967147 1.0012958 0.99824524 1.000749
000090 96 21 80 3f 3d 16 7f 3f 56 61 80 3f 0e da 7f 3f
       1.001025 0.9964331 1.0029705 0.999421
0000a0 df 17 80 3f f0 1d 80 3f ab 10 80 3f d8 0b 80 3f
       1.0007285 1.0009136 1.0005087 1.0003614
0000b0 93 89 80 3f ea df 7f 3f 74 fd 7f 3f da 41 80 3f
       1.0041984 0.9995104 0.99996114 1.0020096
0000c0 bf 3a 80 3f 15 38 7f 3f 99 18 80 3f c6 b2 7f 3f
       1.0017928 0.9969495 1.0007507 0.9988216
0000d0 e1 73 7f 3f 54 47 80 3f 80 4c 7f 3f 0c 9a 80 3f
       0.9978619 1.0021768 0.99726105 1.0047011
0000e0 41 95 7f 3f 1c 25 7f 3f bb f2 7f 3f 20 4e 7f 3f
       0.9983712 0.99666 0.9997975 0.99728584
0000f0 9a 84 7f 3f e1 1e 80 3f 8e 41 80 3f f4 1a 80 3f
       0.9981171 1.0009423 1.0020006 1.0008225
000100 b7 25 7f 3f 71 22 80 3f 35 c0 7f 3f cb 46 80 3f
       0.99666923 1.0010511 0.9990266 1.0021604
000110 35 5b 7f 3f dc ba 7f 3f 02 5d 7f 3f 88 4e 80 3f
       0.99748546 0.998945 0.99751294 1.0023966
000120 d1 c0 7f 3f c5 3e 80 3f 09 42 80 3f 2d d2 7f 3f
       0.9990359 1.0019156 1.0020152 0.9993008
000130 f5 01 80 3f 9a 46 7f 3f f8 3c 80 3f 99 2b 80 3f
       1.0000597 0.99717104 1.0018606 1.0013305

model.2.bias f4 [80]
000000 70 69 a4 ba ed 82 8a b9 ab 30 4c bb 62 c2 99 3a
       -0.001254363 -0.00026418958 -0.0031156938 0.0011730904
000010 c8 07 2a 3b f0 50 14 bb d9 63 b2 3a 8c 22 00 bb
       0.002594458 -0.002263125 0.0013610079 -0.0019551842
000020 13 9d a3 ba 85 29 e0 3a 33 1e af b7 45 c5 11 3b
       -0.0012482725 0.0017102218 -2.0875688e-05 0.0022242826
000030 f2 6f 7f bb 0b 5b bb ba a4 6b a3 ba aa f7 15 3b
       -0.0038976637 -0.0014294101 -0.0012467992 0.0022883215
000040 ef ba 67 ba 79 5f d5 ba 17 27 05 3b b0 34 04 3b
       -0.0008839806 -0.0016279063 0.0020317489 0.0020173006
000050 53 ce 23 ba 1e c0 84 ba 9a ab 47 3a bd 88 49 3b
       -0.0006248701 -0.0010128056 0.0007616818 0.0030751668
000060 07 e3 d6 ba 0a 41 af b9 1b e3 0c bb 69 c3 99 39
       -0.0016394564 -0.0003342706 -0.002149767 0.00029328026
000070 4a 3b 1f bb 0a 85 a4 39 2e 49 45 ba 82 e9 a2 3a
       -0.0024296814 0.0003137964 -0.0007525858 0.001242921
000080 2d d4 71 39 1c 5d 1b 3b 12 3c d8 3a 93 66 f1 3a
       0.00023062593 0.002370662 0.0016497395 0.001841741
000090 32 43 0e b9 3a 80 10 3b de 05 30 bb f9 52 0e 3a
       -0.00013567207 0.0022049085 -0.0026858966 0.0005429234
0000a0 2d 5a a2 3a 7a 53 c3 38 67 58 d2 39 12 1e 48 39
       0.0012386494 9.313873e-05 0.00040120186 0.00019084688
0000b0 d0 a3 44 ba 9c 4b 0a bb 59 0f 1f bb 4a d3 ba 3a
       -0.00075012166 -0.0021102196 -0.0024270623 0.0014253643
0000c0 99 e2 10 b9 c6 29 77 3a af 8a 17 39 e0 f9 5b 3a
       -0.00013817324 0.0009428527 0.00014452146 0.0008391421
0000d0 ae 88 30 3b 26 2f 46 3b a6 7e 57 3a 02 5b 14 bb
       0.0026936936 0.0030240505 0.0008220471 -0.0022637253
0000e0 91 24 46 3b dc 4b 09 bb aa 6f 17 3a b3 93 02 3b
       0.0030234198 -0.0020949757 0.0005776832 0.0019924461
0000f0 07 14 1a 3b 4f 68 e8 3a 90 2c 02 bb c4 ad 42 bb
       0.0023510472 0.0017731282 -0.0019862987 -0.0029705623
000100 dc 81 78 ba 80 fe 58 39 ad 4c 5c bb ef ce 65 3b
       -0.00094798 0.00020694174 -0.0033615038 0.003506597
000110 70 c7 05 bb 87 d1 40 3a 19 7c 1f bb 37 9c 4a 38
       -0.0020413063 0.0007355441 -0.0024335443 4.830604e-05
000120 cc 68 c5 3a 0b af ec 3a f3 0f 84 ba f0 11 72 bb
       0.0015061139 0.0018057538 -0.0010075554 -0.003693696
000130 fc c3 eb ba 29 5c f6 ba df 9a 27 ba d6 7d f8 3a
       -0.0017987485 -0.0018795776 -0.0006393622 0.00189584

model.2.running_mean f4 [80]
000000 fc 0c a0 3e 83 56 a4 3e 4d 04 b4 3e 09 6f e2 3d
       0.31259906 0.32097253 0.3515953 0.110563345
000010 b1 39 29 3e c3 b4 8e 3e 37 f7 9f 3d 63 4f c2 3e
       0.16525914 0.27872285 0.07810824 0.37951192
000020 c4 3b 6a 3e d8 6b 91 3e 50 f0 65 3e 23 e2 83 3e
       0.22874361 0.2840259 0.22454953 0.25758466
000030 aa fd 82 3e d1 27 37 3e 09 fb cf 3e 29 d1 94 3d
       0.25584155 0.17886283 0.40621212 0.07266457
000040 27 a7 8c 3e 4d 19 31 3e 04 41 43 3e b3 9f 86 3e
       0.27471277 0.17294808 0.1906777 0.26293716
000050 72 86 a2 3d 7e 19 ae 3d ca 3d 9f 3e e0 91 41 3e
       0.079358 0.08500956 0.3110183 0.18903303
000060 ff e2 57 3e 62 02 b4 3e 11 7c 20 3e 42 65 b2 3d
       0.21082686 0.35158068 0.15672328 0.0871072
000070 ef 7b 95 3e 18 98 5f 3e b9 d7 8f 3e 52 e6 9d 3e
       0.29196116 0.21835363 0.2809427 0.30839783
000080 0d 18 7d 3e 3a ea 26 3e 0b bf 3b 3e 21 f1 e3 3d
       0.24716206 0.16300288 0.18334596 0.11129976
000090 0c a5 cc 3d ea 20 e3 3e 04 1b 9a 3e 89 b4 aa 3e
       0.09992418 0.4436105 0.30098736 0.33340862
0000a0 78 09 94 3e a5 69 79 3d a8 98 60 3e 8e bc 7e 3d
       0.28913474 0.060891766 0.21933234 0.06219154
0000b0 e4 df bc 3d f1 49 84 3e c8 a2 a8 3d 1a 0c ad 3e
       0.09222391 0.25837663 0.08234173 0.33798295
0000c0 5f a8 b6 3d 7f 5c bc 3e c7 64 6c 3e ec 33 d0 3d
       0.08918833 0.3678932 0.23085319 0.10166153
0000d0 f3 c9 01 3e a0 ac 73 3e a0 f9 ba 3e 30 ea 6e 3e
       0.12674694 0.2379632 0.36518574 0.23331523
0000e0 d9 99 ad 3e 75 cf 5f 3e cd a1 18 3e 34 43 be 3d
       0.3390644 0.21856482 0.14905472 0.09290162
0000f0 2e 87 d8 3d 8f 36 c1 3e 14 5a a0 3e 0b 7a 31 3e
       0.105726585 0.37736937 0.31318724 0.17331712
000100 36 9b 91 3d 33 27 74 3e 05 fb 1b 3e 62 e0 1b 3e
       0.07109682 0.23843078 0.15232475 0.15222314
000110 18 31 2a 3e 3e 00 36 3d ac cd 08 3e 63 6e 52 3e
       0.1662029 0.044433825 0.13359708 0.20549922
000120 cd 45 bd 3e 6d 89 2b 3e 2f b6 bd 3e 66 1f 01 3e
       0.36967316 0.16751643 0.37053058 0.12609634
000130 9b 23 a7 3e fa fd 90 3d 58 d5 a1 3d fa 4d 2d 3e
       0.32644352 0.07079692 0.0790202 0.16924277

model.2.running_var f4 [80]
000000 25 83 f7 3d 55 c8 48 3e f3 f1 00 3e 7c b6 56 3d
       0.12085561 0.1960767 0.12592296 0.052420124
000010 1f 2a 50 3d 7e b7 c0 3d 7b 17 cb 3c 9f 55 84 3e
       0.05082142 0.09409998 0.02479147 0.25846574
000020 fb 62 a0 3d aa 71 f2 3d cf 53 ce 3d 01 57 80 3e
       0.07831379 0.11838086 0.10074579 0.2506638
000030 58 8e 3e 3e 64 6f 7e 3d 36 77 34 3e 86 72 c8 3c
       0.18608987 0.06211795 0.176236 0.024468672
000040 45 50 a8 3d 8f bc 6d 3d 1f 09 76 3d ea 10 f4 3d
       0.08218435 0.05804115 0.060067292 0.119172886
000050 ba 04 79 3d 14 6e 99 3d 01 be 89 3e f9 86 be 3d
       0.060795523 0.07491699 0.26902774 0.09303088
000060 85 4b 60 3e 60 98 11 3e 69 15 24 3e 5a 0b f7 3c
       0.21903808 0.14218283 0.16023792 0.03015678
000070 da a1 af 3d 39 c7 81 3d d3 1e e2 3d e0 c0 ef 3d
       0.085757926 0.06336827 0.110410355 0.1170671
000080 63 6e 0b 3e a2 09 80 3d 27 7d cb 3d 9a 2c 78 3d
       0.13616328 0.06251837 0.0993598 0.06058941
000090 74 7a 90 3d f9 fc 65 3e 85 19 e7 3d 8e ef cf 3d
       0.07054606 0.22459783 0.11284164 0.10153113
0000a0 7f 2f cf 3d 82 e5 9e 3c 1b 1d 83 3d 05 36 11 3d
       0.10116481 0.019396547 0.06402036 0.035451908
0000b0 4e ca 00 3d bb f3 cc 3d 73 6b 18 3d ab 10 77 3e
       0.031442933 0.100074254 0.037211847 0.24127452
0000c0 79 74 61 3d 34 8c 95 3e 16 a1 38 3e e4 1d 93 3d
       0.055042718 0.2920853 0.180302 0.071834356
0000d0 b0 d8 f3 3c e2 e4 b2 3d 62 66 f3 3d 5b 8f 9c 3e
       0.02976641 0.08735062 0.11884762 0.30578122
0000e0 1d e9 a8 3d dd 44 ce 3d 48 a3 73 3d ec ee 43 3d
       0.08247588 0.100717284 0.05948189 0.047835276
0000f0 34 4b 37 3d a0 81 8e 3e ee 43 f4 3d cc c7 3e 3e
       0.044749454 0.2783327 0.11927019 0.18630904
000100 e2 cd dd 3c b6 2e f8 3d a5 77 e4 3d 8d 61 13 3e
       0.027075712 0.121182844 0.11155633 0.14392681
000110 34 78 86 3d 92 be 92 3c 1e 30 86 3d ec 38 8b 3d
       0.06565896 0.017913137 0.065521464 0.06797966
000120 be b5 13 3e 5f 72 d2 3d e5 a6 e3 3d 07 b8 72 3d
       0.14424798 0.10275721 0.11115817 0.059257533
000130 d3 70 45 3e 95 6a 48 3d 99 33 a4 3c 3f 48 1e 3d
       0.1928132 0.04892977 0.020044135 0.038643118

model.3.weight f4 [80, 80]
000000 d7 1c 88 3d 27 41 10 bd a0 a1 47 bd a0 b2 e1 bd
       0.06646126 -0.035218384 -0.048738122 -0.11020398
000010 a7 c6 5d bd da ae c4 bc 03 86 a4 bc b5 7d 53 3c
       -0.054144528 -0.024009157 -0.020083433 0.012908389
000020 cd 00 fe 3c 8b 81 a4 bd 67 de 63 3d fa 0a 51 3d
       0.031006241 -0.08032521 0.05563202 0.05103586
000030 bf c2 1f bd e9 e1 82 3d 47 41 56 3d 0f 9b 4f 3d
       -0.039004084 0.06390745 0.052308347 0.050684985
000040 0b 96 46 3b 17 0c e4 bd 67 6f 3c 3c 15 38 cd bd
       0.0030301835 -0.111351185 0.01150117 -0.100204624
000050 76 53 b9 3d 87 3e ce bc 27 b8 ab bd 17 21 69 3d
       0.09049122 -0.0251763 -0.08384734 0.056916323
000060 dd 4b aa 3d d9 44 6b bd e1 44 84 bd 43 8c ce bd
       0.08315251 -0.057438705 -0.0645845 -0.100853465
000070 16 ae ce bc c0 d9 51 bb d7 96 f6 3c f6 ea 82 3d
       -0.025229495 -0.0032020658 0.030101223 0.063924715
000080 83 a8 c1 bd fe 73 5e bc 75 a3 a0 bd 86 25 ab 3d
       -0.09455969 -0.013577459 -0.07843677 0.083567664
000090 1d 45 92 3d 06 86 60 3d d6 a2 7e 3d b3 57 c7 3d
       0.071420886 0.054815315 0.06216701 0.09733524
0000a0 9e c5 49 bd 00 68 c0 3d 37 a5 8b bd 3e 2e 95 3b
       -0.049260728 0.093948364 -0.068186216 0.0045526316
0000b0 e4 30 82 bc cd 25 a3 bd 58 4b 9e bd af c8 c1 3d
       -0.015892453 -0.07966194 -0.077292144 0.094621055
0000c0 27 17 c9 3d 3c 00 97 bd de 94 a8 3c f7 08 02 bd
       0.09818869 -0.073730916 0.020578798 -0.03174683
0000d0 13 e1 aa 3d bd aa 1a 3c 75 1d 42 3d 15 de 3f bd
       0.08343711 0.009440121 0.047391374 -0.046842653
0000e0 65 48 98 bd 91 82 13 3d c1 4b 1a 3d 63 34 91 3d
       -0.07435683 0.03601319 0.0376699 0.0709007
0000f0 f5 e4 23 bd 99 13 e2 3d eb cf 8c bd 65 69 2f 3d
       -0.040013272 0.11038894 -0.06875595 0.04282512
000100 3c 74 d0 3c bc 9b fe bc 43 8f 85 bd 6a f0 8d 3d
       0.02544605 -0.03108012 -0.06521466 0.06930621
000110 a4 ea d6 3d 87 e6 e4 3c 95 28 82 3d dc 0a 29 3d
       0.10493973 0.027941955 0.06355397 0.041270122
000120 7b 80 6f 3c 11 27 0a bc 34 0d dc 3b 7c 42 a3 3d
       0.0146180345 -0.008432166 0.006715441 0.07971665
000130 a4 20 29 bd d8 5a b5 bc f6 19 ab 3d 0f 00 44 3b
       -0.041290894 -0.022138044 0.08354561 0.0029907261
000140 ea 74 b7 3d d4 24 d0 3c f2 6c 00 3e 1c b9 7b 3c
       0.089578465 0.025408186 0.1254156 0.015363958
000150 79 b4 28 bd d1 96 5f 3d 78 a2 57 bc 4e dc 7b 3d
       -0.041187737 0.05458719 -0.013161294 0.061489396
000160 c8 9f e7 3d 0b 15 28 3d c9 a4 a2 3d a1 73 b1 bc
       0.11309773 0.041035693 0.079415865 -0.021661581
000170 51 f5 30 3c 92 cd 76 bd 3c e5 c0 3d b2 04 9d bd
       0.0108006755 -0.06025464 0.09418723 -0.07666911
000180 2d 5e cf bc 68 d6 8f 3d 3b cc 80 bd b9 11 c8 bd
       -0.025313461 0.070233166 -0.06288954 -0.09769005
000190 0f 93 38 3d dd 7e c0 bc 15 4e b0 3c 22 fa a0 bc
       0.04506212 -0.023497993 0.021521607 -0.019650523
0001a0 0b dd 9a bd b7 ac 33 3d ab 4c d2 3d db 0d 3e bd
       -0.07561692 0.043865886 0.102685295 -0.046399932
0001b0 7b 95 8f bd 13 b5 d3 bd f7 d5 79 3d 90 45 bb bd
       -0.07010933 -0.103372715 0.06099507 -0.09144127
0001c0 04 d1 0b 3d 98 4e 46 3c e5 02 f5 3d 7a 14 9e 3c
       0.03413488 0.012103699 0.11963443 0.019296873
0001d0 3c bf 4f 3c d1 0a e1 bd ed 14 70 bd cd a4 f9 bc
       0.012679871 -0.10988391 -0.058613706 -0.030474091
0001e0 e0 49 3f bc ae de ad 3d e6 7d b6 3c 08 ab a2 3d
       -0.011675328 0.084897384 0.02227683 0.07942778
0001f0 f8 49 91 3d d5 b0 49 3d 60 26 07 3d 01 76 bc 3d
       0.070941865 0.049240906 0.03299558 0.09202195
000200 78 84 cc 3d 8c f7 a1 bd 6b 63 46 3c 42 df 70 3d
       0.09986204 -0.07908544 0.012108664 0.058806665
000210 55 45 ca 3d 43 88 17 bd a9 47 86 bc c1 fa 9a 3d
       0.09876505 -0.036995184 -0.016391592 0.07567359
000220 9f 4d 6c bd e6 94 60 3b 56 22 58 3d 00 f5 b8 bd
       -0.057691213 0.0034268438 0.05276712 -0.09031105
000230 95 da 5c 3d 1c c9 ac 3d bb f9 54 3d 2a ab 9e 3c
       0.053919394 0.08436796 0.051995974 0.019368727
000240 8c e9 71 3d ab 2d 51 3c 7a 08 90 3d 83 de 1b 3d
       0.05906062 0.012767236 0.07032867 0.038054
000250 a3 6a 09 bd 0c f3 39 3d 47 5a 10 3c cb 38 c6 3c
       -0.033548962 0.045397803 0.008810586 0.024197003
000260 00 b8 6c 3d e6 17 78 bd 40 2c 2e bd 51 90 16 3d
       0.057792664 -0.060569666 -0.04252267 0.036758725
000270 b6 b3 8a 3d 24 cf 23 3c b0 6a 49 3d 3d c4 da bd
       0.067725584 0.009998117 0.04917401 -0.10681961
000280 5d 57 9b 3d 47 19 4a bb bf 22 9b 3d 6c 61 8d bd
       0.075850226 -0.003083782 0.07574987 -0.069033474
000290 fe 91 b6 bd bc 0a f7 bc de 55 53 3d ec 88 b9 3d
       -0.089145645 -0.030156486 0.05159556 0.09059319
0002a0 48 00 6b 3d dd df 93 bd 26 b5 0f 3d ac 02 a2 bd
       0.057373315 -0.07220433 0.035084866 -0.07910666
0002b0 8b 19 ba 3d cb 7b dc bd 38 f4 af bc 6c c3 fe bc
       0.09086903 -0.10765799 -0.021478757 -0.031099044
0002c0 a8 dd 6c 3d 8f e6 25 bd 6f 29 be 3d 55 6f 35 3d
       0.057828575 -0.04050308 0.092852466 0.044295628
0002d0 9e b5 44 bd a8 c4 2b 3d 66 8b e5 3d a8 f5 ba 3b
       -0.048024766 0.041935593 0.11208229 0.005705554
0002e0 0d 40 b4 3d 8c 9f 23 bd e0 c7 d3 3d da 92 5f bd
       0.08801279 -0.039947078 0.103408575 -0.054583408
0002f0 39 6b ae 3d ff 80 f8 bc 8f ab ce 3d 5b cf ad bd
       0.08516545 -0.030334948 0.10091316 -0.084868155
000300 6b 33 1e 3d 04 49 66 bd db c6 38 3d 16 91 d9 bd
       0.038623255 -0.056221977 0.04511152 -0.10623376
000310 a5 31 b4 bb b6 0c b2 bd 57 45 c5 3d 3f 0f ea 3c
       -0.005499082 -0.08693831 0.09632366 0.028571723
000320 2f a5 ee bc da 63 c9 bd bb f2 a8 3c 67 da 99 3d
       -0.0291315 -0.09833498 0.020623555 0.0751236
000330 06 c5 61 3d 4d d7 bb 3d 8c a6 02 3d f1 a8 92 3d
       0.055119537 0.09171925 0.031897113 0.07161129
000340 e5 85 9e 3d 4e 24 a5 3d c7 32 fc 3a ba b7 6e 3c
       0.07740382 0.08063565 0.0019241207 0.014570171
000350 56 a6 87 bd 84 fc b8 3d 36 16 b5 3d 16 6f 9b bd
       -0.06623523 0.090325385 0.08842127 -0.07589547
000360 eb 5a d0 3d 01 80 ad bd 10 9f d0 3d 03 fd a2 bd
       0.10173591 -0.084716804 0.10186589 -0.079584144
000370 e9 dc 34 bd 38 e2 c3 bd ce ea b1 bd 35 21 db bd
       -0.04415599 -0.09564632 -0.086873636 -0.10699693
000380 62 e9 b5 bc 54 3f d2 bd 8c bb 83 bc 24 69 46 3d
       -0.022206012 -0.10265985 -0.01608064 0.048440114
000390 8b 8b 4d 3d 3a 77 dc 3d bc 73 3c bd 92 4e 85 3b
       0.050181907 0.10764928 -0.04600881 0.004068204
0003a0 23 db a7 bc 44 00 cf 3d af c6 03 3d a7 25 20 bd
       -0.020490235 0.101074725 0.0321719 -0.039098408
0003b0 67 67 d7 3d a6 1b 66 3d dc ec 8d 3d 2c c1 89 3d
       0.10517769 0.05617871 0.06929943 0.06726298
0003c0 60 ff 91 3d 3c d0 9b bd da 82 38 bc f7 96 f7 3c
       0.07128787 -0.07608077 -0.011261666 0.030223353
0003d0 14 71 43 3c 7b 8c 62 bd 19 31 ca 3d 33 f7 2b 3d
       0.011928815 -0.055309754 0.09872646 0.041983794
0003e0 e3 92 b0 3d fb b6 a3 bd 32 8f 7c 3c c2 57 aa 3d
       0.086217664 -0.07993885 0.015415 0.0831752
0003f0 64 c1 99 bd 87 9e 89 bd 72 03 bf 3d ad 67 3f 3d
       -0.075075895 -0.0671969 0.09326829 0.046729732

model.3.bias f4 [80]
000000 be 9e c9 bc 41 21 8c bd 3f 61 53 3d bd fa 85 3d
       -0.024611827 -0.0684228 0.051606413 0.06541965
000010 26 de b0 bd 85 ad 97 bd 37 47 98 bb 45 be d4 bd
       -0.086361215 -0.07406143 -0.0046471613 -0.103878535
000020 10 82 70 bd b5 9f ae bd c4 c9 91 3d 3f 74 7d 3d
       -0.058717787 -0.085265554 0.07118562 0.06187844
000030 40 7e 8c bd 9e 93 e7 3d 63 44 2c bd 65 a9 a4 3d
       -0.06860018 0.113074526 -0.042057406 0.08040122
000040 6c 5d 50 bd eb f0 b3 3c 3c b7 a4 3d 59 1b e2 bb
       -0.050870344 0.021965465 0.08042762 -0.0069002328
000050 01 cd bf bd 48 78 dd bc f8 b5 b1 3d 87 a5 da 3d
       -0.09365273 -0.027034894 0.08677286 0.10676103
000060 f1 ea d7 3d 43 c7 ea 3c f3 76 4a 3d 5b 56 c7 bd
       0.105428584 0.028659469 0.049429845 -0.09733268
000070 0d 14 af 3d 8e 91 0b bd b4 fe a0 bd 76 b4 ac 3d
       0.08548746 -0.03407436 -0.07861081 0.08432858
000080 f2 47 b2 bd 88 18 b2 3c 05 d6 0c 3d ee 96 95 3c
       -0.08705129 0.021740213 0.034383792 0.018260445
000090 ad 44 dc bc b6 c1 be bd b8 8c 5c 3d 8a 52 7d bd
       -0.026888216 -0.09314291 0.053845137 -0.061846294
0000a0 b8 7e b5 3d 37 22 9d 3d c0 67 46 3d 19 f9 87 3d
       0.0886206 0.076725416 0.048438787 0.066393085
0000b0 d0 0f cc bb 5e 96 bb bd 3e 95 61 3d 11 81 c3 39
       -0.006227471 -0.0915954 0.05507397 0.0003728946
0000c0 98 11 b6 bd d7 a4 a0 bd a8 0e 38 bd a5 1f dc 3d
       -0.088900745 -0.07843941 -0.044935852 0.10748223
0000d0 b9 d1 d2 bd 11 f2 97 3d 68 bc 26 bd d5 1d d9 bc
       -0.10293908 0.074192174 -0.040707022 -0.026503483
0000e0 92 3d 27 bd e5 02 fb 3c f3 0f 88 3d 83 1d 3f 3d
       -0.040830202 0.030641029 0.06643667 0.046659004
0000f0 04 05 8a bc 97 9b 6c bd d0 5b 42 3d aa d4 e4 3d
       -0.016848095 -0.05776557 0.04745084 0.11173375
000100 8b 1c a7 3d 5d f9 46 3c e2 f4 84 bd 94 bf be 3d
       0.08159741 0.012144414 -0.0649202 0.093138844
000110 96 dd 7c bb 08 9b 42 3d 07 2c 83 3d b1 fa a2 3d
       -0.0038584224 0.04751113 0.06404882 0.07957972
000120 17 bc 81 3c 5b 1d 0c bd 20 c6 58 3d 5f 2f cb bc
       0.015836759 -0.034207683 0.05292332 -0.024802862
000130 bf b8 01 3d 75 93 81 bd 8b 15 85 bd 89 3d 84 bd
       0.03167033 -0.06326953 -0.064982496 -0.064570494

model.5.weight f4 [80]
000000 94 1e 7f 3f cb 88 7e 3f d6 05 80 3f ff e1 7f 3f
       0.99656034 0.9942748 1.0001781 0.9995422
000010 96 b1 7f 3f 2f 40 7f 3f c9 d5 7e 3f 5e 1f 7f 3f
       0.9988035 0.9970731 0.9954496 0.9965724
000020 53 f5 7f 3f d6 9a 7e 3f 89 f6 7f 3f 29 89 7f 3f
       0.9998371 0.9945501 0.9998556 0.99818665
000030 6b 2d 7f 3f 74 91 7f 3f fc ab 7f 3f 1a b6 7e 3f
       0.9967868 0.9983132 0.998718 0.99496615
000040 c3 92 7f 3f f4 d8 7e 3f d2 63 7f 3f 23 b6 7f 3f
       0.99833316 0.99549794 0.9976169 0.99887294
000050 19 14 80 3f 42 11 80 3f c6 eb 7e 3f 7a b1 7e 3f
       1.0006133 1.0005267 0.9957851 0.9948956
000060 7a 0e 80 3f d4 e5 7f 3f 26 80 7f 3f 05 02 7f 3f
       1.0004418 0.99960065 0.99804914 0.99612457
000070 fa 17 7f 3f 69 95 7f 3f 8a cb 7e 3f f2 08 80 3f
       0.9964596 0.99837357 0.99529326 1.000273
000080 df d5 7f 3f 50 04 80 3f 78 58 7f 3f 8d e0 7f 3f
       0.99935716 1.0001316 0.9974437 0.9995201
000090 7b c5 7e 3f 00 29 7f 3f 38 58 7f 3f a5 3f 7f 3f
       0.9952008 0.99671936 0.99743986 0.9970649
0000a0 f6 3b 7f 3f d5 c7 7f 3f 58 3f 80 3f 6c 07 80 3f
       0.9970087 0.99914294 1.0019331 1.0002265
0000b0 3c 00 7f 3f da b4 7f 3f 4f fc 7f 3f 85 d5 7f 3f
       0.9960973 0.9988533 0.9999437 0.9993518
0000c0 e8 fc 7f 3f 5d ae 7f 3f b7 3f 7f 3f 87 0a 7f 3f
       0.9999528 0.9987543 0.99706596 0.9962544
0000d0 f0 00 80 3f e7 6a 7f 3f 2e 75 7e 3f 8a 0d 7f 3f
       1.0000286 0.99772495 0.9939755 0.99630034
0000e0 bb 95 7f 3f e0 76 7f 3f 5c c6 7f 3f 08 0d 7f 3f
       0.99837846 0.99790764 0.9991205 0.9962926
0000f0 95 01 80 3f 5d 77 7e 3f d6 1b 7f 3f 08 98 7f 3f
       1.0000483 0.99400884 0.9965185 0.99841356
000100 77 72 7f 3f 18 a9 7f 3f 98 0d 80 3f aa e3 7f 3f
       0.99784034 0.9986739 1.0004148 0.9995676
000110 2f a3 7f 3f 8e 85 7f 3f d7 d4 7f 3f 40 dd 7e 3f
       0.99858373 0.99813163 0.9993414 0.9955635
000120 d0 da 7f 3f 57 ea 7f 3f 7b 8f 7f 3f ac a1 7f 3f
       0.99943256 0.9996695 0.9982831 0.99856067
000130 8c 41 7f 3f 1b b4 7f 3f 5b 4a 7f 3f 54 65 7f 3f
       0.9970939 0.99884194 0.9972283 0.9976399

model.5.bias f4 [80]
000000 ad 98 c7 bd 5f 62 da bd 7b 26 86 3c f3 09 d9 3c
       -0.097459175 -0.10663294 0.01637577 0.026494002
000010 71 fa f1 bc 48 dd 1e 3e 24 7b 95 bd 42 a7 06 3e
       -0.029538365 0.155141 -0.07298878 0.13149741
000020 92 f2 6e 3c f7 28 d0 bd 2c 12 88 3c 33 a5 09 be
       0.0145842 -0.101640634 0.016610228 -0.13441925
000030 27 c8 ad bd 53 18 e3 bd 33 b3 73 3d a7 57 ba bd
       -0.08485442 -0.11088624 0.05949707 -0.090987496
000040 8d d3 74 bd 35 9b 93 3d 56 87 c4 3d f7 3c c5 3d
       -0.059772063 0.07207338 0.09596126 0.09630769
000050 23 92 06 bd 3a a8 c1 3c 80 90 b4 bd ec 07 ff bd
       -0.03285421 0.023639787 -0.08816624 -0.12452683
000060 c4 cd 76 3d 06 4d 83 bd 72 05 23 bd 02 76 b6 bd
       0.060254827 -0.064111754 -0.039800115 -0.08909227
000070 5b 9b da 3d c3 41 94 bd 75 3f e6 3d 7c 07 1c bd
       0.10674163 -0.072391056 0.11242572 -0.038093075
000080 5a d9 f6 3c b7 0a 3a 3d 6f fe bb 3d 4a 3c e1 bc
       0.030132938 0.045420375 0.09179389 -0.027494568
000090 03 9f c1 3d 3e ab 8d bd 7f 97 cc 3d 3b c9 94 3d
       0.09454157 -0.069174275 0.09989833 0.07264944
0000a0 46 fb 8e 3d 43 2b 83 bd 0e e4 36 3d e2 a3 00 3d
       0.0698152 -0.06404736 0.044651084 0.03140629
0000b0 26 cd b1 bd 67 f5 1d bd 55 8e 8e bc 21 a9 9b 3d
       -0.08681707 -0.038564112 -0.017401854 0.07600618
0000c0 6c 15 8d 3b 5f 25 c2 bc 4e db 90 3d 20 3c ae 3d
       0.004305532 -0.02369946 0.07073079 0.08507562
0000d0 30 3a cd 3a cb 93 f1 3d b1 fe d8 3d ee 77 ba 3d
       0.00156576 0.117957674 0.105954535 0.09104906
0000e0 19 8a 34 bd cb 06 e0 bd 66 53 f7 bc 1b 15 da bd
       -0.044077013 -0.10938796 -0.030191135 -0.10648557
0000f0 66 8c cc bb e5 f2 f9 bd b6 c1 d3 bd a2 29 17 3d
       -0.0062423227 -0.122045316 -0.10339682 0.03690494
000100 23 6a 74 bd 6e 46 ed 3d fe 5c 08 be 85 bb 11 bd
       -0.059671532 0.11585699 -0.13316724 -0.035579223
000110 9c eb 62 3d 1e e0 46 bd 88 88 12 bd ef 33 ec bd
       0.055400476 -0.04855358 -0.035774738 -0.11533343
000120 0a 69 66 3c aa c9 80 3d 24 ac 1c bd c1 a0 6a 3d
       0.014063129 0.06288464 -0.038250104 0.057282213
000130 c5 a2 92 bd c8 bf b4 3d 65 d3 25 3e 45 c9 98 bd
       -0.07159952 0.08825642 0.16193922 -0.07460264

model.5.running_mean f4 [80]
000000 f0 9a 27 3e 75 38 61 3e a7 d8 71 3e 86 71 99 3e
       0.16367698 0.21994193 0.23617803 0.29969424
000010 94 73 3c 3e d2 48 54 3e 7c 93 56 3e 50 e2 20 3e
       0.18403465 0.20730904 0.20954698 0.15711331
000020 ef 85 18 3e 3a 8b 81 3e 62 ca 65 3e ef 9f 82 3e
       0.14894842 0.25301534 0.22440484 0.25512645
000030 e6 56 33 3e d2 96 89 3e c1 a3 40 3e c2 b6 7e 3e
       0.17513618 0.2687288 0.18812467 0.24874404
000040 03 3b 34 3e d1 29 65 3e b0 f0 7c 3e 88 f0 4b 3e
       0.17600636 0.22379233 0.2470119 0.19915974
000050 9e 07 5b 3e 45 dc 23 3e 73 0a 5d 3e 1a b3 5c 3e
       0.21389624 0.16001995 0.21586017 0.21552697
000060 ff d3 85 3e ec 1b 6f 3e d9 2a 71 3e 10 44 67 3e
       0.26138303 0.23350495 0.23551501 0.22584558
000070 96 63 73 3e 00 7a 65 3e 90 e6 5c 3e ba c4 85 3e
       0.23768458 0.2240982 0.21572328 0.26126653
000080 ed ca b2 3d 1c 7c 47 3e 42 0f 7f 3e 45 00 58 3e
       0.08730111 0.19480938 0.24908164 0.21093853
000090 30 3c 76 3e cc 37 0c 3e 5c af 89 3e 24 75 0a 3e
       0.24046397 0.1369316 0.268916 0.13521248
0000a0 a2 45 84 3e 5e 7e 66 3e b0 7f 72 3e 07 ef 81 3e
       0.25834376 0.22509143 0.23681521 0.25377676
0000b0 49 db c3 3e 19 8a 22 3e 82 21 7f 3e a2 c4 8c 3e
       0.3825324 0.15872993 0.24915126 0.2749377
0000c0 b4 95 3d 3e a4 70 52 3e d4 31 26 3e 66 8e 84 3e
       0.18514138 0.20550781 0.16229945 0.2588989
0000d0 00 cb 40 3e de d1 82 3e bd 2f 30 3e 7d ff 3f 3e
       0.18827438 0.2555074 0.1720571 0.18749805
0000e0 2b 1b 1e 3e 12 5b 5f 3e d4 1e bf 3e bf 35 41 3e
       0.15440051 0.21812084 0.37328207 0.18868159
0000f0 8c 5c 80 3e 8c 64 61 3e 18 b5 68 3e 06 2d 71 3e
       0.25070608 0.22011012 0.22725332 0.23552331
000100 d5 59 63 3e 01 93 47 3e 9d c5 29 3e a6 42 85 3e
       0.22202237 0.19489671 0.1657929 0.2602741
000110 41 84 72 3e 5b e8 5d 3e bf 1c 91 3e c3 93 9a 3e
       0.23683263 0.21670668 0.28342244 0.30190858
000120 9f d7 7d 3e dc 3f 82 3e b0 76 94 3e d3 79 35 3e
       0.24789284 0.25439346 0.289968 0.17722254
000130 e5 36 88 3e e4 30 57 3e 4b b9 49 3e c6 29 12 3e
       0.2660438 0.21014744 0.1969959 0.14273748

model.5.running_var f4 [80]
000000 b3 21 8c 3d 37 ec 69 3e 74 b1 3c 3e ee 46 f9 3d
       0.06842365 0.22844015 0.18427068 0.12171732
000010 fe 87 02 3e 3b 19 21 3e 96 3e c8 3d fa 74 a0 3d
       0.1274719 0.15732281 0.09777562 0.078348115
000020 2a ad 73 3d 8c 75 f9 3d b2 30 a1 3d 66 bc 05 3e
       0.059491314 0.121806234 0.07870616 0.1306015
000030 ec e2 96 3d 77 9f e8 3d 60 0c e1 3d be 08 f0 3d
       0.07367501 0.113585405 0.109886885 0.117204174
000040 80 c8 b7 3d 8d a7 c8 3d 73 b1 e0 3d 29 72 0a 3e
       0.08973789 0.09797583 0.10971346 0.13520111
000050 8d 40 b4 3d 1a 93 ca 3d 40 6a be 3d 51 f2 a6 3d
       0.088013746 0.09891339 0.09297609 0.08151687
000060 d8 39 69 3e 93 de e8 3d 45 00 02 3e 22 a8 63 3e
       0.22775972 0.11370578 0.12695415 0.22232106
000070 d1 f1 0e 3e 71 15 b5 3d 41 8a c9 3d d8 f5 df 3d
       0.13959433 0.0884198 0.09840823 0.10935563
000080 64 80 c4 3c 03 1d c8 3d 0a 12 00 3e 66 25 c5 3d
       0.023987003 0.097711585 0.12506881 0.09626274
000090 25 b9 1c 3e 2b 2a 47 3d 22 b1 53 3e 25 93 91 3d
       0.15305002 0.0486242 0.2067304 0.07108144
0000a0 53 9f f2 3d 21 1d bd 3d 3b 1f 8d 3d 06 ae 5b 3e
       0.11846795 0.092340715 0.06890722 0.21453103
0000b0 c9 e8 ae 3e 59 99 92 3d e9 9b f3 3d f3 d1 03 3e
       0.34161976 0.07158155 0.11894972 0.12873058
0000c0 d0 7d af 3d 1d 58 35 3e ab 5a 97 3d 7f d8 71 3e
       0.08568919 0.17709394 0.073903404 0.23617743
0000d0 e2 36 9f 3d b8 9d 10 3e dd c5 bd 3d df a3 f8 3d
       0.0777414 0.14122665 0.09266255 0.12140631
0000e0 3d 06 a1 3d 40 97 3b 3e a8 82 a6 3e 33 f3 6c 3d
       0.07862518 0.18319416 0.32521558 0.05784912
0000f0 f5 a9 d9 3d 03 eb 2a 3e d8 ca e4 3d 7a 2c e8 3d
       0.1062812 0.16691212 0.11171502 0.11336608
000100 c9 20 cb 3d 73 15 c9 3d 9d 88 bc 3d fb c5 ff 3d
       0.09918363 0.09818544 0.092057444 0.12488934
000110 b3 ca e7 3d 04 1d d6 3d a1 c0 1e 3e a9 7b e3 3d
       0.11317959 0.10454753 0.1550317 0.11107571
000120 fa ee 03 3e fb d1 4d 3e fd 0e 81 3e 12 cc a6 3d
       0.12884131 0.20099632 0.25206748 0.08144392
000130 19 6c 6d 3e 70 29 1a 3e 17 69 0c 3e 43 8b 6c 3d
       0.23185767 0.1505487 0.13711964 0.057749998

model.6.weight f4 [1, 80]
000000 27 54 cb bd 7c f0 d7 bd 5c dd ed 3c 64 7c c1 3c
       -0.0992816 -0.10543916 0.029036216 0.023618884
000010 9c 70 15 bd a1 5d 2c 3e 09 d0 78 bd 46 d9 16 3e
       -0.036484346 0.16832592 -0.060745273 0.1473132
000020 62 4f 34 3c 77 30 c4 bd 61 ec 08 3c ae db 25 be
       0.011005254 -0.095795564 0.008357138 -0.16197082
000030 99 dd a8 bd ec 71 f4 bd 3f 1e 55 3d bf 1d 9a bd
       -0.082453914 -0.119357914 0.052030798 -0.07525205
000040 7e 2c 61 bd 43 fa 48 3d e8 b4 cf 3d c0 c1 d9 3d
       -0.05497407 0.049066793 0.10141927 0.10632658
000050 3e 1b 4f bd 61 b8 32 3d b3 9b b2 bd 2f 9e fe bd
       -0.05056309 0.04363287 -0.087211035 -0.12432515
000060 c2 56 99 3d 4d 18 96 bd ef 41 0b bd 0a 50 a4 bd
       0.07487251 -0.07328854 -0.033998426 -0.08023079
000070 e1 52 e1 3d c2 0d 8d bd c2 d7 f1 3d 0c 2c 58 bd
       0.11002136 -0.0688739 0.11808731 -0.05277638
000080 60 db e0 3c a1 74 53 3d fa a8 ba 3d 98 30 ab bc
       0.027448356 0.051624898 0.09114261 -0.020897195
000090 d5 04 99 3d 87 f7 7c bd 87 84 cd 3d d4 9c 82 3d
       0.07471625 -0.061759498 0.10035043 0.06377569
0000a0 45 ef 5e 3d 5c 62 8c bd 9b d6 a3 3d 3a 72 28 3d
       0.054427404 -0.06854698 0.07999917 0.04112456
0000b0 75 db a6 bd 2f eb f2 bc 04 70 bc bc ab 0c aa 3d
       -0.08147327 -0.02965316 -0.023002632 0.083031975
0000c0 46 ca d0 bb bd 68 2b bb c8 2b 5b 3d 5f 62 97 3d
       -0.006371769 -0.0026154958 0.05350855 0.0739181
0000d0 65 4f 59 3c d7 bb 02 3e 08 26 bf 3d 1b ad a9 3d
       0.013263558 0.12766968 0.09333426 0.082849704
0000e0 e6 97 c3 bc 96 07 05 be e9 de f0 bc f2 0e e1 bd
       -0.023876142 -0.12991175 -0.029403167 -0.10989179
0000f0 e6 43 c2 bc 25 86 e2 bd be 74 f6 bd 23 5a 8e 3c
       -0.023714017 -0.11060742 -0.120339856 0.017376965
000100 c2 ec 6a bd 75 28 02 3e 62 82 2e be b4 b9 11 bd
       -0.057354696 0.12710746 -0.17041925 -0.03557749
000110 03 c1 49 3d fa 1e 1b bd 6f 7c c8 bc 17 26 f1 bd
       0.049256336 -0.03787134 -0.024473397 -0.11774843
000120 bb dd 36 bc 7a d4 91 3d 41 ea 03 bd 44 2d 4c 3d
       -0.011161263 0.07120605 -0.032205824 0.049847856
000130 bf 69 7b bd 7f eb c9 3d 31 bf 36 3e 3a 64 a1 bd
       -0.061380144 0.098593704 0.17846371 -0.07880445
